models/transfer/gru_model.pt (torch, 157964 bytes, 16 tensors)

encoder.weight_ih_l0 f4 [192, 1]
00000000: 3c3f 1d3b a2b2 41bc 6696 30bd 5f3d 0ebd
00000010: a8a4 ae3c e9ce 8e3c 43ff bf3b 5b64 063e
00000020: ee23 6fbb 5dc9 8abd b6c0 f5bd 6bb8 af3d
00000030: 8f51 a2bd e24a 963d d0a0 75bd ceae 95bd
00000040: 0997 413c fe51 ae3d d851 f2bd d3ea 973d
00000050: 587e e2bd 0c70 74bc 92d2 36bd 359b c4bd
00000060: 7d43 afbd da57 1ebd 6e12 bbbd 6345 713c
00000070: 7ef0 bebd 1937 3ebd f6db 4bbd b74d 413d
00000080: 0a4c 3ebd 0e08 ad3d 5910 973d e28a aabd
00000090: 2305 3bbc efb8 04be 426f 933d d6fe 8abc
000000a0: 23c6 ad3c f183 0c3d 700d f53d 3126 72ba
000000b0: bd87 f4bc 64b9 db3d 3f05 7dbc 1913 633c
000000c0: ea25 513b e6bf 65bd a8e6 a93d cc63 bebd
000000d0: 3a5c 593d 8e44 7a3d e8ae 943d e299 a2bd
000000e0: 78e7 a23d 02bb fb3d dd19 283c ab91 b9bd
000000f0: d0d9 76bc f84b 4f3c c8dd c9bd 94c8 663b
00000100: a8e2 f0bc d1be e9bd e5f5 bc3d 8cd0 c5bc
00000110: b4b2 1cbd c168 773d 4cc6 d73b 5c31 afbd
00000120: 6655 353d a375 c6bd 05ec efbd 4983 acbc
00000130: a2be a3bd 0b66 123d 568b 67bc a364 453c
00000140: baa2 cf3d 77f3 c1bd c845 bbbd 0c86 88bc
00000150: 26ea 29be 746c e73b 3c98 97ba a276 5abd
00000160: b01f fbbd 547e c53b 46d3 00bd f198 ecbd
00000170: d390 913d 7cf2 2abd de54 b9bd c9d0 23bc
00000180: c943 12be d5d3 4bbc ac9e f8bd 2bfa d0bd
00000190: 2bdf 00bd be3a 763b fb7a 6fbd cffb aabc
000001a0: 3d64 24be ceaa 3dbd ad81 4ebd f345 85bd
000001b0: c0b7 2ebd 96ef fbbc c3a3 43b9 83a2 d0bd
000001c0: afc5 d13c d52d 393d 29af cfbb 1045 a93c
000001d0: ff82 063c 3d30 2d3b c1f0 1cbd 31e4 093d
000001e0: 7dd1 523d 8dc9 c1bc 067e d23b 31d2 aebc
000001f0: dca3 2e3d af44 aabd 09ea d2bd bd64 cdbd
00000200: 78a7 973d f19a 54bd 3f76 b5bd 51a4 163b
00000210: 1591 b2bd 7bef 93bd 3964 a0bd 77d2 b2bd
00000220: 9432 92bd 3aa6 1c3d 2661 6cbd 9649 cb3c
00000230: 5e0d f03d a52b a43c 8fd6 083e d1f5 bc3d
00000240: a396 3a3b 67fd 8e3d 84af 043e 4f32 c8bd
00000250: 57a1 86bd 9437 cd3d afb9 963d 47c1 d23c
00000260: a5f8 183c 2e1a aabd c15c 613d 4b19 aa3a
00000270: 423e b1bb 9df5 cd3d a036 5a3d 1c83 16bc
00000280: 9e30 24bd 48fe b6bd 1bbc 343d 29b4 e33d
00000290: 10d4 5dbd 8b30 9fbd 1976 bf3d 4574 f3bd
000002a0: fa65 003e 77e7 1b3c 4c83 cc3d 05d0 9e3c
000002b0: 9746 333d 00f9 02be ee8b 58bc cd02 ac3d
000002c0: 8f42 20bd c09b bf3d 73cd f0bc 43bc 96bd
000002d0: 0ba1 55bd 18e6 dbbd fdf3 e13c 363c 6cbd
000002e0: 586c 353d 9d97 2ebd c1f3 5d3d 0d5e c83d
000002f0: b26b a9bd bcc9 b6bd dbca c13d 4045 babc
0.002399399 -0.011822375 -0.04311218 -0.034726497 0.021318749 0.017432647 0.005859287 0.1312422
-0.0036489922 -0.06776688 -0.11999647 0.08580097 -0.07925712 0.073385015 -0.059967816 -0.07308732
0.011815795 0.085117325 -0.11832017 0.07417836 -0.110592544 -0.014919292 -0.04463441 -0.09599916
-0.08557794 -0.038658 -0.091343746 0.014726016 -0.09323214 -0.046439264 -0.049770318 0.047193255
-0.046459235 0.08448802 0.07376165 -0.08327271 -0.011414799 -0.12961172 0.07198955 -0.016967218
0.021212643 0.034305517 0.119654536 -0.00092372583 -0.029849881 0.1072872 -0.015443145 0.013859534
0.0031913468 -0.05609121 0.08295947 -0.092963785 0.05306647 0.061100535 0.07259923 -0.07939507
0.079543054 0.12291528 0.010260073 -0.09060987 -0.015066579 0.01265239 -0.098567545 0.0035214769
-0.029404953 -0.114133485 0.09226588 -0.024147294 -0.038256362 0.060402635 0.006584918 -0.085543364
0.044270895 -0.09690406 -0.11714939 -0.021058695 -0.07995345 0.035741847 -0.014132341 0.012047919
0.101384595 -0.09470265 -0.09144169 -0.016665481 -0.16593227 0.007062489 -0.0011565755 -0.053335793
-0.12261903 0.0060270224 -0.031451486 -0.11552609 0.07107701 -0.041735157 -0.0904939 -0.009998509
-0.1428367 -0.012440641 -0.12139639 -0.10203966 -0.03146283 0.0037571634 -0.058466893 -0.020872025
-0.16053863 -0.04630547 -0.050416637 -0.065074824 -0.042655706 -0.030753892 -0.00018657655 -0.10187247
0.025606958 0.045209724 -0.0063380194 0.020662814 0.008209943 0.0026426457 -0.03831554 0.033664886
0.051469315 -0.023655677 0.0064237146 -0.021340461 0.042636737 -0.083138816 -0.10298545 -0.1002898
0.07404989 -0.051905576 -0.08860444 0.0022986124 -0.087190785 -0.07223412 -0.07831616 -0.08731549
-0.07138553 0.038244464 -0.057709835 0.024815362 0.117212996 0.020040343 0.13363098 0.09226573
0.0028471134 0.069819264 0.12957579 -0.097752206 -0.06573742 0.10020366 0.07359635 0.025726927
0.009336625 -0.08305775 0.055020098 0.0012977509 -0.005409033 0.10056613 0.05327475 -0.009186532
-0.040085427 -0.08935219 0.044124704 0.11118347 -0.054157317 -0.07772931 0.09348697 -0.11887411
0.12538901 0.009515635 0.099859804 0.0193863 0.04376849 -0.12790298 -0.013216956 0.08398972
-0.039125975 0.09355879 -0.02939484 -0.07360127 -0.052155536 -0.10737246 0.027582163 -0.05767461
0.044292778 -0.04262506 0.05418754 0.09783564 -0.082724944 -0.089251965 0.0946252 -0.0227381

encoder.weight_hh_l0 f4 [192, 64]
00000000: d8c1 e1bd f865 a7bd a7b7 04be a24c b4bd
00000010: bb3a 233c 3d1d 9e3d 3cee 073d 1432 883a
00000020: 7757 64bc 8921 83bd 34a0 403d 9b54 c13d
00000030: 693a 533d 32a5 b63d 9483 063e 4112 473b
00000040: 69dd 6abd 9258 cc3d 8273 bb3c 99a8 78bc
00000050: 80eb 6cbb 63a2 e13c ba87 43bd 86a2 763d
00000060: 0ef4 d6bd 5cbb 32bb 4e7a f6bd 4176 703d
00000070: 5cdb 8abd 7a4e 8fbc 3d6a ac3d c9c8 713c
00000080: 3269 8cbb 22af 1e3d 7d8b c5ba 3352 b93d
00000090: ab62 85b9 71da 8a3d 30ed bd3d 5191 f2bc
000000a0: b714 e83d de51 063d 3f67 cf3d 3a3f b5bd
000000b0: 16b4 febd 3480 bb3c c718 e63c 56e8 0ebd
000000c0: e466 a8bc a568 273d a8a9 b03d a9aa 883c
000000d0: c8d6 ba3d 421d c53d ad76 1a3d 3e63 ae3c
000000e0: ce04 babc 0e4e 9cbd d7a8 693d 1249 1bbc
000000f0: e56e 74bd ad39 29bd 5131 7bbd cfa9 7f39
00000100: 0710 1a3d 28ca a43d fdda 7ebd 3bb1 b13c
00000110: 10a5 0cbd 7fd3 b9bd 07d2 363d 479c c03d
00000120: 30d1 c63d 001a a13d fe11 d0bc 2065 503c
00000130: 6ac6 db3c 535f 27bd 9b65 9d3d 60e1 77bd
00000140: ddae cbbb 66b0 28bd 567d 8f3c 39ea 2b3d
00000150: 1eb7 3f39 2c32 81bd d555 7d3d 361c 4ebd
00000160: 3e38 0b3b 59bf 08bd 858e c439 cfa9 783d
00000170: c6c4 173d 8532 0abc 6250 1abd f0e7 443a
00000180: 33e8 10bd c527 abbd 9be5 a03d 799a a23c
00000190: c173 7bbd e53e 7abd b268 d73c 2d31 bbbc
000001a0: 522c 6bbd 09d8 be3d d5e2 303d 7eb4 513c
000001b0: 78e8 933c 53c5 f73b a6bb 5abd bfea 073d
000001c0: 624f 10bd 74c8 aebc 2493 363b 61c1 b73d
000001d0: 56a5 363d 8e46 a4bd 1f6c 28b9 c8a9 683d
000001e0: d2e6 80bc 8f70 2c3d 064c cbbc 3d7d 52bd
000001f0: 65f7 633d 6508 80bc 7190 963d b5bd 953d
00000200: be85 7fbd a271 c8bd f8fc c1bb e8df 69bd
00000210: 7ae8 9d3d 6cc0 8c3d d9d0 bf3d d036 3fbd
00000220: 54c0 023d e37b babb ad10 a3bd 1917 8bbd
00000230: 77cf 433d 61a3 8c3c a268 c73d aef5 8e3c
00000240: cf48 df3c 4e2e 0c3d 2f92 a6bd 7a79 bebd
00000250: ffc6 abbd 83d5 58bd bd35 f23c 98e8 40bd
00000260: 905c b5bd 03dc 6ebc 24b9 a4bd cc02 99bc
00000270: 4d4d c7bd 9849 d2ba 96f9 aabd 1f78 76bd
00000280: bb95 b33d 643e 033e e5ff 9abd 78e8 2e3c
00000290: 1460 bcbd 3d68 96bd 9159 efbd a736 a4bd
000002a0: 448b da3d 5afd b63c a21c 3d3d 30a2 04bd
000002b0: 2df4 653d ac00 543d 3993 343d fe57 1a38
000002c0: 822c 86bd e060 153d 0aa5 833d 3776 6fbc
000002d0: ff79 df3d 6474 f23c 3bb6 7a3c e40a 953d
000002e0: 059e cabc 38ef 853c 437a 61bc 950c b6bd
000002f0: 393d 7b3c cb92 1b3d e708 16bb c6c5 9f3c
00000300: 25da d0b9 cb95 4e3d 7f36 97bd f87e b13b
00000310: a9e8 d6ba 1911 193d 8881 dabc fdc4 bc3c
00000320: ef01 7ebd 138b b83c f6d9 87bc 52cb 483d
00000330: 8962 973d 2683 043d 9a61 30bd 6522 ac3c
00000340: 31ab 3ebd c671 a13b 6512 953b 6a00 c4bc
00000350: 092f 82bd 0632 70ba abed a43a 0526 1dbc
00000360: 0525 4d3d ed5e bc3b 1790 0ab9 1364 84bd
00000370: bf60 2a3c eb9e f939 8f9b 033a cd77 cc3a
00000380: 5f7e 883c 2262 083d 1a45 17bd 03c0 92bd
00000390: 03e5 debc 6022 32bd 28ab 0cbc 21ea 02bd
000003a0: 8c18 d2bc b210 9dbd 72be 843d b5bf fbba
000003b0: fb5d 19bc b63b 783d b5c4 a0bb 7eaf d7bc
000003c0: 2516 a83c 06b4 2cbd 8308 ee3b 2a91 193b
000003d0: 3a92 223d 611b 0c3c f3c1 983a d05c f6bc
000003e0: c6b2 51bb 14bf 57bb 0601 d73c 0381 db3c
000003f0: f9a6 43bc 1338 6ebc 6ea2 d1bc f843 893d
-0.11023301 -0.08173746 -0.12960683 -0.08803679 0.009962733 0.077204205 0.033186182 0.0010390901
-0.013936869 -0.06402881 0.04702778 0.09439965 0.051569376 0.08918227 0.1313613 0.003037587
-0.05734006 0.09977831 0.022882227 -0.015176916 -0.003615111 0.027543252 -0.04773686 0.06021359
-0.104957685 -0.002727232 -0.120350465 0.058706526 -0.06780121 -0.017493475 0.08418701 0.014757344
-0.004285001 0.03874124 -0.0015071478 0.090488814 -0.0002544125 0.06779946 0.092737556 -0.029610308
0.11332076 0.03279292 0.101271145 -0.0884995 -0.124366924 0.02288828 0.028087987 -0.03488954
-0.020556875 0.04087128 0.08626109 0.01668294 0.091229975 0.09624721 0.037710834 0.021287557
-0.02270737 -0.07632075 0.057045784 -0.009477871 -0.05967607 -0.04131477 -0.06132633 0.00024381954
0.03761294 0.08046371 -0.062220562 0.021690955 -0.034337103 -0.09073543 0.04463389 0.094048075
0.09707868 0.07866287 -0.025399204 0.012719423 0.02682801 -0.040862393 0.07685395 -0.06051767
-0.0062159137 -0.04118385 0.01751582 0.04197142 0.00018283396 -0.06308398 0.061849434 -0.050319873
0.002124324 -0.03338561 0.00037490219 0.060708817 0.037052892 -0.008434896 -0.037674315 0.0007511368
-0.035377692 -0.08357195 0.07856294 0.019849049 -0.06138969 -0.061095137 0.02629504 -0.022850597
-0.057415314 0.09318549 0.043185074 0.01279938 0.018055186 0.0075613647 -0.05340161 0.033182856
-0.035231955 -0.021335818 0.0027858699 0.08972431 0.04459127 -0.0802127 -0.00016062007 0.05680254
-0.015735064 0.04209953 -0.024816524 -0.051388968 0.055655856 -0.015629003 0.07351769 0.07311574
-0.062383406 -0.09787299 -0.005920049 -0.0570983 0.07710357 0.06872639 0.093660064 -0.046683133
0.0319217 -0.005691038 -0.07962165 -0.06791515 0.047805276 0.017167749 0.09736754 0.017451134
0.027256398 0.034223847 -0.08133351 -0.093005136 -0.08387565 -0.052937996 0.02956664 -0.04709682
-0.088555455 -0.014578822 -0.08043125 -0.018678091 -0.09731541 -0.0016043661 -0.08348386 -0.06017315
0.08768793 0.12816769 -0.07568339 0.010675542 -0.09198013 -0.073441006 -0.11687005 -0.080182366
0.10671094 0.022337604 0.046169885 -0.032381237 0.056141067 0.051758453 0.044085715 3.679841e-05
-0.06551458 0.03646934 0.06427963 -0.014615587 0.10911941 0.029596515 0.015302236 0.07277468
-0.024733553 0.01634942 -0.01376206 -0.088891186 0.015334421 0.03798179 -0.002289349 0.019503485
-0.00039835382 0.050435822 -0.07383441 0.005416747 -0.0016396242 0.03736982 -0.026673093 0.02304315
-0.062013563 0.022527253 -0.016583424 0.049022026 0.07391841 0.032351635 -0.04306183 0.021012494
-0.04654998 0.004926893 0.004549312 -0.023925979 -0.063566275 -0.00091627275 0.0012583038 -0.009591584
0.050084133 0.0057486207 -0.00013214383 -0.064644 0.010399043 0.00047611384 0.00050204335 0.0015599668
0.016661821 0.03329671 -0.036931135 -0.071655296 -0.02720881 -0.043489814 -0.008585729 -0.031961564
-0.02564647 -0.076692 0.06481637 -0.0019206913 -0.009360786 0.06060382 -0.004906262 -0.026328798
0.020518372 -0.04216387 0.0072641983 0.0023432472 0.039690234 0.0085514495 0.0011654481 -0.030073553
-0.0031997426 -0.0032920288 0.026245605 0.026794916 -0.011941665 -0.014539736 -0.025590148 0.06702417

encoder.bias_ih_l0 f4 [192]
00000000: 0a57 433d e489 72bd 5c3e b43c 1785 dbbd
00000010: e63b b53d 4f33 a1bd 04b0 da3c c556 383b
00000020: c86c a7bc a925 c03d 42a5 893c 48df e43d
00000030: f618 7b3d 14af 1dbd 9e32 f23d e091 923d
00000040: 4b3c 25bd 1963 afbd bb6b d1bd 0a53 bd3d
00000050: 5f43 76bd 8b5f a03c 21d6 133b 234a 803c
00000060: f01c 8c3d 79be d7bd d609 84bd dc2b d9ba
00000070: 307d 18bd b59d 973d cf75 8dbc 58cc ac3c
00000080: 6f5f 2bbd 0328 26bc ae2b 3c3c fb6e adbd
00000090: 28a6 863d 9715 633d 6adf e53d f7fc 9fbd
000000a0: 5489 e0bd b952 f03c 8203 b23c 4dc4 35bd
000000b0: ac0f 443d bb64 5c3d 1e5f dbbd 2b21 87bd
000000c0: d59e 8c3c c62b 9a3d f660 f9bc 9ed7 a9bc
000000d0: 3692 533d d502 853c 57ab d43c 3e4c 7dbd
000000e0: 9b73 08bd a5a8 543d 8c63 aabd a444 d13d
000000f0: 8071 d2bd fd0e 6f3d 73ff 90bd 0665 bf3d
00000100: 6f74 cfbb fb55 02be 4b07 083c ff0d 8abd
00000110: 20bc c73c 7061 07bc 149b cfbd 4f60 2ebe
00000120: 1d08 b03c 9b88 babd 52eb 04be e1de 36bd
00000130: 74e2 a2bd 71b2 59bd d1bb 363d d5f5 52bd
00000140: e136 e3bd ff0e 643d ad6f 4cbd 8b55 b7bc
00000150: b970 2fbe 769b 9bbd df6b 27bd 39e3 43be
00000160: 26ee 943d f078 3bbd 1aa5 7fbb bb77 52bd
00000170: b5dd b73b 41cc 4bbd 6b61 0fbe 3222 8ebc
00000180: 952e ebbd c2ff b5bc 6423 c2bc 609c 40bd
00000190: 6043 debc 1051 94bd f187 eabd 30f0 a0bd
000001a0: a692 723d f3cb 933d b40e 623d ea3e 843c
000001b0: b253 dd3c 9440 60bd 7cbb 9f3d 8fa9 e83d
000001c0: b34c 1a3d 40f4 a13d 42c6 23bd 4fe6 733d
000001d0: 5ad4 073c 8165 1abd e5ca 1abb 4a3d 253d
000001e0: 7d4e 463d ca8f 73bd 8d7c 18be 9671 4a3d
000001f0: dff6 96bd 4c66 e8bd 558f c03c b1bd 12be
00000200: eef3 9cbc d844 b9bd 4724 b9bd daf1 babd
00000210: a5b0 583d 14f4 633c 35ad bb3d 767f 45bc
00000220: 336f bdbd 8a37 bd3d bd7d ecbd 3463 953d
00000230: 1bfc 8f3d 6c00 20bd e8b0 93bc 1c4a 98bd
00000240: 4401 4c3d c89c 653d 89a1 37bd 5ff2 c63c
00000250: e011 bb3d 2076 ae3d b86e db3d a219 a5bd
00000260: b53d fbbd 3474 633d 0f66 b3bd 8688 a03d
00000270: f9f2 8fbd 3252 06bd 22eb e3bd ed95 103d
00000280: f40c e0bd 9248 5fbd b84a cbbd 606a 2c3d
00000290: caee a3bd 1adf 423d f945 723c 9dce 033d
000002a0: d8b7 173d 70d2 3f3d 357f 933d 97ad 56bc
000002b0: a970 dabd 435a 56bd c0d1 b8bc aeba 373d
000002c0: 2071 f23d 9cd1 b43d 1c95 713d ef56 fabc
000002d0: 589f 1e3d b941 7c3c 1dee 25bd 3082 003e
000002e0: 0a5d ae3c 265a 9a3d a4d9 7cbd b749 e9bd
000002f0: 6234 c33d 3592 613d d58d e03d 07c7 ed3d
0.04769043 -0.059213534 0.022002392 -0.10718744 0.08849315 -0.078711145 0.026695259 0.002812789
-0.020437613 0.09382183 0.016802434 0.111754 0.0613031 -0.038497046 0.11826061 0.0715673
-0.040340703 -0.08563823 -0.10225626 0.09244354 -0.060122844 0.019576808 0.002255805 0.015660351
0.06841457 -0.10534377 -0.064471886 -0.0016568857 -0.037228763 0.07403127 -0.01726809 0.021093532
-0.04183906 -0.0101413755 0.011485023 -0.084684335 0.065746605 0.05544051 0.112242535 -0.07811921
-0.10963693 0.02933632 0.021730188 -0.04437666 0.04786651 0.053807 -0.107115015 -0.06598123
0.01716558 0.0752788 -0.030441742 -0.020732697 0.05165311 0.016236702 0.025960607 -0.06184029
-0.033313375 0.051918644 -0.08319768 0.1021817 -0.10275555 0.058363903 -0.07079973 0.093454406
-0.0063310186 -0.12728111 0.00830252 -0.06740951 0.024381697 -0.008262977 -0.10137001 -0.17028926
0.021488244 -0.09108087 -0.12980393 -0.044646148 -0.07953349 -0.05314869 0.04461271 -0.051503975
-0.11094452 0.055678364 -0.04991119 -0.022379657 -0.17132844 -0.07598011 -0.04087436 -0.19129647
0.07271986 -0.04576963 -0.003900832 -0.051383715 0.0056111463 -0.04975534 -0.14002006 -0.01735029
-0.11483494 -0.022216681 -0.023698516 -0.04702413 -0.027131736 -0.07242024 -0.1145171 -0.07858312
0.059221886 0.072166346 0.055189803 0.016143281 0.027017448 -0.054749086 0.07799432 0.11360466
0.037670802 0.07907915 -0.039983995 0.05954581 0.008290375 -0.037694458 -0.002361947 0.040341653
0.048414696 -0.0594633 -0.14891262 0.04942473 -0.07371306 -0.113476366 0.023505846 -0.14330174
-0.019159283 -0.09046334 -0.090401225 -0.09128161 0.052902836 0.013913173 0.09163896 -0.012054315
-0.09249725 0.09239109 -0.1154742 0.07294312 0.07030507 -0.039062902 -0.018028691 -0.0743601
0.049805894 0.05605772 -0.044831786 0.024285493 0.09134269 0.08518624 0.10714477 -0.0806153
-0.12267629 0.05553074 -0.087597005 0.0783854 -0.07028765 -0.03279323 -0.111288324 0.03529923
-0.109399706 -0.054512568 -0.09926361 0.042093635 -0.0800453 0.047576047 0.014787191 0.032179464
0.03704056 0.04683155 0.07201997 -0.0131029105 -0.106660195 -0.052332174 -0.022560954 0.044855766
0.11837983 0.08829042 0.058980092 -0.030559031 0.03872618 0.015396529 -0.040510286 0.12549663
0.021284599 0.07536726 -0.061730996 -0.11391013 0.095314756 0.055071075 0.10964552 0.11610227

encoder.bias_hh_l0 f4 [192]
00000000: b0d9 80bc a82f 873d 61f9 ae3c 7e8c 263d
00000010: e2c0 4abd 0cd5 8c3d 7665 843d d8e5 43bd
00000020: 24ad 81bc 155e 18bd 685c c03d 95bb e73d
00000030: f213 5f3d c3a4 7fbb 3cd7 953d e93c 033e
00000040: b9f4 80bd a900 b13c 1857 23bd b6e3 c0bd
00000050: 07ed 073e dfc4 933c 19b0 7e3d 5875 e43d
00000060: 9a2e d0bd cbd8 6b3d fac7 ba3d 2b09 af3d
00000070: 133a cc3d e0de 153d 3031 003e 94b8 dcbc
00000080: d626 d6bd 11a4 823d 065c b13d 761b 97bc
00000090: 9fc3 a8bc edd1 8bbc 03e1 983d da14 cebc
000000a0: f07d d6bd 0c2d 51bd 0b2e c43c d066 b73d
000000b0: 021d eabd cf94 14bd 7308 d93d 4725 0b3d
000000c0: 30d0 88bd 9e9c 94bd 6e01 0abd 6c80 c13d
000000d0: 63d8 1dbd 3524 273d 5b2f 86bc c9de b33d
000000e0: 82c1 d2bd 4aa8 a93c 137c fb3d 7f8e 243d
000000f0: dfbd bcbd 7b4e 9a3d 2a78 463d b80c 00bd
00000100: face b43d 11cd 63bd 7716 8cbc 4ed9 94bd
00000110: 0e0d 60bd 9865 1dbd 6d7f 2dbd 5e6e 48be
00000120: 2e62 b03d ef71 8d3d 8cf8 aebd c1ae d2bc
00000130: 99ae 68bc 0387 d8bd f66f f6bd 62c3 983d
00000140: 0430 babc 4936 18be 822e d5bd c81e 40bd
00000150: 5bf0 35be 29ff cf3d 4d02 b53b 1e05 e5bd
00000160: f469 a73d c43d 25bc 8890 043b e337 d5bd
00000170: b486 b53c c5df dbbc 238e 403c 6d6f b1bc
00000180: ad37 c23c 2912 65bd 7643 a0bb 77f8 ad3d
00000190: 035d 4ebd cfa1 8dba 6112 2abe fc3d f4bd
000001a0: 4947 22be 70b9 a4bd e7b3 70bd 6374 e0bd
000001b0: 0462 3dbd b5e8 723b e338 e23c 7c11 e2bc
000001c0: d2a8 b83c 270c a4bc 1211 523d 85f1 a23d
000001d0: 84d7 bebb b664 72bd 3748 133c 34ed 13bd
000001e0: 2723 88bd ce96 0cbb 3478 0fbd f95d fb3c
000001f0: 6a49 923d 032b 9ebd 917c a3bc b701 babd
00000200: ac8b 74bd a257 a43a b3f9 bf3d a885 6dbd
00000210: 40dd 153d 0c61 e8bd 3d58 743d a803 f6bd
00000220: 788f 0d3d f5c2 8abd c617 e43c 6409 0b3d
00000230: 58da af3b 0090 613b f5fc 69bd 7003 1dbc
00000240: ab0a 583d 251a cabc 7444 f2bc f80a ba3d
00000250: 4c39 b03d a3c0 b53c cd66 c7bd 884d debd
00000260: a4c7 c0bd a047 c73b 9e75 ba3d bbd9 5b3d
00000270: 45c6 7b3d 1231 ffbd f718 4ebd 29fa 78bd
00000280: dda0 833d 0b61 ddbd 9e21 03bd a8c0 cfbd
00000290: 0236 d63d f3e5 a5bc b504 ca3d 8c65 47bd
000002a0: 9e0c dbbd a6a3 863d bab4 35bc 6386 033e
000002b0: 6bf3 d13d ee13 553d 0604 49bc 85f3 7d3d
000002c0: 29ff 20bd 81c3 e8bd 6dd5 b4bd 70ef eabd
000002d0: 2cdd 87bd e812 c13c d9f6 923d 095b c13b
000002e0: 124b 893d b36b a93a 2dc9 d7bd cea0 b33d
000002f0: 9156 9cbd ca34 95bc 739d bb3d 826b b93d
-0.015728801 0.066008866 0.021359148 0.040661328 -0.049500354 0.06876573 0.06464665 -0.047826618
-0.01582963 -0.0371991 0.09392625 0.11315075 0.05446238 -0.0039008118 0.07316443 0.12816204
-0.06296677 0.02160676 -0.03987798 -0.094184324 0.13274013 0.018038211 0.06217966 0.11155194
-0.101651385 0.057579797 0.09120174 0.085466705 0.09972014 0.036589503 0.12518764 -0.026943482
-0.10456626 0.063789494 0.0866013 -0.018445712 -0.020601092 -0.017067874 0.074647926 -0.025156427
-0.104732394 -0.05106835 0.023947736 0.08955157 -0.11431314 -0.036274727 0.10597315 0.033971097
-0.066803336 -0.07256435 -0.03369277 0.09448323 -0.03853644 0.040806014 -0.016380003 0.08782727
-0.10290815 0.02071013 0.12279525 0.040174957 -0.092159025 0.075345 0.04845444 -0.03126213
0.0882854 -0.05561549 -0.017100556 -0.0726801 -0.05469995 -0.038426965 -0.04235785 -0.19573352
0.08612476 0.06906497 -0.085435 -0.025718095 -0.014201784 -0.105726264 -0.120330736 0.07459141
-0.022727974 -0.14864458 -0.10409261 -0.046904355 -0.1776747 0.1015609 0.005523956 -0.11182617
0.08174506 -0.010085527 0.002022775 -0.1041105 0.022158958 -0.0268401 0.011752638 -0.021659577
0.023708189 -0.055925522 -0.0048908545 0.084946565 -0.05038167 -0.0010805669 -0.16608573 -0.11925885
-0.15847506 -0.08043182 -0.05876532 -0.10959699 -0.046236053 0.0037064974 0.027615016 -0.027596228
0.022541437 -0.020025326 0.05128581 0.079562224 -0.0058240313 -0.059178077 0.008989385 -0.036114886
-0.0664733 -0.0021452191 -0.035026744 0.030684458 0.07142909 -0.077230476 -0.019956859 -0.09082358
-0.059703514 0.0012538324 0.09373798 -0.057988793 0.036587954 -0.11346635 0.059654463 -0.12012416
0.03456065 -0.06775466 0.027843367 0.033944502 0.005366605 0.0034418106 -0.057126004 -0.009583339
0.05274455 -0.02467067 -0.029573657 0.090841234 0.086046785 0.022186583 -0.097364046 -0.10854632
-0.094130784 0.0060815364 0.09104465 0.05367444 0.06146838 -0.12460531 -0.050316777 -0.060785446
0.064271666 -0.10809525 -0.03201448 -0.10144168 0.1045952 -0.02025125 0.09864179 -0.048680827
-0.10695766 0.06574182 -0.011090452 0.12844233 0.102515064 0.05202096 -0.012269026 0.061999816
-0.03930584 -0.113654144 -0.0882977 -0.1147145 -0.06633982 0.023568586 0.07175989 0.005900745
0.06703772 0.0012925774 -0.10536418 0.087709054 -0.07633699 -0.018213648 0.091608904 0.090537086

encoder.weight_ih_l1 f4 [192, 64]
00000000: 1a3e 4ebd a889 41bd fa6a 38bd f6f4 703d
00000010: b721 90bc 1194 abbd 928a ea3b df20 c33d
00000020: 24b4 573d 0170 c43b 0384 94bc eb04 af3d
00000030: 4d6b c3bd 375b e5bd fb0e 853c b1a9 fcbc
00000040: f7ef ebbc 4e5b 2bbd 9e86 503d 2ecf cb3d
00000050: d19e 0abd 3000 37bc 0de9 33bd a7c7 edbd
00000060: 4897 bfbc dd13 e0bc edb4 ee3c f896 9ebd
00000070: 2049 5a3d b4f4 c0bd 1d15 05bd f92b 79bd
00000080: 28dd edb7 76fc 98bc 16bd 58bd 690c ed3d
00000090: 3412 f6bd 29dc 63bd 98d0 a53d e561 5cbd
000000a0: 8a63 c73d d245 d7bd 3530 a2bd 3bcf 4e3d
000000b0: 2516 64bd 3e9d afbd 1088 d8bd 9d1b 98bd
000000c0: 54f1 da3d 18db 92bc 43f1 95bd 71ab e13d
000000d0: 576a 1cbd 4237 1a3d 8854 a93d 186a bebd
000000e0: d35d 013e 323e f6bc 436b dbbd 7b88 d33d
000000f0: c56e 833d 406c d73d a059 debd 5043 cfbd
00000100: 2b68 5fbd a172 9f3c bb3c eabd d221 cdbd
00000110: 1607 62bd 4063 ce3d 7ec7 06bc 7fda 9fbd
00000120: e80f a9bd c6bf afbd 89fb a1bd 14c9 72bd
00000130: c603 603d 57e5 0c3b 5b3a febd b01f c1bd
00000140: ea7c f6bd c38e e13d 25b2 b33d 6062 d03d
00000150: ffde 673d 97c5 bcbd 773d 7abd ade1 98bc
00000160: e5e1 503d 001e a6ba c358 61bc 70d8 b43d
00000170: e49e 163d af53 0f3c 632d 8bbc c08b 6d3d
00000180: fd56 c93c f620 c73d aadf 8abd 3bc8 d0bc
00000190: e4c0 e63d be0b bb3d 95d8 de3d 6363 e8bc
000001a0: 109b 503d d497 6a3d aaed 5a3d f151 d93c
000001b0: bc63 5dbc 85b1 db3d b20f 983c 33e7 15bd
000001c0: 56e5 8e3c 8fb7 d23c ec2a 9d3d 2977 4dbd
000001d0: 8f47 c73c fb59 183c fb27 713c 94f2 fa3c
000001e0: b5c9 bdbd 5f10 cbbd 4f88 83ba 4872 0ebd
000001f0: 4920 703d 0da6 9cbc aafb c3bd 0f39 2abd
00000200: 9ed2 86bc e57e 393d ef18 053e 200a c63d
00000210: ff08 22bd 8046 783d ff4a be3d 6ea3 01bd
00000220: b698 d5bd f797 82bd 1e18 f93d 0e22 8abd
00000230: e919 1a3c bc06 903d e843 b7bd 9b2a 39bc
00000240: 72ba 37bb 7fc7 ac3d eed0 89bd 847b bd3d
00000250: 4dcc a43c 132e c9bc 99c2 843d 30c6 cf3d
00000260: fdaa a5bc f20f 1d3c 66e4 ad3c b25c 04be
00000270: 14f3 87bc c522 a63d 04ec 57bd 4acc fc3c
00000280: 905c 95bd 3b0c fc3d 6c4a b9bd 001a 3ebd
00000290: 1fbd 8bbd 1bf6 d7bd 1a71 d5bd 04aa 6a3d
000002a0: 626f 7fbd be02 cebc c117 4e3d 547f a0bc
000002b0: 628a 25bb 044a e03d 456b 303d 5c49 dcbd
000002c0: 8ab0 cabd 912a 4b3d 70de 85bd befd 953d
000002d0: 1a5d 113d 4e5a 88bc 3ffe 403c 1c3b dabd
000002e0: 61ad a93d 8ba0 6abd ae96 ae3d 8484 be3d
000002f0: 1083 dcbc 25e3 c1bd f2b4 64bd d1c1 263d
00000300: e05e bdbd 8054 d03d 4f6b c0bd 50a8 efbc
00000310: 9005 b3bd 96c3 8cbb 9186 61bd 8de8 95bc
00000320: 4adf 9a3d d9e7 043e 9de7 903b bcfe 1a3d
00000330: 1244 3f3c ca75 d93d 8b52 503d 4b66 78bd
00000340: 167e 983d 4eb7 75bc 4d2c f23d c24a 6abd
00000350: 1257 3abd ca73 8e3d 9f03 93bd 4c51 efbd
00000360: a6a5 343c adc4 01bd 9369 da3d 7785 6c3c
00000370: f4d6 3abc 064d a73c 324f db3d ec46 96bc
00000380: 79de 6ebd ee59 34bd 8838 2fbd 0b9a e63d
00000390: 99d0 033c 106d 80bd 4db1 99bd 1de3 ca3c
000003a0: 7ec9 bdbd e2f0 c83d 4b06 b33d d578 81bd
000003b0: d3e4 1dbc 0dd4 483d a1e4 93bd 1e98 a3bd
000003c0: 72e4 913b 023e e93d 939f abbd 7e13 9bbc
000003d0: 9e36 973d f2fa 9b3d 6e03 f1bc 594c d53d
000003e0: d5e7 24bd d949 8fbb edb0 9539 74df b1bb
000003f0: ccfe b93c e124 9c3d 247b c6bc afd0 473a
-0.050352193 -0.04725042 -0.045023896 0.058827363 -0.017594201 -0.08377851 0.007157632 0.09527754
0.05266203 0.005994797 -0.018129354 0.0854586 -0.095419504 -0.111990385 0.016242495 -0.030842634
-0.028800948 -0.04183512 0.05090963 0.09951626 -0.033842865 -0.011169478 -0.043923426 -0.11610346
-0.023387566 -0.027353222 0.029139007 -0.07743639 0.053292394 -0.094216734 -0.03249084 -0.06083295
-2.8355586e-05 -0.01867507 -0.0529147 0.11574633 -0.12015191 -0.055629883 0.08096427 -0.053804297
0.097357824 -0.10511364 -0.07919351 0.0504906 -0.05568518 -0.085749134 -0.10572827 -0.07427142
0.10690561 -0.017926738 -0.07321408 0.11019028 -0.03818735 0.037650354 0.08268076 -0.092975795
0.12633447 -0.030058954 -0.10713818 0.10328766 0.06417612 0.10518694 -0.10856938 -0.10120261
-0.0545427 0.019463839 -0.11437365 -0.10016216 -0.05518254 0.10077524 -0.008226274 -0.07805347
-0.08254987 -0.085815 -0.07909305 -0.059273794 0.0546911 0.0021499002 -0.12413474 -0.09429872
-0.12035544 0.11013558 0.08774213 0.101750135 0.05660915 -0.09217375 -0.061093774 -0.018662298
0.05099668 -0.0012673736 -0.013754073 0.08830345 0.036772624 0.008747979 -0.016989416 0.057994604
0.024577612 0.09723084 -0.06780942 -0.025486102 0.1126726 0.09133099 0.108811535 -0.028367704
0.05092913 0.0572737 0.05344931 0.02652833 -0.013512548 0.107272185 0.018562172 -0.036597442
0.01744334 0.025722293 0.07674202 -0.050162468 0.024326114 0.009298797 0.014719005 0.030633248
-0.09266988 -0.09915232 -0.001003513 -0.034776956 0.05862454 -0.019122148 -0.095694855 -0.04155832
-0.016457852 0.04528703 0.12997793 0.096699 -0.03955936 0.06061411 0.09291648 -0.03165
-0.10429518 -0.06376641 0.12162803 -0.06744777 0.0094055915 0.070325345 -0.08948499 -0.011301662
-0.0028034714 0.08436488 -0.06729303 0.09252074 0.02011695 -0.024558103 0.06482429 0.10145223
-0.020223135 0.009586321 0.021227073 -0.12925985 -0.0165954 0.081121005 -0.052715316 0.030859131
-0.072930455 0.1230702 -0.09047398 -0.046411514 -0.06823181 -0.10544988 -0.10421963 0.057291046
-0.062362082 -0.025147792 0.050315622 -0.019591965 -0.0025259485 0.10951617 0.04307105 -0.1075618
-0.098969534 0.04960114 -0.06536567 0.07323788 0.03548918 -0.016644623 0.011779367 -0.106558055
0.082850225 -0.057282012 0.085248336 0.09302619 -0.026917964 -0.094671525 -0.055836625 0.04071218
-0.092466116 0.10172367 -0.093954675 -0.029255062 -0.08741295 -0.0042957766 -0.055059973 -0.018299365
0.0756212 0.12979068 0.0044221417 0.03784059 0.011673944 0.106181696 0.05085997 -0.06064443
0.07445924 -0.0149973165 0.11824856 -0.0572002 -0.045493193 0.06955679 -0.07178425 -0.11685428
0.011025822 -0.031681705 0.10664668 0.014436117 -0.011403788 0.02042247 0.10708465 -0.018344365
-0.058317635 -0.044031076 -0.04277852 0.1125985 0.008045339 -0.06270802 -0.075045206 0.0247665
-0.09266947 0.0981157 0.08741435 -0.06321875 -0.0096370755 0.049030352 -0.07221342 -0.079879984
0.0044522816 0.1138878 -0.08380046 -0.018930193 0.07383464 0.076162234 -0.02942058 0.10414953
-0.040260155 -0.004372817 0.00028551315 -0.005428249 0.022704504 0.076242216 -0.02422864 0.0007622344

encoder.weight_hh_l1 f4 [192, 64]
00000000: 82e7 ba3d c149 803d 689e e5bc b16b ffbc
00000010: 2d4d aa3d 5e5d f43d 00d9 b63d 388c cc3d
00000020: 77e6 b1bd 1448 e63d 5ad6 12bd 2e54 44bd
00000030: 0a6d bfbc b777 a93d 9097 cebc 7ac5 ba3d
00000040: 0659 e33c 9745 33bc 372c 90bd 5f11 12bc
00000050: 661d 10bd bb33 52bd 076a 80bd 4e63 3b3d
00000060: 06a8 fa3d fe03 7bbd 6137 c53d 7162 a73d
00000070: 8e17 b53d 2eda 90bd f7fc b63d b314 fd3d
00000080: 858a 673c 9114 e1bd e53c 123a ee73 5a3d
00000090: eec2 b03d aa77 d3bd b020 fb3d de8a c23d
000000a0: d074 b5bd caff 943d ae37 cebc e202 843c
000000b0: 788e 8dbd 6430 073e 7aa2 75bd b5e7 12bd
000000c0: abb1 3c3c fcd6 a5bc 491b 9d3d f7d2 5abd
000000d0: 304f 3f3d 7b91 9dbd 3819 a1bd f1f7 393d
000000e0: 6aed a73d 3568 cabd d172 b0bd 129c aa3d
000000f0: 9653 283d 2956 bfbd fd64 d8bd 62ab 853d
00000100: 0975 99bd 0665 973c 854d 5abd 858e 75bd
00000110: bc63 8f3d d071 26bd 5e5f fdbd ee16 b63d
00000120: 5d44 9cbc 58c8 f43d abe6 c3bd fdba 763d
00000130: 2784 853c f8af 3bbd 15e0 c4bc 7718 293c
00000140: cd0f c8bd 247e fabd e2d3 ab3d bc0f 7f3d
00000150: f27b b93d 367f b73d 84d6 53bc c10a a73d
00000160: b6c4 1f3c 86b0 123d 8fa9 de3d f81a 3b3d
00000170: 0ff5 9b3d f78b d23c 57da b2bd fb2e b7bd
00000180: b265 953d 5fae 7a3d a21e 82bd d8a8 1fbd
00000190: 90ce e13c f1cc be3d 5c60 48bd a85e 453c
000001a0: 55a9 053e 6af8 dabd 7c72 073e 3fda ae3d
000001b0: 90f0 39bd 37f3 b73d 651c d63d 50ab 613d
000001c0: a96c bdbd 0f7a 173c 5e0d d6bb 0848 c23c
000001d0: 2b85 803d 8aa6 c2bd c3a9 05bd f968 92bd
000001e0: 4d5b 603d 8104 f4bc 3f8b f63d b70b 5b3c
000001f0: b69f ff3d 5157 92bd c2a3 ab3c 42e9 973d
00000200: 389d f4ba eeb5 7e3d f134 a8bd 4d51 c53d
00000210: 306d da3d 3172 1abd 2b74 ebbd 35ef 01bd
00000220: b605 f4bd efba 643d 46bf e63c d866 d83d
00000230: 8780 0abd 609e c2bc 7da4 873d b6e7 8bbd
00000240: ddc0 923d a9ff 3fbc 957b e03d 1306 b73d
00000250: 158b 6b3d ae46 a43d 70db b63d 9d26 f13c
00000260: 4baa c33d 08fc 733d f9fd 9f3d 17fc e23d
00000270: 3dd5 bd3d 691b e53c 00e3 cc3d 4aae 963d
00000280: 4afd 4abd 257b 75bd 3ba9 543d eb71 f9bd
00000290: 7217 183d f2a7 9abd 4405 1cbd 92a3 d2bd
000002a0: f0aa a4bd c725 8e3c a9b7 c93d 6516 633d
000002b0: e7ce 483d a95b cbbd 6378 db3d 5357 afbd
000002c0: ebc5 953d 779d 71bd 5425 c5bd 9ed0 853d
000002d0: f5c1 a83c 841e 043e 0505 9b3d 33ef a83d
000002e0: 0e57 7e3b 4035 993d f840 f33d 2860 5ebd
000002f0: 439d 613a 7060 e63a dd27 653d 86fa e0bd
00000300: 3419 153d d09a 98bd a1d1 3c3c 01f5 46bd
00000310: fae8 3dbd 3cbb a03d 7846 00bd a2ca 75bd
00000320: 26fb 96bb 4751 92bd d4af f1bc 4207 933c
00000330: dcfc 003e 0763 af3d 6700 b2bd 14d5 93bd
00000340: dc75 c3bd 78c8 363c c015 abbd b65a 0b3d
00000350: 524c 62bb ec98 86bd 9719 e03c ee73 9b3d
00000360: 6d39 b6bc cd7a cdbd 46cc fb3c 3f2d 4fbd
00000370: 2089 87bd 9a55 c53d e6d5 8c3d abb7 f43d
00000380: 89be ca3d 3676 a4bd b422 083d c2fa 193c
00000390: 27cb e73d c11f a0bd 7bbe b4bd 0cf2 973d
000003a0: fe43 c9bc 77d3 693b 6302 1a3d 85dc 98bc
000003b0: 79cd 753d 8c11 a73c e142 73bd f008 bfbd
000003c0: f085 c13d b8b2 bebd b39b dd3c 1873 7cbd
000003d0: e321 5bbd e65d 54bd 871a d4bc 18e1 09bd
000003e0: 06b7 b7ba 8629 c93d e6e9 fb3c 2b49 06bd
000003f0: 7d7d 3cbd 9f18 c2bc 5bd0 623d 945b 17bc
0.09126188 0.062640674 -0.028029636 -0.031179281 0.08315501 0.11931871 0.08928108 0.09987682
-0.08686536 0.112442166 -0.035848953 -0.047931843 -0.023367424 0.08274787 -0.025218755 0.09119697
0.02775241 -0.0109418845 -0.07039683 -0.008915274 -0.035184287 -0.051318865 -0.06270223 0.045749
0.12239079 -0.061283104 0.09629703 0.08173073 0.08842383 -0.070728645 0.08934968 0.12357464
0.014132147 -0.10990251 0.0005578532 0.053333215 0.0863093 -0.103255585 0.12262094 0.09499143
-0.08860171 0.072753504 -0.025173035 0.016114656 -0.069119394 0.13202053 -0.059969403 -0.035865504
0.011516969 -0.020244114 0.0767122 -0.053423848 0.04670638 -0.07693764 -0.07866138 0.04540247
0.0819958 -0.09883157 -0.086156495 0.08330549 0.04109534 -0.093426056 -0.10566137 0.06526829
-0.07493026 0.018480789 -0.053296585 -0.05995037 0.07001445 -0.040635884 -0.123717055 0.08891092
-0.019075567 0.11952275 -0.09565481 0.06023692 0.016298367 -0.045822114 -0.024032632 0.010320774
-0.09768639 -0.12231091 0.08390023 0.062270865 0.09056844 0.089598104 -0.0129295625 0.08156348
0.009751489 0.035812877 0.108721845 0.045680016 0.076151006 0.025701506 -0.08733051 -0.08944508
0.072947875 0.06120145 -0.06353499 -0.03897938 0.027564317 0.09316433 -0.04892002 0.012046494
0.13052876 -0.106919125 0.13227266 0.08537721 -0.045395434 0.089819364 0.104546346 0.055095017
-0.09249241 0.00924541 -0.006532355 0.023715988 0.062754 -0.09504421 -0.0326326 -0.07148928
0.05477457 -0.029787304 0.12038278 0.013369492 0.12481634 -0.071455605 0.02095211 0.07417537
-0.0018662577 0.06218522 -0.08213223 0.096346475 0.10665357 -0.037706558 -0.11496767 -0.031722266
-0.11915152 0.055842336 0.028167378 0.10566491 -0.03381398 -0.02375716 0.066231705 -0.06831305
0.07165692 -0.011718669 0.109610714 0.089367054 0.057505686 0.080212936 0.08928573 0.029437358
0.09553965 0.059566528 0.07812113 0.110832386 0.092691876 0.027967172 0.10004234 0.07357462
-0.04955796 -0.059931893 0.051919203 -0.12179931 0.037131734 -0.07551564 -0.03809096 -0.10285105
-0.08040416 0.017351998 0.098494835 0.05544128 0.049025442 -0.09929592 0.10716321 -0.08561578
0.073131405 -0.05898806 -0.096262604 0.06533931 0.020600298 0.12902266 0.07569317 0.08248749
0.0038809213 0.0748086 0.11877626 -0.05429092 0.00086065027 0.0017576348 0.05594622 -0.109852836
0.03640099 -0.07451403 0.011524589 -0.048573498 -0.046364762 0.07848212 -0.031317204 -0.0600077
-0.004607576 -0.07144409 -0.029502787 0.017947797 0.12596458 0.0856381 -0.08691483 -0.07218376
-0.09543964 0.011156194 -0.08353758 0.034022056 -0.0034530354 -0.06572136 0.027355952 0.07590471
-0.02224418 -0.10033188 0.030737054 -0.05058026 -0.066179514 0.09635468 0.068767354 0.119490944
0.09899623 -0.080303594 0.03323622 0.009398164 0.11318045 -0.078185566 -0.08825394 0.07419214
-0.024568554 0.0035679021 0.037599932 -0.01865984 0.060010407 0.02039411 -0.059389953 -0.093278766
0.09449375 -0.09311432 0.027051782 -0.0616332 -0.053499114 -0.05184736 -0.025891555 -0.03366193
-0.0014016337 0.09822373 0.03075118 -0.032784622 -0.046018112 -0.02369338 0.055374485 -0.0092381425

encoder.bias_ih_l1 f4 [192]
00000000: 6582 723d 9404 a93d 8919 c6bd 5861 f53d
00000010: 3204 84bd 0083 ecbd 9a3a 073e d2b5 d5bc
00000020: a69f 80bd e496 d3bd b530 63bd 8716 003d
00000030: aa1b e5bd f1f3 2cbd f912 3e3c 631d 68bd
00000040: c955 b5bb 0120 97bc 2ae5 393d 29c4 fb3c
00000050: a883 323d afec fb3d 5635 e53d d35a c33d
00000060: c958 cabc 4683 6dbc d47e 013e 7fbd 88bd
00000070: dcdc f23c 58de a93d 057b c53c 50a0 933d
00000080: 4dd6 003e 32d4 e6bd 062b a73c b383 df3c
00000090: 0b7d 793d eb61 233d b1b3 87bd f2bd 4dbc
000000a0: ac2b 8a3d 7441 13bd fa01 8b3c 1eb4 dfbd
000000b0: 45cd abbd 50af ab3d bcc4 e4ba 5fe2 df3d
000000c0: 78d5 213d f642 33bd f19c d13d f36d 963d
000000d0: 5b4d a03d 9961 3d3c 8f4e debc a230 ff3c
000000e0: 220d 923d ef96 48bd 0485 ccbd 3d6d 393d
000000f0: 8ae5 0a3c 846c febc 89e4 893d 37ad b03b
00000100: 769b 07bd c71d 96bd 2409 b13d ea97 dd3c
00000110: 3e47 1f3d b4bd ddbd 7c4a 8e3c 2953 00bd
00000120: c05e b23d 12f8 223e 7db1 c1bd d88c d03c
00000130: 9203 633d a549 073e 0261 ddbd 65c3 8c3d
00000140: afc2 acbd ea57 aa3d f6e1 6cbd b49f a03d
00000150: 5eb0 6d3d ae20 0bbc e13a debc 6896 e13d
00000160: 5282 d33d 4b9f 1d3b e5d4 d63d 0ac2 033e
00000170: 7c6d 0dbb e0c6 a43c 71b0 b4ba c90b dbbd
00000180: cad7 59be 7fe7 cf3d e075 c2bd f122 043d
00000190: a143 22be 1ccb 3e3d 0ec6 2f3c ad78 edbd
000001a0: 8b4a f5bd 0826 b3bd d8b3 10be f571 c7bd
000001b0: 4cd2 aabc 1188 9fbd 7425 223d bf9f 913a
000001c0: 386b 1dbe d13e 1c3d 69f6 3ebe e027 17be
000001d0: 1e91 87bd 8055 8a3d 8487 80bd 7881 96bd
000001e0: b869 b0bb 8557 0dbe aef7 d5bc cc4d 6a3d
000001f0: 8d10 dbbd eb2f 5bbd 324b 3a3d ecbd 9fbc
00000200: 703b bebd ea6e c03b 9512 753d e92e 68bd
00000210: 1d41 98bd b8b6 1e3d 6329 e73d 42bf 24bd
00000220: 186f 993d eb20 c7bd e692 73bb a447 5dbd
00000230: f39b c63d 5e68 e53d 2a10 933b c721 3a3d
00000240: 7002 48bd 3df8 833d 8799 42bd 1a3f a03d
00000250: b0d5 a7bd e979 a6bd 5421 0c3d 9dab c1bb
00000260: 4009 6b3d 2fcf fa3c 7dc5 bb3d a37c bdbd
00000270: e530 86bc f772 7b3d 0777 8f3d 231c 72bb
00000280: ea25 07be ff54 9d3d e974 0d3c 4ad3 de3b
00000290: 22f8 f83d 1b6a 80bd 8eb6 423d 93cd 93bd
000002a0: 38c5 08be ce7e 65bd ce06 2fbd 34b3 cfbc
000002b0: 038d 803d 4904 8ebd 3c7d dcbc b85a dd3c
000002c0: 71c1 403d 07f1 933c 002a e23d 1140 f13d
000002d0: cd6b c13c 9ab9 cc3d ee37 533d 6fce 39bd
000002e0: d6e6 49bd 4ef6 063e b9d7 92bd eab7 1dbc
000002f0: 3fa0 653d d9b3 dbbc c267 023e b2c0 3f3b
0.059206385 0.08252826 -0.09672839 0.119814575 -0.06446113 -0.11548424 0.13205948 -0.026087675
-0.062804505 -0.103315145 -0.055466373 0.031271484 -0.11186917 -0.04222483 0.011601203 -0.05666865
-0.005533908 -0.018447878 0.045384564 0.030733185 0.04358259 0.12301003 0.11191814 0.09538808
-0.02470054 -0.01449663 0.12646037 -0.066767685 0.02964633 0.08294362 0.024106512 0.072083116
0.1258175 -0.11270942 0.020406257 0.027284479 0.060910266 0.039888304 -0.0662607 -0.0125574935
0.06746611 -0.035951093 0.016968716 -0.109230265 -0.083887614 0.083830476 -0.0017453651 0.10931849
0.03951022 -0.04376503 0.10235012 0.0734519 0.078272544 0.011558914 -0.027137069 0.03115112
0.07131411 -0.048972066 -0.09986308 0.045270193 0.008477578 -0.031057604 0.06733043 0.0053917426
-0.033107243 -0.07329898 0.086443216 0.027049977 0.0388863 -0.108271986 0.017369501 -0.031329308
0.087094784 0.15914944 -0.09457681 0.025457785 0.055423327 0.13211687 -0.108095184 0.06873206
-0.084355704 0.083175495 -0.05783268 0.07842961 0.058029525 -0.008491678 -0.027127685 0.11015016
0.10327591 0.0024051245 0.10489825 0.12866989 -0.002158015 0.020114362 -0.0013785494 -0.10695607
-0.21273723 0.10151576 -0.09495139 0.032259885 -0.15846111 0.04658042 0.010728372 -0.11595283
-0.119771086 -0.08747488 -0.14131105 -0.097385325 -0.02085223 -0.077896245 0.0395865 0.001111023
-0.15372932 0.038145844 -0.18648686 -0.14761305 -0.06619476 0.06754589 -0.062758476 -0.07348913
-0.0053836964 -0.13802917 -0.02611908 0.0572031 -0.10696516 -0.053512495 0.045481868 -0.019499741
-0.092886806 0.005872597 0.059832174 -0.056685362 -0.074342944 0.038748473 0.11287191 -0.04022146
0.074918926 -0.097230755 -0.0037166416 -0.0540234 0.09697714 0.11201547 0.004488011 0.04544237
-0.04883045 0.06443832 -0.047509696 0.07824536 -0.081950545 -0.08128721 0.03421147 -0.0059103505
0.05738187 0.030616371 0.09168527 -0.09252288 -0.016380737 0.061388936 0.070051245 -0.003694304
-0.13198057 0.07682227 0.008633831 0.00680009 0.121567026 -0.06270238 0.04753738 -0.072169445
-0.13356483 -0.056029133 -0.0427311 -0.025354005 0.06276896 -0.06934411 -0.026915185 0.027020797
0.04705948 0.018059267 0.11043167 0.11779798 0.023610974 0.09996338 0.05156701 -0.045362886
-0.049292408 0.13179895 -0.07170052 -0.009626368 0.056061026 -0.026819156 0.12734893 0.0029259142

encoder.bias_hh_l1 f4 [192]
00000000: 6e3c 4d3d 7728 a1bc 2516 bb3c 5ccb 823d
00000010: b412 2ebd 97aa d93d 8ac6 97bd 2984 593c
00000020: 6692 06bc cd17 7bbd ab55 ea3d 8906 afbd
00000030: b6a5 5f3d 1c65 133d fd8d 193c ffdb c7bd
00000040: 340c 2cbd 0cfa d03d 857f b53d c2d6 b3bd
00000050: f5cb babb 8ff3 913d 00b1 d5bd a692 f0bd
00000060: 45a4 813d ab02 1b3d accf 0ebd a798 14bd
00000070: 3d43 b2bd 7cf8 df3d 68a2 b43d 766f 2f3d
00000080: 355f ad3c 7d65 09bd 8aba 273c 9924 823d
00000090: caa4 94bd cf97 e53c 14ff c7bd 3c99 60bd
000000a0: c54c 50bd 3275 5fbd 59e7 48bd 3802 9b3c
000000b0: e838 8c3d 2e0d 92bd 9853 12bd d347 743d
000000c0: 619d f03d 5638 2f3b d335 2cbd 67ad 223c
000000d0: 7e0d ebbd 7766 133d e086 b53d d79a c7bd
000000e0: c61d dfbd fa6b d73d 3790 c63d 971d e33d
000000f0: f584 57bc da98 c3bd d1c8 483d 1927 ff3d
00000100: f166 8dbd c6fa cebd 155c 67bd 9b7a 853d
00000110: 274f 873d c665 eabd 5ea1 b83c 2c0c 163e
00000120: 5600 763d 48ae ad3c e959 cdbd e06b cebb
00000130: efb4 67bd a5dd 5a3d b71a 06bd 9bd5 8f3d
00000140: 068a fe3d 3e77 bcbd da00 39bd 6278 50bd
00000150: 6faf 29bb 2f87 7bbd 9f69 85bd 5de5 913b
00000160: 967d 81bc 373d 343d 6f16 a9bc a3ce 87bd
00000170: da5f bbbd 49d4 dbbd 1634 9c3d c3ee 4ebc
00000180: ad15 c1bd 7b2e f73d d2ba 023e 2036 2a3d
00000190: bd0b 17be ed6c 05bd 1884 7b3c cb51 763d
000001a0: 68a9 963d 9e1e 873d 45a4 82bd 3941 f7bd
000001b0: 11e6 ffbc 5500 f7bd 2cd7 2dbc 6f67 a2bd
000001c0: 303b 13be afb9 62bd 47dc cfbd b1a1 623c
000001d0: bfd6 843d c69d 4b3d 6a0a 4ebc cc69 24be
000001e0: fdde 38bd 1c15 55bd e8a1 33bd dfb6 8cbd
000001f0: 17d6 d7bd 1031 6ebd ae78 3b3d 0815 efbd
00000200: f836 8f3d f1e1 43bd 71cd ccbd 0679 79bd
00000210: a9e4 cd3d 0d5b c6bd bad4 9ebd c9c7 ccbd
00000220: 03d3 153d d40a 85bd 169f c9bc fce2 ef3d
00000230: 3cbd a53b 6f8b 333c 2233 2b3d 67e6 e43d
00000240: 033b 423d 3ecc 30bd e8ec 78ba 169f 163d
00000250: c60e 133d e393 33bc 6334 023d 3dc8 9f3c
00000260: 2296 42bb 7fb0 0a3d e966 cc3d 6ffa 8d3d
00000270: 0e68 c6bd 5143 7bbd 9187 b33a 0cac 40bd
00000280: b2c0 cfbb 19d7 623b a342 6a3c 9303 9e3d
00000290: 25ad e5bd e0f8 a13d a126 4f3d adb7 20bd
000002a0: d303 3cbc 85f4 23bd 884e e7bd 6a37 09be
000002b0: 62c9 dc3c 7ae7 783d 57f6 9fbd 390c b43d
000002c0: fafc b6bd 1efc a13d 096d 8abd c13c 12bd
000002d0: d2be 273d f879 e1bd 54c1 56bd a127 fdbc
000002e0: f1e3 5dbd 1051 a2bd 1ea8 a7bc 3664 90bc
000002f0: 60d3 6d3a 6c62 043d 434a d8bb 2d7e 80bd
0.05010646 -0.019672615 0.022837708 0.06386444 -0.042498305 0.106282406 -0.07410915 0.013276138
-0.008213615 -0.061301995 0.11442121 -0.08546168 0.054601394 0.035985097 0.009372232 -0.09758758
-0.042003825 0.10203943 0.08862213 -0.08781196 -0.005700583 0.07126533 -0.10434151 -0.11746721
0.0633016 0.03784434 -0.03486602 -0.036278393 -0.08704231 0.109360665 0.08820039 0.042830907
0.021163562 -0.033544052 0.0102373455 0.06354637 -0.072579935 0.02802649 -0.09765449 -0.054833636
-0.050854463 -0.054555126 -0.049048755 0.018921956 0.068467915 -0.0713142 -0.035724252 0.05963881
0.11748768 0.002673646 -0.04204352 0.009929038 -0.11477183 0.03598639 0.08863616 -0.0974633
-0.10894351 0.10518642 0.096954755 0.11089628 -0.013154258 -0.095506385 0.04901964 0.12458629
-0.069044 -0.10106425 -0.0564843 0.06517526 0.06606894 -0.11445193 0.022537883 0.1465308
0.060058914 0.021201268 -0.100269146 -0.006299481 -0.056569036 0.053434033 -0.03274032 0.07023164
0.1242867 -0.09202431 -0.045166828 -0.050896056 -0.002589192 -0.061408218 -0.06514286 0.004452391
-0.015806954 0.04400369 -0.02064058 -0.0663121 -0.091491416 -0.107338496 0.07627122 -0.012630167
-0.094279625 0.12069412 0.12766579 0.041555524 -0.14750572 -0.032574583 0.015351318 0.060136598
0.073565304 0.06597637 -0.06378988 -0.12072987 -0.031237634 -0.1206061 -0.010610383 -0.07929885
-0.14378047 -0.055352863 -0.101494364 0.013832496 0.06486272 0.04971101 -0.012575725 -0.16055983
-0.045134533 -0.052022085 -0.043855578 -0.068708174 -0.10538881 -0.05815226 0.045769386 -0.11673933
0.06992906 -0.047822896 -0.10000122 -0.060906433 0.10053379 -0.09685335 -0.07755418 -0.099990435
0.03657819 -0.06496206 -0.02461199 0.11713216 0.005057959 0.0109585365 0.04179681 0.11176758
0.04741956 -0.04316353 -0.0009495751 0.03677281 0.03590276 -0.010960552 0.03178824 0.01950466
-0.0029691537 0.033859726 0.09980566 0.06932532 -0.096878156 -0.061343495 0.0013697018 -0.047039077
-0.0063401097 0.0034613071 0.014298114 0.077155255 -0.11214665 0.07908797 0.05057395 -0.039237667
-0.011475521 -0.040028114 -0.112942755 -0.13400045 0.026951496 0.06076763 -0.078106575 0.08791394
-0.0893497 0.07909416 -0.06759078 -0.03570247 0.040953465 -0.11009592 -0.052430466 -0.030902686
-0.05417246 -0.07925618 -0.020465907 -0.01762591 0.000907233 0.032320425 -0.0066006496 -0.06274066

decoder.weight_ih_l0 f4 [3, 64]
00000000: a98e 043d d405 0fbf af7a 3dbf fbaf 5d3f
00000010: b23c 65bf 5359 acbc fb18 88be 6fd2 2ebe
00000020: 8994 f73e 3011 563f b0c4 0fbf 8c10 44be
00000030: 6714 3fbf 28f0 d93e d7e9 ee3e 591d 3b3f
00000040: 2811 183f 760f 8abd b6fe 473e 293f 28bf
00000050: 4b01 0d3f 29c2 3fbf 0991 bfbe 1042 6abf
00000060: 5894 cdbe 5d2b ff3e bc5f 0c3f 82f0 683f
00000070: aafc dfbe 2139 313f a753 603f 020c 0f3f
00000080: fb92 573f c150 93bc 4533 353f 0a17 533e
00000090: 5872 4a3f c87c 25bf de9b 493f 0173 973e
000000a0: c337 0dbc 296a 503f 7396 463f 6819 acbe
000000b0: 7595 66bf 5834 2a3a 4a79 3e3f 8120 26be
000000c0: 6834 b7be 0b8e 42bf f958 e4be 2fb7 b03d
000000d0: fd7e 363f 8177 3dbf f1f2 d9be 7b04 723e
000000e0: 66e6 1b3f e84a 00bf 6a00 623e 15c0 69bf
000000f0: 8bd5 683f 4c1e 49bf 2583 4c3f 3e16 bebe
00000100: 00c7 a5bd 5b03 49bf ccfc e73e a71d 9d3d
00000110: 1645 08bf 9568 243f 8b4f 07bf 472f 5abf
00000120: 1c8c 05bf f5f6 7abe 7088 47bf f8c3 53bf
00000130: 93d9 6d3e 19c3 733e 7891 5fbd 39f7 3e3e
00000140: ec0f 09be bc3b 433e a505 573e f131 a13e
00000150: f523 243f 365e 193f 8927 2dbf ee2a edbe
00000160: f26c b3be d666 4abf fd6d 173f e418 883e
00000170: c906 513f fec9 453f e1bd 8a3c 2a1a 2e3e
00000180: b5a4 083f 6a8d e0be 3e83 f2bd 555f c93e
00000190: 4c74 1abf a8ce e33d f490 69be 11d1 57bf
000001a0: 9a91 02bf a9ba 3cbf 11d6 e13d 2788 313f
000001b0: 552d 2d3f 3634 c1be bda9 53bf a8e3 283f
000001c0: bf85 a93d 81d2 2b3f 3970 37bf bd13 733e
000001d0: 988b 123f 4d68 223f a9a6 b03e fcba 1a3f
000001e0: 8edf cf3e 3b27 923e 137e 94be 3a65 f2be
000001f0: bdba 55bf 3b75 5d3f 7aa1 a8be 8da0 bf3d
00000200: e58d 39be dea6 1bbf 0f09 bfbe bf5e 59bf
00000210: 0e6d d23e 73d2 47bf a214 173f 8f73 cbbe
00000220: 4f63 8d3e 970e f3be 5dea 15be 69ee 11bf
00000230: 9826 3e3d 8735 5f3f 8585 57bf 9d44 623e
00000240: b68e ffbe 5304 643f 4cd6 1dbe b073 653e
00000250: 73b4 0b3f 65cb 07bf 8aa4 aebe aa7d 9b3e
00000260: 8905 193f 831f dd3d 2c09 04be 51d5 78bf
00000270: a80b 6bbf 0d6e 223f f885 703f 5fc0 383f
00000280: 48c5 093e e418 c33e 3d65 743f 8b39 e73d
00000290: 3cb0 46bf 9584 38bf 6ff9 543e f7a2 2a3f
000002a0: 77d9 d73e e034 3abf 9570 763f 83d0 3f3f
000002b0: 86b7 00be 74bf c9be 0284 e93e bc66 4f3f
000002c0: 700b 3a3f 3c06 923e 23dc 31bf 2c5a d0be
000002d0: 2b89 263f 27ed 543f 3a54 0cbf 34d6 313c
000002e0: eab7 cd3d b4b2 6bbf b47a 21bf 1105 173f
000002f0: 6781 76bf 95a5 39bf 3bad 8bbe 0dcc 0e3f
0.032362614 -0.5586827 -0.74015325 0.8659665 -0.8954574 -0.021038687 -0.2658156 -0.17072462
0.4835551 0.83619976 -0.56159496 -0.19146937 -0.74640507 0.42566037 0.4666278 0.73091656
0.5940118 -0.0674123 0.19530758 -0.65721375 0.550801 -0.7490564 -0.3741534 -0.91507053
-0.4015224 0.4983777 0.5483358 0.90991986 -0.43747455 0.69227797 0.87627643 0.558777
0.8420865 -0.017982842 0.70781356 0.20614257 0.79080725 -0.64643526 0.7875346 0.2957993
-0.008619252 0.8141199 0.7757332 -0.33613133 -0.90071803 0.0006492785 0.7440382 -0.16223337
-0.3578217 -0.7599799 -0.4459913 0.086286895 0.7128752 -0.74010473 -0.42568162 0.23634522
0.60898435 -0.501143 0.2207047 -0.9130872 0.9095084 -0.78561854 0.7988761 -0.37126344
-0.08094597 -0.78520745 0.45310056 0.07671671 -0.53230417 0.6422208 -0.5285575 -0.8522839
-0.52166915 -0.24508269 -0.7794256 -0.827209 0.23227529 0.23804893 -0.05458209 0.18648995
-0.1338498 0.19065756 0.20998247 0.31483415 0.64117366 0.5990938 -0.6763845 -0.46321815
-0.35044056 -0.79063165 0.59152204 0.2658149 0.8165098 0.7726134 0.016936244 0.17002168
0.53376323 -0.4385789 -0.11841439 0.39330545 -0.60333705 0.11123401 -0.22809201 -0.84303385
-0.5100342 -0.7372232 0.11027158 0.69348377 0.67647296 -0.37735146 -0.82680875 0.65972376
0.08277463 0.6711808 -0.71655613 0.23737998 0.57244253 0.634404 0.34502152 0.60441566
0.40600246 0.28545555 -0.29002437 -0.47342855 -0.83488065 0.86507004 -0.32935697 0.093567945
-0.18120535 -0.60801494 -0.373116 -0.84910196 0.41098827 -0.78055495 0.5901586 -0.39736602
0.2761483 -0.4747207 -0.14640184 -0.5700441 0.046423525 0.8719105 -0.8418811 0.22096486
-0.49913567 0.890691 -0.15413779 0.22407413 0.5457222 -0.5304473 -0.34109908 0.30369312
0.5977407 0.10797026 -0.12894124 -0.97200495 -0.9181466 0.63449174 0.9395442 0.72168535
0.13454163 0.38104928 0.9546698 0.11290272 -0.7761266 -0.72077304 0.20798276 0.66654915
0.421581 -0.7273693 0.96265537 0.7492754 -0.12570009 -0.3940388 0.45608526 0.81016135
0.726737 0.2852038 -0.69476527 -0.40693796 0.6505305 0.83174366 -0.5481602 0.010854293
0.100448444 -0.92069554 -0.63077855 0.58992106 -0.962912 -0.72518283 -0.27280602 0.55780107

decoder.weight_hh_l0 f4 [3, 1]
00000000: 5a5c 2d3f e934 4e3f 6020 fbbe
0.6771904 0.80549484 -0.49048138

decoder.bias_ih_l0 f4 [3]
00000000: 703d 9fbe 9cf0 cdbe 87b8 27bf
-0.3110156 -0.40222633 -0.6551594

decoder.bias_hh_l0 f4 [3]
00000000: 0675 4ebf fbb0 38bf 6ff0 d6be
-0.80647314 -0.7214505 -0.4198031

decoder.weight_ih_l1 f4 [3, 1]
00000000: f4d4 3e3d e997 f4be 1f39 68bf
0.046589807 -0.47772148 -0.9071216

decoder.weight_hh_l1 f4 [3, 1]
00000000: 5ad2 70be 8862 363f ff5c f4be
-0.23517743 0.71244097 -0.477272

decoder.bias_ih_l1 f4 [3]
00000000: 80e9 ce3e 3c2c d13d 894f d9be
0.4041252 0.10213515 -0.42443493

decoder.bias_hh_l1 f4 [3]
00000000: fe14 ddbe 2364 753e 539f ca3e
-0.43180078 0.2396398 0.3957468
