models/transfer/lstm_model.pt (torch, 208674 bytes, 16 tensors)

encoder.weight_ih_l0 f4 [256, 1]
000000 df b2 4f 3c 7f dd a3 3d 2a 7e fd 3c 54 98 e2 3d
       0.012676924 0.080012314 0.030943949 0.110642105
000010 61 17 49 3d d8 0c b7 3d e3 3b 75 3b 13 c4 58 3d
       0.04909456 0.089379966 0.0037419728 0.052921366
000020 7b 3e f3 3b cf 23 90 3d b0 e4 4f 3d e0 28 2f 3d
       0.0074232197 0.0703808 0.050755203 0.04276359
000030 2e a3 b5 3d c7 21 80 3d 37 0b a1 3d c3 7f 51 3d
       0.08869015 0.062564425 0.07863467 0.051147234
000040 07 04 a4 3d 32 bd 8f 3d 08 06 61 3c 0b 95 4c 3b
       0.08008581 0.07018508 0.013734348 0.0031216766
000050 65 e0 33 3d c3 a1 c8 b9 41 9f 20 3d 3b f2 c5 3d
       0.04391517 -0.00038267495 0.039214376 0.096653424
000060 58 28 08 bd b8 69 37 3d 0b 95 71 bc 3e e7 76 3b
       -0.0332416 0.044778556 -0.014745007 0.0037674452
000070 6e 67 3a 3d 0f fb d8 bc 3d 76 d0 3c a5 e7 33 3b
       0.045508794 -0.026486902 0.025447005 0.0027451303
000080 e0 53 3d 3d 4d 87 8d 3d 6b ea 57 3d bf 9e 8f 3d
       0.046222568 0.06910572 0.052713793 0.070127
000090 3e 73 99 3d fc 2e 07 3c 2c e8 18 3c 2f 8d 21 3d
       0.07492684 0.008250948 0.009332698 0.039441284
0000a0 f9 2f 9c 3c fe f5 e8 bb 6e 15 72 3d e0 1a 87 3d
       0.019065844 -0.0071094027 0.05910247 0.06596923
0000b0 db 8f ea 3d 40 5b 1b 3c a0 b0 73 3d 5b 88 75 3d
       0.114532195 0.009482205 0.059494615 0.05994449
0000c0 de 17 94 3d de 86 4f 3c de aa 98 ba 93 31 77 bc
       0.07231115 0.012666432 -0.0011647602 -0.015087503
0000d0 27 68 96 bd fe 18 19 3e de d5 02 3d cc 59 d3 3d
       -0.07344084 0.1495094 0.03194224 0.10319862
0000e0 b2 6c b0 3d 8e 23 2b 3d bd 3f 5a 3d ef 99 fc b9
       0.08614482 0.041781954 0.05328344 -0.00048179875
0000f0 39 7f aa 3d cf 3f c8 3b 44 64 c1 3d 12 39 e1 3c
       0.08325047 0.006111122 0.09442952 0.027493034
000100 0c 30 dc 3a 1b 3d d2 3b f4 ff c3 3d f6 ae cf bb
       0.0016798987 0.0064159757 0.095703036 -0.0063379956
000110 33 a1 90 ba 63 c3 16 3b ed 04 b3 3d 53 ab 87 3c
       -0.0011034369 0.0023004643 0.08741174 0.016561186
000120 06 cb 04 3c b9 1b 5d 3c 98 dc 3d bc f1 1e 3f bc
       0.008105045 0.013495379 -0.011588238 -0.011665092
000130 56 3b 15 bc c8 80 42 3d 33 b8 3c 3d 94 00 cf 3d
       -0.009108385 0.047486097 0.046074104 0.10107532
000140 d7 d8 85 bc 83 6b f9 bc 37 9d 81 3d 6d 05 25 ba
       -0.016338749 -0.030446773 0.063288145 -0.0006295059
000150 b6 7d 87 3d 5c 70 35 bb 7d 89 c8 3c ea 48 ba bb
       0.06615774 -0.002768538 0.024479622 -0.0056849616
000160 50 a7 de bc 96 f8 92 3d b5 08 87 3b 6b 75 cb ba
       -0.02717939 0.0717632 0.004120911 -0.0015522664
000170 13 fa 68 3d 91 38 95 3d 0b b9 c6 bc 76 5f 8f ba
       0.056879114 0.0728618 -0.024258157 -0.0010938484
000180 74 44 3e 3d e4 b4 2c ba 63 41 06 3c 89 49 0d 3b
       0.046452 -0.0006588234 0.0081943 0.0021558723
000190 07 14 45 bc f0 78 b6 3a 29 0a 1a bc 23 59 ac bc
       -0.012028701 0.001392154 -0.009401836 -0.021038597
0001a0 1d 3f 6e 3b 3f 17 78 bd 7c 41 f6 bb 46 d9 cc bb
       0.0036353536 -0.060569044 -0.0075151306 -0.006251487
0001b0 4a 07 41 bd 02 97 1c bc 38 49 55 3d e9 6c cd 3c
       -0.047126092 -0.009557487 0.05207178 0.025076346
0001c0 c8 f8 0a 3d c8 8d 25 bd d7 3d b6 ba db 6d 7d bc
       0.033928663 -0.040418416 -0.0013903928 -0.015468086
0001d0 f0 90 5a 3b 69 b1 bb bc ea d3 87 3b df 1d 0c bc
       0.003335055 -0.022911744 0.004145135 -0.008552044
0001e0 f1 c6 0b 3d 8b 0d 29 bb f2 2a 3d bc c5 b1 2c bb
       0.034125272 -0.0025795426 -0.0115458835 -0.0026351076
0001f0 20 c1 00 3c 6c 68 2a bc c3 6a 85 3c e7 ee 0a bd
       0.007858545 -0.010400873 0.01628626 -0.03391924
000200 15 28 00 3e 1d 09 e1 3c 1e ac 1f 3e 8d d3 79 bd
       0.1251529 0.027470166 0.15593001 -0.060992766
000210 2a 05 40 be fb 7b 31 3e 15 c7 9a bd b8 9d f7 bd
       -0.1875197 0.17332451 -0.07557503 -0.12090629
000220 b3 88 7c bd 52 85 86 3c 77 95 8e bb 36 2b a9 bd
       -0.061653804 0.016420994 -0.0043513137 -0.08260195
000230 40 7a ce bc cc 21 16 be 78 24 00 3e 34 ea 19 be
       -0.025204778 -0.1466133 0.12513912 -0.15030748
000240 da e6 9d 3c ec 17 f3 bc 2e c7 d1 b9 25 8a 1f 3d
       0.019275118 -0.029674493 -0.00040011987 0.038950104
000250 98 c7 39 3e f5 58 93 bd 30 e1 15 bd 2c 17 13 3c
       0.18142545 -0.071947016 -0.03659171 0.008977693
000260 2d 42 46 3a 0a ad 45 bb 36 d5 d4 3d 20 53 48 bd
       0.00075629615 -0.0030162954 0.10392229 -0.0489074
000270 8a 44 c9 3d ea ab b7 3d 0d 49 b3 3c 10 57 07 bd
       0.09827526 0.08968337 0.02188542 -0.033042014
000280 c9 63 77 3d 98 b6 c0 bc 08 aa aa 3d 57 65 d1 bc
       0.060397897 -0.023524567 0.08333212 -0.025561018
000290 0b 15 dc 3d 5e d5 22 bd 34 02 45 bd 54 b5 28 3e
       0.10746201 -0.039754264 -0.048097804 0.16475421
0002a0 9f 3e 93 bc f7 51 aa bd 62 3a ab 3b 6d 50 09 3d
       -0.017974196 -0.08316415 0.0052254656 0.033523966
0002b0 14 5a 00 3e 67 87 53 bb a0 d8 0c bd 75 9e ab bd
       0.12534362 -0.003227675 -0.034386277 -0.08379833
0002c0 7b 06 95 bc 3e 8b 7b bc e6 2e 05 3e 5d 7d db bd
       -0.018191567 -0.015353022 0.13006172 -0.107172705
0002d0 c5 7d 5a bb 71 43 ba bc 64 08 c6 bc 10 0a d4 bd
       -0.0033339125 -0.022737237 -0.024173923 -0.10353482
0002e0 3d 38 e5 3d 87 da 52 39 03 43 b4 3c c3 99 83 bc
       0.11192367 0.00020108568 0.02200461 -0.01606453
0002f0 75 7b 09 be 59 71 55 3d d9 78 8e 3d 30 08 ac bd
       -0.13426001 0.05211005 0.069566436 -0.08399999
000300 5a 08 0e 3c 47 9e a7 3d c7 18 30 3d b3 fb 34 3d
       0.008668983 0.08184486 0.04299238 0.04418535
000310 71 67 8f 3d 7b db 92 3d 74 a8 74 3d ab a0 3b 3d
       0.07002152 0.07170769 0.059730962 0.04580752
000320 d7 2a a8 bb 09 6f 98 3d 21 75 38 3d f1 9b 45 3d
       -0.00513206 0.07443053 0.045033578 0.04824442
000330 cd 78 76 3d c5 94 1f 3c 86 c5 98 bc b4 fc 41 bc
       0.0601738 0.009740059 -0.018648874 -0.011840034
000340 6d 9b 84 3c d4 93 b2 3d 98 55 bb 3d 65 bf 79 3b
       0.016187394 0.08719602 0.09147185 0.0038108465
000350 cf 2a 92 3c 4d fa a3 bb 44 cb 41 3d a7 c5 df 3d
       0.017842678 -0.0050042034 0.04731299 0.10926371
000360 6c a5 91 3c d8 ec 7e 3d 82 fb 96 3c 60 da 32 3c
       0.017779075 0.06223759 0.018430475 0.0109163225
000370 1f c2 00 bc 42 95 cf 3d 5e 68 a9 bc 9c bc ab 3b
       -0.007858782 0.101358905 -0.020679649 0.00524099
000380 a5 ae af bc 7d f3 f7 3d 1b 72 a7 3d b8 a5 9a 3d
       -0.021445582 0.121069886 0.08176061 0.075511396
000390 67 8f c1 3b e2 c7 d0 3b 46 d2 24 bd 1f 50 ec 3d
       0.0059069875 0.006371484 -0.040239595 0.115387194
0003a0 1a 80 a0 3c 22 d6 a4 3d f1 af 84 3d ba c7 5a 3d
       0.019592334 0.08048655 0.06478871 0.05341313
0003b0 9f 20 6f 3d df c0 cf b9 49 d1 d8 bb eb 30 81 bc
       0.05838072 -0.00039625817 -0.0066167456 -0.015770396
0003c0 37 8d 91 3d 5a 4e be 3c 71 d3 7e 3b 6c 9d b2 bc
       0.07107013 0.02323072 0.0038883353 -0.02180358
0003d0 bd 56 bb bc ba 39 16 3c a3 5a dc 3c 90 2d c4 3d
       -0.022868508 0.0091690365 0.026898688 0.09579003
0003e0 03 2a b4 3c 3b b1 88 3d df bf e9 bc ed 61 91 3a
       0.021992689 0.06674429 -0.028533874 0.0011091806
0003f0 ab 35 9e 3d f8 9e 69 3c fb e2 3f 3d 84 0e 9e bc
       0.0772508 0.0142590925 0.046847325 -0.019294031

encoder.weight_hh_l0 f4 [256, 64]
000000 84 52 f6 36 af 3d ac 38 95 9a 96 38 f5 4b a3 b8
       7.3409774e-06 8.2130886e-05 7.1813505e-05 -7.786594e-05
000010 99 2a ad b8 8f 94 04 39 d6 7a 88 b8 6f 74 21 b8
       -8.257217e-05 0.00012643843 -6.507865e-05 -3.849383e-05
000020 fa 82 ba 36 bf d9 f8 38 01 41 8a b8 e7 43 17 b8
       5.5584796e-06 0.0001186612 -6.592461e-05 -3.6064444e-05
000030 50 b5 fc b8 6b 50 03 b9 8d de e4 38 d9 52 e5 b8
       -0.000120500685 -0.00012523092 0.000109133405 -0.000109350025
000040 a9 86 8a 38 55 de fb b8 ae cc 8b b8 88 51 26 b7
       6.605435e-05 -0.00012010025 -6.666161e-05 -9.913354e-06
000050 d0 54 e9 38 52 d8 ab b7 5d b1 d5 b8 ce 65 d1 38
       0.00011126103 -2.048552e-05 -0.00010189668 9.984859e-05
000060 66 36 37 38 cf d0 c7 38 db 33 bb 37 15 ab ae 37
       4.3681262e-05 9.527953e-05 2.2316284e-05 2.0822083e-05
000070 59 a6 ae 38 7d 7e b1 38 c0 9a df b6 58 80 d5 37
       8.327951e-05 8.463578e-05 -6.663933e-06 2.5451343e-05
000080 a3 ce 04 b8 eb a0 bd b8 a2 99 a2 38 49 4d c3 38
       -3.1663698e-05 -9.0421956e-05 7.753378e-05 9.31272e-05
000090 b0 9a ca 38 1d ce 03 b8 12 49 c2 37 51 9e ce 38
       9.6609234e-05 -3.142479e-05 2.3160628e-05 9.852334e-05
0000a0 18 1f 16 b8 9b 6f e0 b8 26 24 73 38 6e ab 9c 38
       -3.5791745e-05 -0.000107019405 5.796938e-05 7.470591e-05
0000b0 88 60 e3 38 d3 c7 50 38 e2 ae 91 38 9c ca ea b8
       0.00010842184 4.9777165e-05 6.946713e-05 -0.000111957284
0000c0 13 1e aa 38 68 bf c0 b8 07 bc d1 37 6b 2e be 37
       8.1118334e-05 -9.1909256e-05 2.5002299e-05 2.267138e-05
0000d0 cd c4 af 36 a2 1c 9d b8 75 9a 65 b8 0e 77 d9 b8
       5.238317e-06 -7.491677e-05 -5.4741704e-05 -0.00010369542
0000e0 fd 15 15 39 91 d1 5c b8 61 2a 20 38 f1 06 15 38
       0.00014217939 -5.264726e-05 3.818644e-05 3.5530833e-05
0000f0 65 03 ef b8 4b 6f dd 38 ca aa c7 38 a0 0f b8 b8
       -0.0001139704 0.00010558831 9.5208714e-05 -8.776714e-05
000100 95 0c 08 39 b5 62 ad 3a 85 00 a0 3a 55 4f bb ba
       0.00012974658 0.001322827 0.0012207186 -0.001429061
000110 0e 80 d5 ba 67 49 15 3b 3e 23 91 ba b6 b8 37 ba
       -0.0016288774 0.0022779347 -0.0011073125 -0.000700842
000120 72 17 ca 38 6c 5e e5 3a ec 19 91 ba 25 9e 1e ba
       9.6364776e-05 0.0017499453 -0.0011070347 -0.0006050787
000130 cb e0 08 bb f7 fb 00 bb db 0a eb 3a fd bb d1 ba
       -0.002088594 -0.0019681433 0.0017932312 -0.001600146
000140 9e 02 83 3a 90 24 12 bb ba 19 85 ba 49 b8 1b b9
       0.0009995287 -0.0022299625 -0.0010154762 -0.00014850603
000150 44 e1 f7 3a 91 06 b4 b9 4a 5a e3 ba 11 b2 cc 3a
       0.0018911739 -0.00034337168 -0.0017345634 0.0015617033
000160 a7 6c 48 3a 74 1f ea 3a 4b 08 ea 39 a6 5c af 39
       0.0007645585 0.0017862157 0.00044638137 0.0003344763
000170 fe 83 c4 3a 95 6a c7 3a 07 30 a9 b8 b5 59 c5 39
       0.001499295 0.0015214259 -8.067494e-05 0.00037641605
000180 aa 28 fd b9 22 fa df ba 4e 16 c2 3a 2c 09 c8 3a
       -0.00048286217 -0.0017088095 0.0014807673 0.0015261522
000190 3a 36 c4 3a fc 18 e3 b9 12 8f be 39 d2 8b f1 3a
       0.0014969774 -0.0004331543 0.0003634622 0.001842851
0001a0 fd 8a 0c ba 2e db f0 ba 52 cb 8e 3a 45 95 a2 3a
       -0.0005361287 -0.0018375868 0.0010894334 0.0012404105
0001b0 44 bd 04 3b af a9 55 3a 8d 1b 97 3a 88 fb f3 ba
       0.0020254413 0.000815059 0.0011528597 -0.0018614391
0001c0 15 1c b4 3a 0a 06 c0 ba fb 60 e6 39 8e 79 bd 39
       0.0013741279 -0.0014650237 0.00043941275 0.00036139454
0001d0 5f b6 cd 38 3e 98 fb ba 3b 6d 4e ba b5 dd e5 ba
       9.809131e-05 -0.0019195152 -0.0007874553 -0.0017537387
0001e0 6b e4 30 3b 96 81 6e ba 82 9b b0 39 10 09 1e 3a
       0.0026991616 -0.00090982893 0.00033685198 0.0006028572
0001f0 ee 64 02 bb 32 b7 ae 3a df b4 f1 3a da 8d d3 ba
       -0.0019896585 0.0013329743 0.0018440745 -0.0016140298
000200 27 06 45 39 5f b7 4a 3b 63 d0 61 3a 41 f6 00 bc
       0.00018789676 0.0030932052 0.0008614121 -0.0078712115
000210 92 74 71 bb 61 6b 08 3c c9 d0 47 bb 17 51 e4 ba
       -0.0036843163 0.008326382 -0.0030489436 -0.0017419186
000220 8d f7 19 39 52 ff 3b 3b 6e eb dd ba 40 2a 9a ba
       0.00014683437 0.0028686118 -0.0016931125 -0.0011761859
000230 fa 79 f1 bb b7 6e 9a bb 9c 8c bf 3b 38 3f 15 bc
       -0.007369277 -0.0047129053 0.0058456194 -0.009109311
000240 36 cb e9 3a ce 4b 04 3b bb f1 90 bb 14 65 8f b9
       0.0017837051 0.0020186785 -0.004423348 -0.00027350395
000250 dd b1 e4 3b 64 f8 09 ba 5f 7e 0a bc 9a 1d 22 3b
       0.006979211 -0.00052631483 -0.008452981 0.0024736882
000260 76 d7 a4 3a c2 82 30 3c c5 f0 1b 3a 9e dc 55 3a
       0.0012576419 0.010773363 0.0005948658 0.00081581797
000270 ed 41 cd 3b ca a7 cc 3b 44 c3 1a b9 fb ca 1c 3a
       0.0062639625 0.006245588 -0.00014759327 0.0005981174
000280 64 fb 59 ba 15 85 8c bb fb 29 1f 3b 7b 2f 2e 3b
       -0.0008315353 -0.0042883256 0.0024286497 0.0026578594
000290 02 0c 88 3b 0e 60 33 ba 10 c6 1d 3a 45 e9 10 3c
       0.004151822 -0.00068426214 0.00060185883 0.008844678
0002a0 d9 d1 72 ba 07 40 43 bb 57 e8 03 3b 79 e5 e3 3a
       -0.0009262837 -0.0029792802 0.00201275 0.0017387114
0002b0 e9 64 9f 3b 1f 59 a7 3a 67 d9 29 3b 7e 20 87 bb
       0.0048643243 0.0012767649 0.0025916935 -0.0041237464
0002c0 9e 22 2e 3b 7d 95 33 bb 42 ef 2b 3a fb 4a 12 3a
       0.0026570926 -0.0027402334 0.00065587845 0.0005580631
0002d0 06 f9 ab 38 7c d8 86 bc b1 a5 9c ba 46 b9 84 bb
       8.2002996e-05 -0.01646065 -0.0011951235 -0.0040504066
0002e0 d3 08 cf 3b 8b a9 ba ba d3 9e ec 39 c6 ac 6a 3a
       0.0063181906 -0.0014241202 0.0004513176 0.0008952137
0002f0 27 c2 ff b9 d3 de 0f 3b 03 51 7b 3a 60 7d e8 ba
       -0.00048782045 0.0021952882 0.0009586962 -0.001773756
000300 34 7b 20 39 95 f8 ee 3a 78 97 df 3a d2 99 82 bb
       0.00015304686 0.0018232042 0.0017058691 -0.003985622
000310 9c 85 d1 bb 68 35 a4 3b 07 6c c4 ba 0d ad 6c ba
       -0.0063941013 0.0050112493 -0.0014985808 -0.0009028472
000320 f7 46 94 38 80 83 15 3b 2a 23 a8 ba ea 28 54 ba
       7.070408e-05 0.0022813976 -0.0012827863 -0.0008093255
000330 09 a8 39 bb e6 a3 34 bb 11 f0 24 3b 7d f2 69 bb
       -0.0028328917 -0.0027563511 0.0025167505 -0.0035697513
000340 12 4d a5 3a a6 6d f9 bb 64 3a 13 bb 29 47 3d b9
       0.001261147 -0.007611948 -0.0022465223 -0.00018050954
000350 f4 6b b9 3b b4 a3 df b9 e1 5f 06 bb 50 73 ee 3a
       0.005658621 -0.00042655843 -0.0020503926 0.0018192325
000360 6b 1c 73 3a 2b be 8a 3b 9c 58 ed 39 37 74 ed 39
       0.0009273949 0.0042340956 0.00045270182 0.0004529075
000370 7f 09 05 3b a5 4e 0d 3b 50 4c d8 b8 b9 c2 ee 39
       0.002029985 0.0021561768 -0.00010313897 0.00045539977
000380 ac 86 18 ba 77 19 80 bb 2b 86 f0 3a e8 ca fc 3a
       -0.00058184075 -0.0039092856 0.0018350532 0.0019286545
000390 a4 e9 0f 3b be 6f 10 ba 22 13 de 39 6a ff 43 3b
       0.002195933 -0.0005509815 0.00042357395 0.0029906877
0003a0 d6 79 43 ba 3d 72 12 bb 62 94 ad 3a 76 85 cf 3a
       -0.00074568146 -0.0022345923 0.0013243074 0.0015832621
0003b0 bf a6 90 3b f1 b6 80 3a ce 85 c3 3a 47 9c 19 bb
       0.004414409 0.0009820146 0.0014917196 -0.0023439096
0003c0 f2 88 dd 3a fb d8 d2 ba d5 a8 03 3a 63 26 d4 39
       0.0016901775 -0.0016086394 0.00050224114 0.0004046439
0003d0 a5 ae fd 38 d3 17 14 bc 87 0e 71 ba 81 6e 23 bb
       0.0001209651 -0.009038883 -0.0009195585 -0.0024937692
0003e0 5f a4 25 3c d4 46 9f ba a0 22 cd 39 03 fa 38 3a
       0.01010999 -0.0012151846 0.00039126445 0.00070562976
0003f0 65 84 43 bb cf 17 d2 3a cd 2c 94 3b 46 17 12 bb
       -0.0029833552 0.0016028824 0.004521942 -0.0022291704

encoder.bias_ih_l0 f4 [256]
000000 b5 ad 8f ba 82 4c 01 3d fa 5f 81 3b ee 27 19 3d
       -0.0010961803 0.031567104 0.003948209 0.037391596
000010 af 88 ee 3d 42 4b b9 3c 8a b4 f0 3d 72 b5 a0 3c
       0.11647164 0.022618894 0.11753185 0.01961777
000020 23 79 98 3b f8 dd b6 3d 6f 3d bc 3c 65 17 1c 3c
       0.0046531125 0.08929056 0.022978513 0.009527062
000030 b1 a7 14 3d 02 83 b5 3c 61 87 aa bc 65 d1 ba bc
       0.036292735 0.022157196 -0.020816507 -0.022804925
000040 1d 92 1c 3b e2 5a d1 3c ce 06 e8 3d 34 b5 cb 3a
       0.0023890801 0.025556032 0.11329423 0.0015541674
000050 48 ac ab 3d 5f 8e 9b bb 9f a9 80 3d e6 cc cf 3d
       0.083824694 -0.0047471966 0.06282353 0.10146503
000060 37 01 aa 3c 87 23 96 3d a1 6b 1f 3b 0e 65 71 3d
       0.020752532 0.07330995 0.0024325626 0.058934264
000070 14 80 6f bc 90 ee 04 3e 44 cb 50 bc 61 35 49 3c
       -0.014617939 0.1298163 -0.012743775 0.012280793
000080 f0 ed 66 3d a3 fb 68 3d 5a bb 91 3d 7b f9 b1 3d
       0.05637926 0.056880604 0.071158126 0.08690163
000090 90 f1 59 3d 6c 5d 17 3c 45 59 7a 3d 0a 0d 4c 3d
       0.053208888 0.009238582 0.06112029 0.049817123
0000a0 88 3e be 3c bd b7 a4 3d 47 7a ad 3d fd 3d a6 3d
       0.023223177 0.08042858 0.08470588 0.08117292
0000b0 30 04 1a bd eb c3 36 3d 5d 09 82 3d f7 a7 0d 3b
       -0.03760165 0.044620436 0.06349442 0.0021615007
0000c0 f1 d5 b6 3d 06 ed 8f 3c e7 ec 28 3c 23 14 da 3b
       0.08927525 0.017569076 0.010310388 0.0066552325
0000d0 8c 71 ad 3c c3 72 89 3c ab e2 0f 3d 75 6c e7 3c
       0.021172307 0.016778355 0.035128277 0.028249959
0000e0 29 38 e7 3d de a2 1e 3b 55 c5 8c 3a e3 e1 05 3c
       0.112900086 0.0024205963 0.0010739962 0.008171531
0000f0 ec 4c b6 3d 28 87 a5 3c 6a 76 bc 3d 23 87 81 3d
       0.089013904 0.02020605 0.09202273 0.063246034
000100 c9 d1 8c bc 48 17 56 3b 30 82 1e 3c 14 46 f1 bb
       -0.017189877 0.0032667685 0.009674594 -0.0073630903
000110 9d df 5f 3d 14 a1 bc 3c 15 d1 d8 bc d8 21 7d bc
       0.054656614 0.023026027 -0.026466886 -0.0154499635
000120 9a b5 cd bb b6 03 8a 3c 4f 7f d4 3c fc 94 03 3c
       -0.006277752 0.016847473 0.025939612 0.008031126
000130 64 1f af bb 3f 04 15 bd da 69 ff 3c c0 00 e2 3d
       -0.005344318 -0.036381003 0.031178404 0.11035299
000140 5f 08 38 bd da 1f d6 3d 62 7a c9 3d 99 6e 89 39
       -0.04492986 0.10455294 0.09837796 0.00026213078
000150 dd 14 89 3d 73 fa 1a 3b 01 f3 8e bc 06 33 0b 3c
       0.066934325 0.0023647815 -0.017449858 0.008496052
000160 36 b1 81 bc fd d9 de 3b 85 1f 19 bc 5d 45 53 3c
       -0.015831571 0.0068008886 -0.009345894 0.012894955
000170 15 77 93 3c 5b b4 8a 3d af 30 de bc 93 83 02 3c
       0.018001119 0.06772681 -0.027122824 0.00796594
000180 1f 64 3b bc 50 77 f4 3d bd 8b 6c 3d 10 49 2e 3b
       -0.011437445 0.119368196 0.057750452 0.0026593842
000190 af 12 44 bd 3e dd 4d 3b 9c dd 45 3d 7c 10 cc 3c
       -0.04786938 0.0031412388 0.048307046 0.024910204
0001a0 70 9e 93 3b a5 77 05 3c d7 f7 02 3c 25 4d 12 3d
       0.004504971 0.008146201 0.00799366 0.035718102
0001b0 28 4e 9b 3d af fa d0 bc 53 57 15 bc 38 90 d1 bc
       0.075832665 -0.02551016 -0.009115058 -0.025581464
0001c0 cb 0b 3c 3d cb c2 4f bd e8 9f be bb f8 fe 41 bd
       0.045909684 -0.05072288 -0.005817402 -0.047362298
0001d0 48 13 2c bd 0e 09 40 bc 56 6e bf 3b 2a dc 00 bc
       -0.042010576 -0.011720909 0.0058420105 -0.007864991
0001e0 b9 28 d9 3d fa 08 87 3d fc b8 d5 3c b6 c8 66 bb
       0.1060347 0.06593509 0.026089184 -0.0035214848
0001f0 c5 ed 6c 3d 3b 6f d9 bc 0e 3a c8 3a 03 0c 17 3c
       0.057843942 -0.026542297 0.0015276091 0.009219172
000200 14 0f b9 bd bd 57 27 3e b7 92 06 3e 75 96 2e bd
       -0.09036079 0.16342063 0.13141905 -0.042623956
000210 c5 23 d4 bc 2c 18 56 3e a9 22 b5 bd 6e d6 40 bd
       -0.025895962 0.20907658 -0.088445015 -0.047079496
000220 c9 2b c7 bb f7 23 dd 3d a7 95 08 be 33 e9 7e 3c
       -0.0060782176 0.107978754 -0.13338338 0.015558529
000230 b9 38 1d be e7 81 d3 bd 49 1e 13 3e 2a 6d 08 be
       -0.15353669 -0.10327511 0.14367022 -0.13322893
000240 96 e2 62 3d f9 dc 29 be 65 cb 08 be 20 03 53 3d
       0.05539187 -0.165882 -0.13358839 0.051516652
000250 5d c1 0c 3e 20 8b a2 3c 10 19 f9 bd b0 19 1d 3e
       0.13745637 0.01984173 -0.121629834 0.1534183
000260 3c 6f fd 3d e3 08 e5 3d 2e 8f a0 bd f7 2a 34 3d
       0.12374732 0.11183336 -0.07839809 0.043986287
000270 3a 32 be 3d fb 20 a9 3d ea 86 bb 3d 27 0d 09 3e
       0.09286924 0.08258244 0.09156592 0.13383923
000280 6c a5 44 3c 12 e3 0a be b4 9b 7b 3d 55 f5 cc 3d
       0.01200233 -0.13563183 0.061427787 0.10007731
000290 16 bb 7a 3c c2 e9 44 3c f8 81 b0 3d a2 d6 66 bb
       0.015303394 0.012018623 0.086185396 -0.0035223146
0002a0 82 d2 a0 bd cd db dd bd 4c 9a ab 3d d1 a2 e1 3d
       -0.07852651 -0.10832939 0.08379039 0.11017383
0002b0 bd e8 2b 3e 5a 53 05 3d b7 4c e3 3d 0a b2 21 be
       0.16788001 0.032550193 0.110986166 -0.15790573
0002c0 fa 30 8c 3d 60 47 a6 bd f1 d8 12 bc 61 41 f0 3d
       0.06845279 -0.081190825 -0.008962856 0.1173122
0002d0 d3 b5 37 3d 31 5b 41 be 68 73 1e be 00 92 f0 bd
       0.044851135 -0.18882443 -0.15473711 -0.11746597
0002e0 a8 76 b7 3d 25 bd b8 bb 42 79 21 3d fa d8 bd 3d
       0.08958179 -0.005637782 0.03942228 0.092699006
0002f0 2c 6b 37 be c3 c3 4a 3d 63 52 15 3d 94 c9 da bd
       -0.17911977 0.0495031 0.036455523 -0.10682979
000300 74 f7 84 ba d9 2c 4e 3d 54 90 a4 bc a3 8a 76 3d
       -0.0010144548 0.05033574 -0.020088352 0.060190808
000310 9a 8f e9 3d 7e bf 14 3e 72 fc aa 3c 65 3b 89 3d
       0.11404343 0.14526173 0.020872328 0.06700782
000320 37 24 bd 37 36 b4 aa 3d 5e 04 66 3d 6c 5d f7 3c
       2.254742e-05 0.08335154 0.05615651 0.030195914
000330 88 05 5d 3d b2 09 2f 3d 43 33 f8 3d 3a 46 e1 3c
       0.053960353 0.042733856 0.121191524 0.027499307
000340 1a ef a2 3c 7a 59 84 3d 87 68 49 bb 13 f2 93 3b
       0.019889403 0.06462379 -0.003073247 0.0045149415
000350 31 e8 07 3e fb 02 b7 3b f5 ad 47 3d 6d b1 91 3d
       0.13272168 0.005585072 0.048749883 0.071139194
000360 23 11 63 bd 83 00 60 3c 55 84 8f bc 36 e0 31 3d
       -0.055436265 0.013671997 -0.017519156 0.043426715
000370 9c 45 e6 3d 76 dc 32 3d bf d6 24 bc 70 1c 4b 3c
       0.11243746 0.04366728 -0.010060965 0.012396917
000380 b9 c7 71 3c c4 7e 9e bc da 14 b8 3d bd c9 8e 3d
       0.01475709 -0.019347556 0.08988352 0.06972072
000390 98 20 1a 3b 8f 09 16 3c 9e f8 1d bd ab 1e 52 3b
       0.0023517963 0.009157552 -0.038567178 0.0032061737
0003a0 1e c8 be 3c 8a ce c3 3b 54 d0 8e 3d 74 56 f5 3c
       0.023288783 0.005975549 0.06973329 0.02994845
0003b0 d2 9e 21 bd 86 7a 2c 3c 58 70 b5 3d 3d 14 09 3d
       -0.039458103 0.010527259 0.088593185 0.033466566
0003c0 04 1c 37 3c db 12 06 3d 40 3a 80 3c f3 ca 2b 3c
       0.011176113 0.032732826 0.015652776 0.010485399
0003d0 29 8d aa bc 2c 18 30 3e 94 25 1e 3d 9d 2d b2 3d
       -0.020819264 0.17196721 0.038610056 0.08700106
0003e0 16 b9 27 3e c1 ec 28 3d a2 df 9e bc 65 c5 55 3c
       0.16379198 0.04124141 -0.019393746 0.013047551
0003f0 fe 26 d2 3d 76 1e fb 3a 0a 47 04 3e f9 22 b8 3c
       0.102613434 0.0019158858 0.12917724 0.022477614

encoder.bias_hh_l0 f4 [256]
000000 19 dd a3 bc 92 08 c4 3d 9b f4 73 bc 75 0c 07 3d
       -0.020002889 0.09571947 -0.014889861 0.032970864
000010 27 fc 5e 3d 5e 70 a2 3d e6 6e 08 3d 21 59 8c 3d
       0.05443969 0.079315886 0.033308886 0.068529375
000020 28 cc 15 3c da 29 a1 3d dc ee ce 3b bb 07 ca bb
       0.009142913 0.07869311 0.0063150954 -0.0061654723
000030 51 84 da 3d d8 e8 3b 3d ba 40 1c bc c0 65 d8 3b
       0.106697686 0.045876354 -0.009536916 0.0066039264
000040 c5 cb 3e 3d 9d 9a b0 3d 19 17 bb 3d cb e4 08 3c
       0.04658105 0.0862324 0.09135265 0.00835533
000050 3c c6 08 3e f2 35 21 bc 87 e8 61 3d 69 21 34 3d
       0.1335687 -0.009839522 0.055153396 0.043977175
000060 3a b9 56 bc 89 51 ae 3d ec 9e f7 3c b1 42 fb 3b
       -0.013105685 0.08511645 0.030227147 0.0076678623
000070 ed a4 c9 bb 7b 1a ea 3c 9a 2d 3b 3c af 12 e0 3b
       -0.006153694 0.02857708 0.0114244465 0.0068381648
000080 ff 88 62 3d 67 fc 2d bd c0 d4 ac 3d ce c2 b3 3d
       0.05530643 -0.042477038 0.08439016 0.087773904
000090 ea 17 f4 3d 64 76 00 3c e7 98 0f bd 8a 19 89 3d
       0.11918624 0.0078407265 -0.03505793 0.06694324
0000a0 67 20 bf 3c 7d 21 85 3d a3 37 a8 3d a1 49 37 3d
       0.02333088 0.06500528 0.08213737 0.044747952
0000b0 a2 d0 ef 3c 5f 45 26 3d 24 17 97 3a 78 80 83 3c
       0.029274289 0.0405935 0.0011527282 0.01605247
0000c0 b2 25 75 3d 30 bf 4e 3d 17 67 37 3c bf b0 13 bc
       0.059850402 0.0504753 0.011194012 -0.0090143075
0000d0 ad c8 ee 3a 9e 3c cf 3d 77 04 14 3d 4a 05 42 3d
       0.0018217765 0.10118984 0.03613707 0.047368325
0000e0 2f ce f8 3d 24 6a 9c 3d a8 71 89 bc 7f b8 58 bb
       0.121487014 0.07637432 -0.016777828 -0.0033068953
0000f0 e3 c9 99 3d d2 31 85 3d d6 cd fb 3d 9c e1 ed 3c
       0.0750921 0.06503643 0.122951195 0.029038243
000100 89 5f 14 3c b2 82 33 3c d9 5d c4 3c 42 b3 b6 ba
       0.0090559805 0.010956453 0.023970531 -0.0013938921
000110 be 92 61 3d 6a b7 fb 3c f1 42 2b 3d 6d 6a a8 bc
       0.055071585 0.030727107 0.041811887 -0.02055856
000120 e3 43 45 ba 8b 65 76 3c be 6c 8a bc c9 f9 cc bc
       -0.00075250695 0.015038858 -0.016897555 -0.02502145
000130 87 eb 6f 3c 10 d7 12 3d d5 93 cc 3c 56 5a 64 3d
       0.014643556 0.03584963 0.024972836 0.055750214
000140 33 d5 69 bc bc df fd bc 84 5a 0a 3c 0e 69 71 bb
       -0.014272022 -0.030990474 0.008444432 -0.00368363
000150 c3 90 c6 3c a9 70 89 3a d3 22 91 3c 2e e5 84 bc
       0.02423895 0.0010485846 0.0177168 -0.016222563
000160 c8 91 6f 3d 4c a1 ff 3d 02 8d 07 bd 95 7c c3 bc
       0.058488637 0.12481937 -0.03309346 -0.023863116
000170 d9 f4 db 3c 8a 09 27 3d ce 27 7d bc c8 2d 28 bb
       0.02685015 0.04078058 -0.015451385 -0.0025662053
000180 93 db 59 3c fe 22 f3 bc 9d cd 7c 3a 90 53 ca 3c
       0.0132969795 -0.029679772 0.0009643676 0.024698049
000190 3e e9 39 3d f6 a1 05 3b cf 5d 5d 3d 6b 79 05 3d
       0.045388453 0.0020390726 0.05404454 0.032586496
0001a0 8c e5 97 3b 10 18 71 3d e0 68 71 bb 66 39 2a 3d
       0.0046355184 0.05886084 -0.0036836192 0.041558646
0001b0 7e d0 e4 3d 4a fb e0 bb a1 be 4b 3d 00 19 85 bc
       0.11172579 -0.0068658935 0.049742345 -0.016247272
0001c0 90 99 da bb 71 0d c0 3d 82 51 8b 3b c3 0c d3 bb
       -0.006671138 0.09377564 0.00425166 -0.0064407303
0001d0 d5 1e a9 bd 59 3f ee 3d 1e 66 18 3c 8f 46 27 bc
       -0.08257834 0.11633176 0.00930169 -0.010209694
0001e0 a8 ca f8 3c 90 9f 6a 3d e1 70 ee 3c 00 18 85 bb
       0.030370072 0.057281077 0.02910656 -0.004061699
0001f0 8c 7d 2a 3d 4d 7c c7 bb 1a f1 d7 3d 96 e2 82 3d
       0.041623637 -0.006087816 0.10544033 0.06390874
000200 17 02 b8 3b eb d7 16 3d f5 94 19 bd 74 a6 ff bd
       0.0056154835 0.03682701 -0.037495572 -0.1248292
000210 70 bc bf bc aa 57 af bc c9 c2 d8 bc dc af 1b 3d
       -0.023405284 -0.021404106 -0.026460068 0.03800951
000220 70 f7 a8 3d 16 af 3b 3e 44 33 8d bd 23 bf 88 bd
       0.0825032 0.18328509 -0.06894544 -0.066770814
000230 2c 1c 2d be b4 80 dc bd 13 56 87 3d 83 08 ad bc
       -0.16905278 -0.10766736 0.06608214 -0.021122223
000240 e9 af e3 3d 02 de fb bd d0 c9 e4 bc ff b4 f5 bd
       0.111175366 -0.12298204 -0.027928263 -0.11997413
000250 48 84 82 bc e0 7e e2 bc cd ca 11 be 8e ae ab 3d
       -0.015932217 -0.02764839 -0.14237519 0.08382903
000260 58 7b 01 3d ee 7c 29 3e 26 c6 71 3d e3 06 82 3d
       0.03161177 0.16551563 0.05902686 0.0634897
000270 60 39 a5 3d 90 ae ac 3d f3 d9 06 be 9d 50 ca bc
       0.08067584 0.08431733 -0.13169079 -0.024696643
000280 f8 6a 18 be 34 b5 f8 bd 21 1c bc 3d 84 24 41 3e
       -0.14884555 -0.12143937 0.09185053 0.18861586
000290 24 65 10 3e 22 40 8f bd 08 02 10 3d 7a 55 14 3e
       0.14101082 -0.06994654 0.035158187 0.14485732
0002a0 e6 0a 9d bc 5b ec eb bd 97 92 a3 3d 6e fa b2 3d
       -0.019170236 -0.115196906 0.07986944 0.08739172
0002b0 82 41 9f 3d c9 9b 09 3e 04 20 08 3e d8 a6 e0 bd
       0.077761665 0.13438334 0.13293463 -0.10969323
0002c0 3b 83 26 3e f7 01 2b be ef 02 ae bc b1 fd 5e 3d
       0.16260998 -0.16699968 -0.021241633 0.054441158
0002d0 89 0e e7 bc d3 f8 a5 3c 11 8d d1 3c 87 ab b0 bd
       -0.028205173 0.02026025 0.025579961 -0.08626466
0002e0 2a 80 29 3e 54 9e 19 be 7d a7 0a ba b1 31 25 3d
       0.16552797 -0.15001804 -0.000528924 0.040330593
0002f0 e1 b8 31 bc 73 b2 1b 3e f5 66 1a 3e 26 f7 d0 bd
       -0.010847301 0.15204792 0.15078337 -0.1020339
000300 ca 4f 89 3c 79 c0 b2 3d bf 9b 53 3d e8 ff e2 3d
       0.01676168 0.087281175 0.051662203 0.110839665
000310 17 1b ad 3d 46 7d 95 3d 56 e5 8d 3d 26 1d 32 3d
       0.084524326 0.07299285 0.06928508 0.04348483
000320 7d 3b 30 ba 65 27 b8 3d 14 4c 15 3d 9f 01 20 3c
       -0.00067227316 0.08991889 0.036449507 0.0097660115
000330 c3 6c b9 3c 25 ec a8 3d 08 8f 79 b8 4b fc 8a 3d
       0.02263487 0.08248166 -5.9499434e-05 0.06786402
000340 52 46 c7 3d 0e 3b 04 3e 48 57 bd 3d 6c b1 b5 3b
       0.097302094 0.12913153 0.09245163 0.005544832
000350 19 da f9 3d ac 43 2d bc 4d bf b5 3d 63 5a 2a 3d
       0.12199802 -0.010575216 0.08874378 0.041590106
000360 f4 1d 08 bd 9b c3 4b 3d bd 1b 5f 3d 80 a5 32 3d
       -0.03323169 0.04974709 0.054469813 0.043614864
000370 4c 01 7e 3d 58 59 c6 3d 56 f6 47 bd 76 3c 88 ba
       0.062012956 0.0968501 -0.04881891 -0.0010393995
000380 46 8a 29 3d 74 25 c7 3c 8f d9 b1 3d b2 e4 77 3d
       0.041391633 0.024309851 0.08684074 0.060520835
000390 37 cf 19 3e ef a6 e8 3b ae 44 14 3d ef 69 dc 3d
       0.15020452 0.007099978 0.03619831 0.10762393
0003a0 90 12 bf 3c 0c 22 b8 3d 26 57 9c 3d 99 cb e4 3c
       0.023324281 0.08990869 0.0763381 0.027929114
0003b0 03 59 5a 3c 58 92 4f 3d f3 c3 bf 3c 24 2e 65 3d
       0.013326886 0.050676674 0.023408866 0.055952206
0003c0 31 3b a7 3d fb 90 d9 3d 45 80 66 3a 33 57 2e 3d
       0.08165587 0.10623356 0.00087929174 0.04256363
0003d0 e1 de a1 3c 37 8c d8 3d ff 9a 04 3d 65 bb e4 3d
       0.019759597 0.10573619 0.03237438 0.11168555
0003e0 10 cf 27 3d 46 a6 a7 3d c4 98 1b 3d 74 02 42 3c
       0.040968955 0.08186011 0.037987486 0.011841405
0003f0 99 ef ae 3d 4d 82 83 3d da fe 0f 3e cf 55 9d 3d
       0.085417934 0.06421337 0.14062062 0.07682382

encoder.weight_ih_l1 f4 [256, 64]
000000 79 4e af 37 1a d5 ac 38 55 fe b1 38 a3 9a b1 b8
       2.0898167e-05 8.2412924e-05 8.487391e-05 -8.468821e-05
000010 72 1e 00 b9 ca ac 04 39 f8 dd aa b8 dd ca 84 b8
       -0.00012218373 0.0001265287 -8.1475766e-05 -6.332037e-05
000020 46 da 44 37 e9 51 c4 38 81 11 81 b8 7a 9e 80 b8
       1.1733331e-05 9.361265e-05 -6.15446e-05 -6.133034e-05
000030 24 a0 fa b8 6b 66 3d b9 7b ae 05 39 bb 29 c9 b8
       -0.000119507575 -0.00018062598 0.00012748867 -9.5922e-05
000040 e9 20 8e 38 f9 1d 06 b9 83 2c 95 b8 94 7a 7b b7
       6.777218e-05 -0.00012790402 -7.1131646e-05 -1.4989306e-05
000050 d6 5a ef 38 cc 74 b8 b7 ea 65 ea b8 9b fa ba 38
       0.000114133276 -2.1988897e-05 -0.000111769725 8.91585e-05
000060 b7 6e 31 38 2e 9f db 38 bf fe 2d 38 c7 b5 f6 37
       4.23032e-05 0.00010472383 4.1483665e-05 2.9410132e-05
000070 2d 41 47 39 bc b1 ef 38 0f 73 85 b6 cc 5b 89 37
       0.00019002399 0.00011429514 -3.9771035e-06 1.6374419e-05
000080 e9 fb 20 b8 59 3a 02 b9 9d bb b0 38 1a 75 c7 38
       -3.8381582e-05 -0.00012419502 8.42728e-05 9.510871e-05
000090 24 65 c0 38 f5 e9 e6 b7 51 06 1e 38 8d 83 d5 38
       9.174112e-05 -2.7527081e-05 3.7676018e-05 0.00010181135
0000a0 28 6b 16 b8 4e c7 b0 37 c6 0d a5 38 3a d1 ca 38
       -3.5862584e-05 2.1073643e-05 7.8703786e-05 9.671082e-05
0000b0 1e 1a 02 39 45 83 4e 38 3b 6d 94 38 ab c9 e6 b8
       0.00012407496 4.923648e-05 7.077536e-05 -0.00011004818
0000c0 94 51 b4 38 1d 57 cb b8 95 cd 0e 38 2c 7d 5d 37
       8.598264e-05 -9.6960204e-05 3.40469e-05 1.320177e-05
0000d0 43 a5 34 b7 ef c3 09 b9 6e ea 38 b8 d6 e3 fe b8
       -1.0767314e-05 -0.00013138329 -4.408735e-05 -0.000121541016
0000e0 a9 fb 26 39 17 86 93 b8 e4 d5 dc 35 34 28 b0 37
       0.00015924744 -7.0344824e-05 1.6453528e-06 2.0999556e-05
0000f0 e7 2c 09 b9 3a 0d 9e 38 23 53 2d 39 b1 de d0 b8
       -0.00013082066 7.536491e-05 0.00016529537 -9.9596924e-05
000100 42 94 62 b6 46 c6 df 3a cf bc e4 3a da 28 ca 3a
       -3.3762922e-06 0.001707264 0.0017451289 0.0015423552
000110 46 4a 9b bc 32 cc b4 bb e2 3e 60 bb fc 21 6b 39
       -0.018956315 -0.005517506 -0.0034217169 0.00022424007
000120 66 e9 01 39 2e b1 f2 3a 3c d4 a7 ba b2 b6 98 ba
       0.00012389346 0.0018515938 -0.001280434 -0.0011651127
000130 75 bf f0 38 d3 be 07 3c c3 96 b9 ba 3c ad 1e bc
       0.000114797534 0.008285242 -0.001415931 -0.009684857
000140 1b e0 7a 3a c5 0a 18 bc 78 00 33 bc d5 ce 22 39
       0.00095701375 -0.009279911 -0.010925405 0.00015526575
000150 31 fd 3c 3c 3b 3c bb b9 09 23 c0 bb bd 94 a8 3a
       0.011534975 -0.00035712295 -0.0058635515 0.001286171
000160 33 e6 37 3b 38 d2 09 bc 96 ec 08 39 e1 90 27 bb
       0.0028060793 -0.008411936 0.00013058106 -0.0025568532
000170 97 27 30 3b 23 5f c5 ba 58 2b 08 b9 6a 0b 07 3a
       0.0026879066 -0.001505826 -0.00012986118 0.0005151542
000180 2f 65 10 ba bd d0 f7 3a 68 5f 01 3b 7a c0 0b 3b
       -0.00055082416 0.0018906813 0.0019740704 0.0021324442
000190 39 a8 f4 3b 80 5d 05 ba 20 4d fa 39 34 a6 f6 b9
       0.0074663428 -0.000508748 0.00047741178 -0.00047044607
0001a0 55 cb f6 b9 ab 51 2b bb 64 19 fe 3a 85 0a cd 3a
       -0.0004707227 -0.0026141207 0.0019386229 0.0015643394
0001b0 e2 3c 48 3b ab d4 81 3a 74 a6 17 3b dc e3 0b bc
       0.0030553867 0.0009905299 0.0023139985 -0.008538213
0001c0 1f de 8a 3b 70 a7 e3 3b 40 9b ce 39 48 3e 0f 3a
       0.0042379047 0.0069474503 0.00039407052 0.0005464298
0001d0 88 69 0b ba fb 9d 39 3a 2c 33 64 ba ff 36 77 bb
       -0.00053181546 0.0007080731 -0.0008705135 -0.003772199
0001e0 4f 5d b7 3c 87 e1 1c ba 71 a3 8f 3a 43 83 43 3a
       0.02238336 -0.0005984534 0.0010958744 0.0007458219
0001f0 fd 57 88 bb 6d 3f 68 3a 82 cd a9 3b 51 fd f2 38
       -0.0041608796 0.0008859549 0.005181969 0.00011586643
000200 61 37 7c b8 3a ca 2d 39 56 8e 23 37 f1 74 c5 b8
       -6.0133058e-05 0.00016573901 9.748697e-06 -9.415474e-05
000210 a0 68 13 39 e5 31 65 3a ab a5 62 39 80 a5 30 39
       0.00014057988 0.00087430916 0.00021614756 0.00016846322
000220 4f 6c a0 b8 93 7a 1e 39 0d 1b b0 b8 cc 5f ce 38
       -7.6495686e-05 0.00015113717 -8.3973726e-05 9.840689e-05
000230 c1 76 02 b9 99 94 67 b9 f4 36 df b8 61 3e 87 b6
       -0.00012442005 -0.00022085234 -0.000106437044 -4.0305754e-06
000240 2e 16 a5 39 d0 f4 09 ba b9 30 f7 38 1c 89 d3 38
       0.00031487778 -0.0005262615 0.00011786953 0.00010086803
000250 d7 af b5 38 7b 0d 69 b8 8f b3 1d b9 0a 8e df 38
       8.663505e-05 -5.5564084e-05 -0.00015039578 0.000106599255
000260 f3 85 0e 38 3d ba 8f 39 8d cb 10 b8 96 08 0e b9
       3.3980188e-05 0.00027413844 -3.4521847e-05 -0.00013545374
000270 5e e4 d2 b9 06 95 c8 39 c7 8e 90 37 99 c8 04 38
       -0.00040224468 0.00038258004 1.7232624e-05 3.1658074e-05
000280 64 eb fc 38 49 a2 52 38 e9 a2 34 38 a9 63 0c 39
       0.00012060141 5.021904e-05 4.3067066e-05 0.00013388567
000290 eb 52 3d 38 2d dd 32 b8 7c 63 8e 37 30 41 57 38
       4.5138335e-05 -4.2644493e-05 1.6974045e-05 5.1320705e-05
0002a0 36 b5 e7 37 07 79 9a ba 51 f9 66 b8 6a b7 88 38
       2.7621729e-05 -0.0011785337 -5.5068467e-05 6.519149e-05
0002b0 47 53 1c ba 8c b9 b7 38 35 1b dc 38 4d c5 95 b9
       -0.0005963337 8.760681e-05 0.00010495485 -0.00028566495
0002c0 1d 4a 20 38 5c ae 2e b9 62 60 3e 38 76 61 40 37
       3.8215996e-05 -0.00016658887 4.5389294e-05 1.1466784e-05
0002d0 7b 85 79 3a 94 8a fb 3a ae bc 4e 36 60 47 e6 b8
       0.00095184863 0.001919108 3.0806218e-06 -0.00010980549
0002e0 e7 07 04 3a 48 30 66 38 5e 68 21 39 74 69 0e 39
       0.0005036578 5.488124e-05 0.00015393036 0.0001358146
0002f0 7c 84 ec b8 71 5b 1d 39 35 73 d2 38 34 56 19 b9
       -0.00011278034 0.00015006751 0.00010035039 -0.0001462333
000300 67 bc 65 3a 99 94 f0 3b b0 ca 31 3c b8 87 d5 bb
       0.0008763731 0.007341933 0.010851547 -0.006516423
000310 aa c7 b2 bc 43 66 b6 3c 69 94 0e bc 7d 3b 17 bb
       -0.021823723 0.022265559 -0.008702376 -0.002307623
000320 b9 8f 5f 3a 6c 20 e4 3b 8d f9 96 bb 97 55 31 bb
       0.0008528191 0.006961873 -0.0046073855 -0.0027059072
000330 ce 84 0d bc a9 35 98 bc 61 23 92 3c 01 91 3e bc
       -0.00863762 -0.018580275 0.017839136 -0.011631251
000340 22 e6 a3 3b 36 56 63 bb 7c 89 59 bb c4 14 92 ba
       0.005001799 -0.0034688837 -0.003319352 -0.0011145105
000350 b6 38 2d 39 0e 4d 9f ba f4 f2 80 bc 73 a8 bf 3b
       0.00016519692 -0.0012153701 -0.01574085 0.005848938
000360 a5 d5 2a 3b 5f 91 c9 3c c9 61 46 3b 1e 08 53 3b
       0.0026067283 0.024605451 0.0030270687 0.0032200883
000370 2b a1 4a 3c 9e 84 32 bb 14 05 11 ba e8 c4 cb 3a
       0.012367527 -0.002723969 -0.0005532068 0.0015546354
000380 9b df 5a bb 36 a2 d2 bc 1f f9 c4 3b b8 ed cd 3b
       -0.003339744 -0.025712114 0.006011143 0.006284442
000390 17 cf 20 3c 42 82 f1 ba 8a 6f d7 3a 7b a3 23 3c
       0.009814999 -0.0018425661 0.001643644 0.009987707
0003a0 b5 63 3b bb 2d 1b 5a bc 67 32 9c 3b 82 66 68 3b
       -0.0028593366 -0.013312143 0.0047667506 0.003546149
0003b0 fd 90 ef 3c 33 d8 5e 3b 03 cf a5 3a 35 99 43 bc
       0.02924394 0.0034003376 0.0012650195 -0.011938383
0003c0 55 f3 f2 3b d7 de 81 bc e4 5d db 3a c9 b8 da 3a
       0.0074142613 -0.015853329 0.0016736356 0.001668715
0003d0 cb e1 28 ba 01 18 eb bc 81 2e 68 bb 83 1b 0c bc
       -0.0006442337 -0.02869797 -0.003542811 -0.008551481
0003e0 fb 58 b0 3c ab 5e b2 bb 84 1b 1b ba e9 11 f7 3a
       0.021526804 -0.005443414 -0.0005916881 0.0018849942
0003f0 a8 04 3e bc e1 06 d9 3b 8a 43 dd 3c 80 18 09 bb
       -0.01159779 0.0066231345 0.027009744 -0.0020919144

encoder.weight_hh_l1 f4 [256, 64]
000000 29 ea 2d b7 a0 ff b3 b7 89 a2 b2 37 10 30 3f b8
       -1.0366123e-05 -2.1457497e-05 2.129494e-05 -4.558271e-05
000010 6a a2 1a b8 9c bb ed b7 f7 87 06 ba dc 42 6f b5
       -3.686772e-05 -2.8339964e-05 -0.00051319547 -8.913173e-07
000020 02 ab a7 b6 86 a0 22 b8 df ec 22 b7 3a ed a2 38
       -4.9968958e-06 -3.877331e-05 -9.711103e-06 7.768949e-05
000030 42 08 cf 37 f4 52 9a b7 98 d7 14 38 f2 f4 e4 b6
       2.4680168e-05 -1.8396859e-05 3.5486737e-05 -6.823445e-06
000040 57 c2 40 b8 34 6f 3a 37 43 48 c2 b8 14 8a 03 39
       -4.595736e-05 1.1112355e-05 -9.264101e-05 0.00012544572
000050 a7 8b 82 37 21 ce 76 b5 44 18 4d b8 3f d1 ec b7
       1.5562238e-05 -9.19421e-07 -4.8898408e-05 -2.823083e-05
000060 a6 e5 8d 38 be 1c 0d ba db 17 8a 36 e4 de ab b7
       6.766179e-05 -0.0005383006 4.1154976e-06 -2.048858e-05
000070 69 c9 3d b8 0b f7 0b 38 ad f7 a2 36 15 29 92 38
       -4.524869e-05 3.337026e-05 4.8568095e-06 6.9694746e-05
000080 36 0b 95 38 8d eb 1a b8 a0 5e 16 37 f1 56 ad 39
       7.106962e-05 -3.6935835e-05 8.962728e-06 0.00033061908
000090 da bb 58 b8 90 05 ac 37 1d 21 26 39 0d 35 0b b7
       -5.1673363e-05 2.0506588e-05 0.0001584333 -8.2973975e-06
0000a0 e8 b2 b3 b7 c3 6f 11 b8 dc e4 e2 37 fd 22 3c 38
       -2.1421773e-05 -3.467478e-05 2.704787e-05 4.485528e-05
0000b0 c8 4e 73 38 b7 eb 35 b8 95 8e ba 38 03 33 fa b7
       5.8009085e-05 -4.337329e-05 8.895729e-05 -2.9826077e-05
0000c0 c8 e1 1c b7 f2 8b bc 39 9b b2 24 38 ac bf 4d 37
       -9.350893e-06 0.00035962422 3.9266986e-05 1.2263579e-05
0000d0 77 8a e8 b8 8b 7c 9a b8 3e 57 14 b8 0c e3 0a b8
       -0.00011088413 -7.36649e-05 -3.53672e-05 -3.3113218e-05
0000e0 da 73 82 b7 57 76 b5 38 f8 0d 15 b6 d9 32 b0 36
       -1.5551155e-05 8.652795e-05 -2.221086e-06 5.251128e-06
0000f0 f1 fd ac 38 51 0d 88 b8 e9 c4 7d b8 fd 65 4d 38
       8.2488994e-05 -6.487466e-05 -6.0503287e-05 4.8970793e-05
000100 ae 1a 6f 37 dc 43 57 3b c6 16 23 bc f6 d0 9c bc
       1.4251722e-05 0.0032846844 -0.00995416 -0.01914261
000110 58 37 d0 39 cd 58 2c 3a f1 16 c0 3a 03 70 a8 38
       0.00039714086 0.00065745116 0.0014655275 8.031728e-05
000120 d4 a0 2f 38 59 84 cb 3a 78 27 c5 38 32 c4 67 bc
       4.1873034e-05 0.0015527114 9.401044e-05 -0.014145898
000130 f1 d6 a8 bb 3d 47 6b 3a 2e af 1f bc 94 d7 06 38
       -0.005152576 0.0008975154 -0.009746356 3.2148862e-05
000140 4f e1 97 bc 27 7e 2f b9 f8 ee 88 bc e6 cf fb 3c
       -0.018540053 -0.00016736296 -0.016715512 0.030738782
000150 3f 73 16 b8 ba 61 b2 38 ec 18 35 3c e1 ba c7 3c
       -3.5870118e-05 8.5059044e-05 0.011053305 0.024381103
000160 29 d6 9a 3c fd 1e 18 3d 40 31 da 37 68 f1 1d 3a
       0.018900948 0.037138928 2.6010559e-05 0.0006025047
000170 a2 57 06 3b 36 ae 24 3b 93 6b 15 b8 f3 cd 67 bc
       0.002049901 0.0025128252 -3.5624555e-05 -0.014148223
000180 31 5b e8 bc ef ed 80 3c cb d0 d4 38 91 d2 b6 3c
       -0.028363796 0.015738456 0.000101478385 0.022317203
000190 4a 19 a1 3b bc ab 0b ba c7 9f 8d bc 06 22 92 b8
       0.004916345 -0.00053280196 -0.017288102 -6.96816e-05
0001a0 54 fa 57 3b 98 79 3d 3b 7b b0 96 b9 d0 3c 85 3c
       0.0032955604 0.0028911587 -0.00028741718 0.01626435
0001b0 cf b5 59 bc 8d 23 62 38 51 38 9b 3c de 8d 7b bb
       -0.013287975 5.3915708e-05 0.018947752 -0.003838412
0001c0 03 43 8e 3a 68 1b f3 39 2b 5a d9 bb c3 54 97 b9
       0.0010853711 0.0004636899 -0.0066330633 -0.00028864117
0001d0 d8 58 3e 3a 5d 12 a4 bc e1 f9 0d ba 3e 5c a7 39
       0.00072611636 -0.020028288 -0.0005415958 0.00031921448
0001e0 97 fb a7 39 11 11 57 bc c4 80 4f 3b 4c cf 86 b8
       0.0003204017 -0.013126628 0.0031662444 -6.42823e-05
0001f0 bf 3b 20 bc 69 2a 07 bc 11 56 f3 3a 1e 91 ea b9
       -0.00977987 -0.008249857 0.0018565078 -0.0004474008
000200 a4 bd f5 38 9c 56 50 39 68 89 02 b9 f0 bd 40 ba
       0.00011717834 0.0001986869 -0.00012448954 -0.00073525216
000210 d1 ce 19 3b 27 c8 df 39 e6 f7 17 3a e8 4a 84 36
       0.002346922 0.00042683 0.00057971326 3.942627e-06
000220 76 75 44 38 57 7b 1c 3a cb 75 50 39 da f2 a0 b6
       4.6839436e-05 0.0005969307 0.00019880307 -4.796643e-06
000230 02 de 6c b9 74 54 c0 39 82 35 4f 39 2c 4b f0 38
       -0.00022589418 0.00036684016 0.00019760992 0.00011458094
000240 22 d5 0c bb 76 d8 25 b9 69 83 02 3b 39 2f 3e bb
       -0.0021489342 -0.00015816264 0.0019914752 -0.0029019846
000250 3e 26 2e ba 63 2a ea 38 57 bd 08 3a 57 3f f0 38
       -0.0006643272 0.00011165885 0.0005216202 0.0001145589
000260 2a de 96 ba 68 06 79 3b 3a 6c fc b7 34 fc 10 3a
       -0.0011510302 0.0037998203 -3.0091138e-05 0.0005530745
000270 1e e7 05 3a 3f 67 19 ba 2c 52 5b b9 96 0c e4 b9
       0.00051079865 -0.00058518717 -0.00020916079 -0.00043496926
000280 4d ba 6e 39 d6 7b e9 39 0c 61 51 b9 9b 20 2e 3b
       0.00022766851 0.00044533488 -0.00019967946 0.0026569727
000290 65 d3 6d 39 63 df 78 b9 aa 26 8d 39 98 61 6f b7
       0.00022680832 -0.00023734341 0.00026922423 -1.4268233e-05
0002a0 97 83 8d 39 8a 83 bf 39 d8 ac 0f ba ea 5d 78 3a
       0.00026991658 0.00036528363 -0.0005480773 0.00094744435
0002b0 4c 41 fc 3a ca 1b b6 39 8d 7a a7 b9 e8 39 50 39
       0.0019245534 0.0003473445 -0.0003194403 0.00019857998
0002c0 49 21 0a 39 70 50 4e ba 47 25 e4 b9 24 95 8c b9
       0.00013173105 -0.00078702625 -0.00043515323 -0.00026814
0002d0 89 14 2c 3a fc c3 b7 ba c8 96 f4 39 06 64 86 39
       0.0006564339 -0.00140202 0.00046651647 0.00025632995
0002e0 5c c6 2c 39 28 88 cd 3a ce 90 15 39 2d ee d9 b8
       0.00016477093 0.0015680837 0.00014263691 -0.0001039173
0002f0 40 dc d0 39 8f c1 41 bb c5 82 69 b9 f4 2b 76 b9
       0.0003983695 -0.0029564833 -0.00022269327 -0.00023476762
000300 82 d0 38 ba 2f 15 57 3b 96 3f e0 ba 07 fa 64 bc
       -0.0007050113 0.0032819023 -0.0017108794 -0.013975627
000310 37 e2 bc ba 40 8b f5 ba a4 4c 16 bc a8 46 1c b9
       -0.0014410679 -0.0018733516 -0.009173546 -0.00014903641
000320 8e cb 99 b9 1c a5 31 bb 66 aa 92 ba 9a 59 c2 3c
       -0.00029334094 -0.002710647 -0.0011189699 0.023724366
000330 4c db 52 3c 61 eb 05 bb d3 6b 8d 3c 02 4c 22 ba
       0.012869667 -0.0020434486 0.017263329 -0.00061911356
000340 fe d6 37 bd 53 15 54 3a 32 3e 90 bc c0 a3 e1 3c
       -0.044882767 0.0008090336 -0.017607782 0.027543902
000350 fc 4e 1c 3a 5b d0 cc b9 2b 25 96 bc 63 d8 7f bc
       0.00059626973 -0.0003906515 -0.01832827 -0.015615555
000360 de c4 9a 3c cb 78 0c 3d 74 13 4a 3a d1 8b 4c ba
       0.018892702 0.034294885 0.0007708587 -0.00078028167
000370 37 5c 6b bb 06 94 09 bb 97 2c 65 3a 32 01 26 3b
       -0.0035913119 -0.002099277 0.0008742301 0.0025330302
000380 d0 0c 29 bc 98 99 54 3a 1f 09 b3 3a 00 c9 21 3c
       -0.010317996 0.00081100455 0.0013659335 0.009874582
000390 95 a9 ad bc 01 d8 5c 3b 48 8d a2 3b 6e 42 4b b9
       -0.021199027 0.0033698084 0.0049606897 -0.00019384336
0003a0 36 72 73 bb 96 51 87 3b a3 1b ca 3a 5b 88 92 3c
       -0.0037146932 0.004129599 0.0015419613 0.017887285
0003b0 bb 19 54 bc 1d 3c f4 ba 89 8b 04 3c f5 d8 82 bc
       -0.012945588 -0.0018633638 0.008089908 -0.015972594
0003c0 41 50 d5 bb 15 2c 96 ba 0a 0d 08 3c 19 42 a2 3a
       -0.006509811 -0.0011457229 0.00830389 0.0012379318
0003d0 a8 90 e7 bb bb b0 82 3c 08 71 f3 ba cd a8 84 ba
       -0.007066805 0.015953412 -0.0018573115 -0.0010121107
0003e0 7e 7e ee 3a 4f e9 86 3c 7f b7 5e bb 61 f0 4f 3a
       0.0018195657 0.016468672 -0.0033983884 0.00079322426
0003f0 df d1 06 bb ea b9 8b bb f8 3a 9e bc 4e b5 cc 3a
       -0.002057187 -0.004264106 -0.019315228 0.0015617998
