models/prediction/gru_model.pt (torch, 161172 bytes, 10 tensors)

gru.weight_ih_l0 f4 [192, 1]
000000 f3 48 d1 3c e8 1c 16 3d fc a7 81 3d 1b a7 5f 3d
       0.02554748 0.03664866 0.063308686 0.054602724
000010 c8 fd 66 bc 75 f7 52 3c 11 a5 48 3d ec 87 11 bd
       -0.014098592 0.012876381 0.048985545 -0.035530016
000020 15 a7 82 bc d1 5e 87 bc 68 b6 be bd 0e ce 8a 3c
       -0.015948812 -0.016524704 -0.09312135 0.016943958
000030 49 8f 21 3d bf 62 22 3d 8e 65 60 bd 1d 21 af 3d
       0.039443288 0.039644953 -0.05478435 0.08551238
000040 58 cd af bd 0d b5 5a bd bf 52 4b be 24 92 87 bc
       -0.08584088 -0.05339532 -0.19855784 -0.016549177
000050 9a 61 77 bd dd c4 43 bd 50 fb 7c bd bf 17 7b 3c
       -0.060395814 -0.047795165 -0.061763108 0.015325486
000060 75 8d 3c bd d8 a7 8c 3d ab 47 31 bb ed e6 06 3d
       -0.04603334 0.06867951 -0.0027050774 0.03293507
000070 be 86 27 bd fa 51 8e 3d 7c fe 00 bd 44 19 9d bd
       -0.040899985 0.069492295 -0.031492695 -0.07670835
000080 7f 3a ec bc 4e 11 57 bd 5e 76 6f 3d 3f 02 69 3c
       -0.028836487 -0.052506737 0.058462493 0.014221727
000090 a7 1f c8 3c 92 5b af bd 1e 81 8c be e2 40 c6 bc
       0.024429156 -0.085623875 -0.2744226 -0.02420086
0000a0 bf f9 ef bd b2 26 5a bd a8 ff 6e bc 72 31 e6 3b
       -0.11717557 -0.05325956 -0.01458732 0.0070249373
0000b0 e8 d7 cd bd ed 9e bb bd 97 e0 77 bd 12 4f 13 be
       -0.100509465 -0.09161172 -0.06051692 -0.14385632
0000c0 3a 95 3b 3d 41 86 9a 3d bc dc b7 bc b5 10 c8 3c
       0.04579661 0.07545138 -0.022444122 0.024422029
0000d0 22 37 44 3c 53 de 91 3d be f7 02 bd d4 ba 40 bc
       0.011976035 0.07122483 -0.031974547 -0.011763293
0000e0 a3 6d 96 bd 82 a8 ae bc 33 f1 cc 3c 59 23 12 3c
       -0.0734513 -0.021320585 0.025017357 0.00891956
0000f0 51 59 76 bc 63 4d ab 3d f5 90 98 bc 50 0b 9a 3c
       -0.015035943 0.0836437 -0.018623808 0.018804222
000100 f1 f8 c8 bc 6b 4e c1 bd 4b 53 b6 bd b5 08 5c bc
       -0.024532767 -0.09438785 -0.089026056 -0.01342981
000110 cc b6 0d be 9a 11 26 bc 07 29 8d bd 21 2a 6e bc
       -0.13839263 -0.0101360325 -0.06892591 -0.0145364115
000120 c6 55 95 bc 07 45 7d be 7e 97 84 bc 04 eb 64 bd
       -0.018229377 -0.24733363 -0.016185518 -0.05588819
000130 81 2c 35 bc 4b 37 b1 bc a8 8f 85 bd 69 e8 f0 ba
       -0.011057974 -0.021632811 -0.06521541 -0.001837981
000140 d4 cc e3 bd ee a6 0b bd 1b cf a8 be c3 90 91 bc
       -0.11123052 -0.034094743 -0.3297051 -0.017769223
000150 48 9e 24 bc 72 35 ef bc e0 25 71 bc 4d fb d7 bd
       -0.010047503 -0.02920029 -0.014718503 -0.10545979
000160 b2 b5 2e bc db e3 b0 bb a2 22 f9 bb a2 64 c1 bd
       -0.010663437 -0.0053982562 -0.0076030055 -0.09443022
000170 fc 52 48 bd 21 14 2c bb a7 fe 67 bd a3 41 33 3a
       -0.048907265 -0.0026257115 -0.05663934 0.0006838089
000180 0b d4 a4 bc 79 f1 4c bc 91 d1 ed bb 28 90 3e bc
       -0.020120641 -0.012508743 -0.0072576483 -0.011631049
000190 c8 4f 6c bc 9f 8f c2 bd 81 5b b9 3e 0b d5 f5 bb
       -0.014423318 -0.0950005 0.36202624 -0.0075022033
0001a0 5b de 75 be 5d 57 da bc 21 d9 09 bc 4c 27 f4 bb
       -0.24010603 -0.026652986 -0.008413584 -0.0074509736
0001b0 61 93 bd bd 8f 21 1d be bc 7e e4 bd d9 49 33 bc
       -0.09256626 -0.15344833 -0.11156985 -0.0109429
0001c0 19 ed 06 be 70 50 8d bc 28 4f a4 bc 79 ea a3 bb
       -0.13176383 -0.01725027 -0.020057276 -0.0050023166
0001d0 60 ef 42 bd 68 f3 53 be 35 8b b3 bc 32 a1 6e bd
       -0.047591567 -0.20698321 -0.021916965 -0.058259197
0001e0 a0 21 ae 3a df aa 19 bd 76 70 26 bc 61 b6 21 bc
       0.0013285168 -0.03751647 -0.010158649 -0.009870143
0001f0 ea 00 7d bc 47 b9 3f bb 38 43 66 bd 59 d3 23 3b
       -0.015442112 -0.002925472 -0.05621645 0.00249978
000200 d3 ff c7 3d 28 cb 0e be ce f7 0a be fd 59 93 bd
       0.097655915 -0.13944685 -0.13571092 -0.07194898
000210 90 d5 25 be 1a 57 0a bd 43 ca 08 be b3 94 11 bd
       -0.16194749 -0.033774473 -0.13358407 -0.0355422
000220 76 1b a8 bd a9 f5 3a 3e e4 8d 44 bd 36 10 00 be
       -0.08208363 0.18257774 -0.04798688 -0.12506184
000230 61 b0 5a 3d f8 97 5b 3d d5 cb 0c be 80 06 0a 3d
       0.053390864 0.053611726 -0.13749631 0.033697605
000240 4c 09 18 3e 5e bd e9 bd 5a 01 49 be 2b 31 c5 3d
       0.14847296 -0.11413072 -0.19629422 0.09628519
000250 da 3e 76 3d dc 31 95 3d e4 dc 7c bd 15 38 20 be
       0.060118534 0.072849005 -0.061734095 -0.15646394
000260 c8 65 50 3d 54 a5 de b9 a5 0d 3c 3c 6a 66 19 be
       0.050878316 -0.0004246632 0.0114778625 -0.14980474
000270 5c 33 02 be 5f 05 a2 bc 0d 08 f5 bd 48 42 0f 3c
       -0.12714905 -0.019777952 -0.11964426 0.00874383
000280 55 f7 7d bd 69 90 cb 3d 67 5c 3b 3d d4 2c 91 3d
       -0.062003452 0.099396534 0.04574242 0.070886284
000290 b8 e1 ea 3d 3e 3d 47 be 8d af 65 bd 0b a3 62 bd
       0.11468834 -0.19456956 -0.05607562 -0.05533127
0002a0 00 6a 61 3e 3f 56 cb 3d 58 72 16 bd 93 99 b8 3c
       0.22013092 0.099285595 -0.03673014 0.022534167
0002b0 bc 17 07 be cf 64 1f 3e d7 75 e4 bd ea 2c 07 3b
       -0.13192648 0.15565799 -0.11155289 0.0020626136
0002c0 1f 06 48 3e 78 55 26 bd 1b 3a 37 bd 9e 4d a8 bc
       0.19533585 -0.040608853 -0.044733148 -0.020544823
0002d0 2c 5b fc 3d 6a 9e 2d 3e 90 b5 ca bd 2a 7d d4 3d
       0.12322077 0.16954961 -0.098979115 0.10375436
0002e0 aa ad 08 bc b4 93 b1 3d 3c 1f 84 3d b4 c4 ca 3d
       -0.008342186 0.0867075 0.0645127 0.099007994
0002f0 86 46 47 bd a4 84 b1 bc 76 af b2 3d 62 74 08 3e
       -0.04865124 -0.021669693 0.08724873 0.13325647

gru.weight_hh_l0 f4 [192, 64]
000000 c3 7e d8 3a 66 62 53 ba 34 d6 43 ba 34 30 10 bb
       0.001651727 -0.0008063674 -0.00074705784 -0.0022001388
000010 36 ed d7 b7 e6 10 88 ba 09 64 c7 ba 30 1e bf b9
       -2.5740457e-05 -0.0010381013 -0.0015212308 -0.0003645285
000020 cc 63 eb ba 15 cf cd ba d9 2c 7b 3b c1 6a 0f 3b
       -0.0017958819 -0.0015701974 0.0038326292 0.0021883699
000030 db 82 b8 3a 7f f0 87 3a c9 52 09 bb 75 aa 01 3c
       0.0014077084 0.0010371356 -0.0020953885 0.007914175
000040 cf b5 73 ba 03 90 26 3b f9 cf 37 3b 37 f7 68 3a
       -0.0009296806 0.0025415428 0.0028047545 0.00088869355
000050 99 44 80 bb b3 26 9f bb 9b 2b 0d 3b 45 0a ef 39
       -0.0039144275 -0.004856908 0.0021540883 0.00045593284
000060 59 29 9b 39 61 76 d3 3a f3 20 7d 3a fa 96 e5 b9
       0.0002959471 0.0016133302 0.0009656094 -0.0004379077
000070 8b 01 3b bb 36 12 08 3b bd 13 e6 ba 99 b8 24 bb
       -0.0028534855 0.0020762808 -0.001755349 -0.0025134443
000080 9d 8e dd ba 0f fd 5f 3b aa d4 8c bb c6 3a c7 ba
       -0.0016903464 0.0034177934 -0.0042978125 -0.0015200011
000090 2e 72 94 3b 3b f4 12 bb 53 56 0c 3b 10 4e 5f b9
       0.004530213 -0.0022423405 0.0021413758 -0.00021296018
0000a0 7e 0f 83 ba 0c c4 f5 39 36 7c 38 ba 1d b2 ab 3a
       -0.0009999124 0.00046876108 -0.0007037552 0.0013099347
0000b0 42 b4 8d b9 d1 ae 99 ba ca 41 08 39 ca 95 88 3b
       -0.00027027918 -0.0011725073 0.00012994479 0.004168247
0000c0 ce 8c a8 38 ac d7 f3 ba 30 65 15 bb 44 5a c6 ba
       8.037091e-05 -0.0018603704 -0.0022795908 -0.0015133102
0000d0 df f1 86 3a d4 5e 1e 3a df f6 15 3b 0e b2 70 3a
       0.0010295472 0.0006041352 0.0022882742 0.00091818057
0000e0 07 14 d0 3b fc 17 e4 b9 70 30 6c bb 55 1f e0 3a
       0.0063500437 -0.0004350542 -0.0036039613 0.0017099181
0000f0 87 63 bc 3b f0 f8 44 3b e1 20 f2 b9 4f 30 bb 3b
       0.0057491693 0.0030055605 -0.00046182334 0.005712546
000100 e6 03 22 bb c8 54 53 3a de 51 40 3a 8c 6c 82 bb
       -0.0024721562 0.00080616446 0.0007336418 -0.003980225
000110 9d 59 dd 39 65 44 64 bb a1 ac 79 3a ca e9 6e 3a
       0.00042219172 -0.0034830805 0.000952432 0.0009113817
000120 58 48 5f 39 61 94 96 ba 11 06 46 3a 66 0b 43 b9
       0.00021293887 -0.0011488312 0.00075540046 -0.00018600895
000130 4b 4e c5 3b 62 67 4b 3a af 73 f3 bb 89 e3 e2 bb
       0.006021296 0.00077592407 -0.007429562 -0.006924097
000140 b1 9f ae b9 93 8c 0f 3a 75 1f 4e 3a 83 49 c5 b9
       -0.00033306846 0.0005475964 0.0007862964 -0.0003762954
000150 e7 0f 48 ba a3 56 b8 3b 7a fb d3 b7 8d c7 8c 3a
       -0.0007631764 0.0056255623 -2.5270263e-05 0.0010740623
000160 3c 21 ad ba 60 95 0a ba 7b 59 d4 b9 a5 fc 0e 3b
       -0.0013208757 -0.0005286541 -0.0004050246 0.0021818068
000170 aa 1b 06 3b 0c 00 29 3a df 7a c1 b9 45 d3 76 3a
       0.0020463266 0.00064468454 -0.00036903375 0.0009415637
000180 63 15 0b 3a 50 3a d2 ba ad 1c 57 ba 38 ae f3 b8
       0.0005305616 -0.0016039107 -0.0008205872 -0.00011619594
000190 18 14 3a bb 29 22 0c ba 12 08 f2 3a 35 2a 74 b9
       -0.0028393324 -0.00053456664 0.001846554 -0.00023285377
0001a0 03 b6 85 ba 60 76 a3 38 0a cd a6 39 fe e2 2b 37
       -0.0010201338 7.794495e-05 0.00031814753 1.0245245e-05
0001b0 29 76 3f 3a 49 45 43 ba 35 82 9a 3a 9d 6b 71 ba
       0.0007303679 -0.0007448984 0.0011788072 -0.0009209456
0001c0 15 0c d1 b9 d5 eb 9a 3a 37 bb 1d 3a b5 77 82 bb
       -0.00039872588 0.0011819551 0.0006016972 -0.0039815553
0001d0 a7 65 09 bb ba 7c 2a bb 8d 81 48 ba fe ff 20 ba
       -0.002096513 -0.0026014284 -0.0007648699 -0.00061416614
0001e0 ab 84 23 b9 74 fd ec b9 b5 cd fd 38 2a b2 05 3a
       -0.00015594314 -0.00045202265 0.00012102296 0.0005100096
0001f0 13 4c 2e 3a 85 21 8e 39 c5 ff a9 ba 93 2b e5 bb
       0.0006648909 0.00027109325 -0.0012969902 -0.00699372
000200 92 8c e9 b9 d3 35 ba 3a ee f0 88 3a 54 ed 21 ba
       -0.00044545956 0.0014206715 0.0010447779 -0.0006177027
000210 9f 27 fd 3a 7f 9f 03 ba de c6 fb 38 76 3f b8 38
       0.0019314176 -0.000502102 0.000120056546 8.785624e-05
000220 1d 9c 66 b9 3d 12 65 bb 1e b6 05 3b bc 4e 20 3b
       -0.00021992666 -0.0034953498 0.002040274 0.0024460992
000230 dc c3 07 37 13 71 0c 3a 1e ba 46 b7 d7 b4 16 3c
       8.092229e-06 0.00053574255 -1.1845053e-05 0.009198389
000240 67 b3 33 bb c3 3f 66 3a 6e d8 88 3b 30 04 b3 ba
       -0.0027420165 0.0008783305 0.004176191 -0.0013657864
000250 99 06 fa ba 11 a4 aa bb 57 8f 67 3a 22 b1 17 3b
       -0.0019075453 -0.0052075465 0.000883331 0.002314635
000260 a3 7e 72 39 70 80 68 b9 8b f5 e8 b7 18 92 83 3a
       0.00023126094 -0.00022173091 -2.7770895e-05 0.0010038046
000270 05 5b cf ba b1 43 2e 3a 7c e9 84 36 a8 1e 1b 3a
       -0.0015819973 0.000664766 3.9610877e-06 0.0005917349
000280 33 c3 6c b9 a9 a8 85 3a 6b 36 54 bb 7f 4a f4 b9
       -0.00022579431 0.0010197359 -0.0032381068 -0.0004659481
000290 05 2e b5 39 ac 74 3f 3a 9b 30 65 3b 08 9e 3b 3a
       0.00034557297 0.0007303457 0.0034971598 0.00071570324
0002a0 3f a0 55 bb a9 3e 8b ba 54 d8 ea 36 7a 3b ea b9
       -0.0032596735 -0.0010623533 6.9989273e-06 -0.00044676272
0002b0 44 1e 96 3a 64 e0 38 bb 9c e1 dd 3a e7 04 24 3b
       0.0011453112 -0.002820992 0.0016928199 0.0025027336
0002c0 32 c9 24 bb ef 64 08 b8 76 96 c6 b9 0e 40 a2 b9
       -0.0025144336 -3.251893e-05 -0.00037877605 -0.00030946772
0002d0 84 37 f2 b9 26 64 84 ba cc 73 02 3b 7f 4b 8c ba
       -0.000461992 -0.0010100647 0.0019905446 -0.0010703652
0002e0 b6 ff a1 3b 52 11 91 ba 04 f3 0f bb 17 d5 15 b8
       0.004943813 -0.0011067784 -0.0021964917 -3.5722824e-05
0002f0 79 d8 79 3b d3 e4 bc 3a 26 12 6e ba 8f 42 d9 38
       0.0038123413 0.0014411457 -0.0009081684 0.00010359764
000300 01 95 d8 3b 1c 21 44 3b 24 b4 0d 3b 16 00 f7 bb
       0.0066095595 0.0029926961 0.0021622265 -0.007537852
000310 cc 73 04 3b f2 c0 c9 bb b7 d1 0b 37 0d bd 63 3a
       0.0020210622 -0.006157034 8.333874e-06 0.00086875336
000320 26 9b 39 3b e4 c3 b3 ba 79 ea 86 ba 22 6a 91 ba
       0.0028321235 -0.0013714996 -0.0010293267 -0.0011094252
000330 7f 6a 11 bc b0 30 81 bb 35 84 fc 3b e8 5b da 3c
       -0.008875488 -0.0039425716 0.00770619 0.026655152
000340 44 1c 8f ba dd b8 6d 3a b9 2b 6d ba aa e6 1a bb
       -0.0010918458 0.00090683793 -0.00090473477 -0.0023636022
000350 4d 45 98 3b ec a7 00 3c 7c 1c d2 b8 4a c3 e6 39
       0.004646933 0.007852536 -0.00010018886 0.0004401452
000360 84 f4 26 bb 86 bb f2 ba d5 46 a7 ba 18 ff 99 37
       -0.0025475333 -0.0018519021 -0.0012762198 1.8357809e-05
000370 03 36 8a bb 5a 22 2c bb 68 56 ee 3a 7b f7 85 3b
       -0.0042178645 -0.0026265592 0.001818371 0.00408834
000380 f5 08 fe ba f4 c6 8e bb 68 95 77 3b 2b cd a4 b9
       -0.0019381332 -0.004357213 0.0037778262 -0.0003143338
000390 cf 25 29 bc cd fa c9 3b b7 f1 35 bc a5 f1 47 3a
       -0.010323956 0.006163931 -0.011104993 0.00076272554
0003a0 b9 6c 3d bb b6 b8 00 bb 88 10 73 3a 45 1e 1e bb
       -0.0028903915 -0.0019641346 0.00092721777 -0.0024126929
0003b0 cc a8 29 3b 00 4f 53 ba d7 85 e3 3a 7a 2b f8 bb
       0.0025887964 -0.0008060783 0.0017358613 -0.007573542
0003c0 e2 a1 3f bb d2 0a 9f 3b 0c d0 2e 3b ff c5 37 bb
       -0.0029240777 0.004853585 0.0026674299 -0.00280416
0003d0 03 d4 21 bc 95 13 94 bb cf 89 4f 3a af ee 35 bb
       -0.009877208 -0.004518936 0.00079169584 -0.0027760675
0003e0 44 d7 93 bb 6d 2b 27 ba 4d 0a 01 b9 c9 5f 16 bc
       -0.0045117456 -0.00063770154 -0.00012306236 -0.00917811
0003f0 74 74 20 bb 69 d2 0a bb 84 59 d5 3a c4 18 37 bb
       -0.0024483474 -0.0021182543 0.0016277288 -0.0027938345

gru.bias_ih_l0 f4 [192]
000000 68 58 78 3d 6d 1b ed bc 5f 82 00 bd a3 97 ce bc
       0.060631186 -0.028943742 -0.03137433 -0.02521879
000010 20 3a cd ba c1 f7 1d 3d 3f bc 90 3b ee ca 36 3d
       -0.0015657581 0.038566355 0.004416972 0.044627123
000020 55 99 db 3b ad 1c 86 3c ee 2d 77 3d 86 8e 6d 3d
       0.006701628 0.016371096 0.060346536 0.05799725
000030 1a 87 12 bc d7 0a b7 bc 9b 78 38 3d 3d e3 2b bd
       -0.008943344 -0.022344036 0.045036893 -0.04196476
000040 02 af 54 bd b2 95 46 bd 99 4e 46 bd 87 34 1f 3c
       -0.051924713 -0.048482604 -0.0484148 0.009717113
000050 5c 23 cf 3c 62 74 9b 3d 4f dd fa 3c ae df 1f bc
       0.025285415 0.07590558 0.030623106 -0.009757919
000060 12 b3 61 3d 1c ef 98 bc 1d 21 90 3d 26 a1 57 bd
       0.055102415 -0.018668704 0.07037566 -0.052643918
000070 62 43 a7 3d 22 69 f7 3c c8 bf b8 3d f0 9e 3a bc
       0.08167149 0.030201498 0.09020954 -0.011390433
000080 ec 24 76 3d 94 3c 21 3d 72 b8 8f 3d aa c8 df 3c
       0.060093805 0.039364412 0.07017602 0.027317364
000090 42 f0 a0 3d 96 e5 ac 3c 83 9f f9 bc 18 84 08 3c
       0.078583255 0.021105569 -0.030471569 0.008332275
0000a0 9d 32 66 bd 0a 17 8a 3d fd 02 8d bb b0 81 14 3d
       -0.056200612 0.067426756 -0.0043033347 0.036256492
0000b0 39 fc af 3d a4 81 a3 bc f6 4f 42 3c f2 0e 9e 3d
       0.085930295 -0.019959278 0.0118598845 0.07717694
0000c0 28 7d 4d 3d 8e 8e fe 3c ef 50 19 3d 61 a3 d0 ba
       0.050168186 0.031073835 0.0374307 -0.0015917831
0000d0 6f b6 bc 3d 16 2a 74 bd 9f 57 35 bd 63 ff ba 3c
       0.09214484 -0.05961045 -0.044273015 0.022826856
0000e0 08 61 fa 3d 89 c9 f3 bc 38 8c 7f bc 97 f0 47 3b
       0.122255385 -0.029759185 -0.015597396 0.0030508393
0000f0 01 79 9c 3d ca 7d ca bc 4a 3d 0b 3d 90 c5 7f bc
       0.07640267 -0.024718184 0.033993997 -0.015611067
000100 55 81 25 bd 85 40 10 be ad 8c 0a be 77 82 c2 bc
       -0.040406544 -0.14087112 -0.13530226 -0.023743851
000110 55 88 4c be 69 ac 93 bc 3f 10 d6 bd a1 8a d7 bc
       -0.19973882 -0.018026548 -0.104523174 -0.02631122
000120 99 b8 fe bc e5 ed bb be 41 8a e2 bc f7 f4 ac bd
       -0.031093882 -0.36704937 -0.027653815 -0.08445161
000130 e0 db 9d bc f3 73 06 bd 18 aa cc bd 35 8f a3 bb
       -0.019269884 -0.03282542 -0.0999338 -0.004991437
000140 a2 cc 2a be f1 31 5d bd 53 09 01 bf 76 be f6 bc
       -0.16679624 -0.054002706 -0.5040485 -0.030120116
000150 74 76 9d bc 20 71 3c bd 49 70 e0 bc b2 4e 1e be
       -0.019221522 -0.046006322 -0.027397292 -0.15459707
000160 06 a2 95 bc a9 dc 25 bc db 0a 65 bc ce 8e 0d be
       -0.018265735 -0.01012341 -0.013979639 -0.13824007
000170 aa 9f a6 bd d3 83 88 bb c1 d8 b7 bd f7 15 96 bb
       -0.08135922 -0.0041661053 -0.089768894 -0.004580255
000180 13 d4 11 bd e9 d4 03 bd 0c 94 75 bc 2a 3c b5 bc
       -0.03560264 -0.03218547 -0.01498891 -0.022123415
000190 84 21 f6 bc 05 cc 19 be f8 2e d1 3e 5d 1b 67 bc
       -0.030045278 -0.15019234 0.40856147 -0.014105645
0001a0 9a fc b3 be 97 63 36 bd 0a dd 81 bc a5 29 5f bc
       -0.35153657 -0.04452857 -0.01585247 -0.013620769
0001b0 c5 66 03 be 83 1b 67 be ec 4e 28 be e3 59 df bc
       -0.12832172 -0.22569089 -0.16436356 -0.027264541
0001c0 aa 10 51 be 13 7c e9 bc 57 d9 0b bd b4 8e 23 bc
       -0.20416513 -0.028501546 -0.03414282 -0.009982754
0001d0 90 f1 96 bd 3d 8e 9f be 00 62 19 bd 86 45 b5 bd
       -0.07370293 -0.31163207 -0.037446976 -0.08851151
0001e0 8a 11 1e bc 51 37 76 bd f1 64 9b bc 61 86 a5 bc
       -0.009647736 -0.060111348 -0.018969031 -0.020205678
0001f0 9c f1 d7 bc 22 89 1b bc de ca a8 bd 0a 3d a5 bb
       -0.026360326 -0.009493144 -0.08241819 -0.005042677
000200 a6 f7 2c 3d 26 e1 f0 3d 46 d6 38 3d b2 51 22 3d
       0.042228363 0.11761694 0.045126222 0.039628692
000210 93 45 a3 3d 15 1c 46 bd cb 74 49 3d 5a ac 87 bd
       0.079722546 -0.048366625 0.049183648 -0.0662467
000220 18 ec 9a 3c b0 82 60 bd aa 19 44 3d 41 b4 4a 3d
       0.018911406 -0.054812133 0.047876038 0.04948831
000230 e4 f6 44 bd 02 6e 7e 3c ea 7c 3e 3b 52 34 e6 3d
       -0.048087016 0.015529158 0.0029066154 0.11240448
000240 19 02 dc bc ce 47 d3 3d 10 44 36 3a 7f b2 78 3b
       -0.026856469 0.1031643 0.0006952891 0.003794819
000250 2f 2b 0a be bc 7a e1 bd eb 35 81 3d b5 52 8d 3d
       -0.13493036 -0.11009738 0.06309112 0.06900541
000260 28 b3 b6 3b a4 06 97 bd 81 d1 a2 3d d3 d6 d5 3d
       0.0055755563 -0.073743135 0.07950116 0.10441365
000270 fa 04 76 3c b7 c3 86 3c 71 30 e7 3c 68 c5 f1 3b
       0.015015835 0.016450746 0.02822134 0.007378269
000280 26 91 db bc 8a aa 16 bd f2 d9 a8 bd 19 12 94 bd
       -0.02680261 -0.036783732 -0.08244695 -0.07230014
000290 27 b3 4a 3d b9 57 05 3e 28 9b 02 3d 28 92 a9 3d
       0.04948726 0.13021745 0.03188625 0.0827983
0002a0 f8 40 a3 bd 20 60 98 3c 10 32 8d bd 42 08 7e bd
       -0.07971376 0.018600523 -0.06894314 -0.062019594
0002b0 11 5d 5f 3d 49 c6 33 bd c2 3b d6 3b 2b f9 b8 3d
       0.054532114 -0.04389027 0.0065378854 0.090319
0002c0 c4 d2 18 be da 32 3a 3d 2d 6d 88 3b 0a bc 1f bd
       -0.1492415 0.045458652 0.0041634054 -0.038997687
0002d0 c2 24 13 3d bc 6c 05 be 78 16 15 3e a7 c1 49 bd
       0.035923727 -0.1302976 0.14559352 -0.049256947
0002e0 9b 65 51 3d 43 08 5c bc dc ac e7 bd 86 6e 9e 3c
       0.05112229 -0.013429704 -0.11312267 0.019339811
0002f0 43 d7 ad 3d 13 b3 c1 3c 9c e5 da bd a8 f4 de 3c
       0.084883235 0.02364496 -0.10688326 0.02721627

gru.bias_hh_l0 f4 [192]
000000 0a d9 77 3d e4 95 13 3b 3a 12 ef bc c8 7b b4 3c
       0.06050972 0.0022519762 -0.029183496 0.02203168
000010 0a c8 18 bd 14 cf 45 3d 86 9d 86 bc 6e 08 14 3d
       -0.037300147 0.04829319 -0.016432535 0.03614085
000020 98 3c 70 3c 87 d0 0c 3e ee 0c de bc de 87 cc bc
       0.014662884 0.13751422 -0.027105775 -0.02496713
000030 67 11 29 bd 8a 56 8b bc 10 b6 1e 3c 9d 29 fb bb
       -0.04127636 -0.017009038 0.009686962 -0.007664873
000040 24 4a f6 bc 6c 0c 8f 3d a3 3f 21 3e 6b b3 0b 3c
       -0.03006465 0.06984791 0.15746932 0.008526663
000050 1e 75 a7 bb bf 81 a9 3d 4b 88 ca bc d5 25 17 3d
       -0.005110397 0.082767 -0.024723193 0.036901314
000060 1d 60 f7 3c 60 0b 0c 3c 32 4f 29 3d 8e 9e f9 3c
       0.030197198 0.008547634 0.041335292 0.030471113
000070 36 ce c0 3d 3b a5 8f 3c 95 5b 3b 3d 20 22 b6 3c
       0.094143316 0.017534843 0.045741636 0.022233069
000080 57 93 6c 3d c3 7f bd 3d 6b cf ed bc de 46 9f bc
       0.0577577 0.09252884 -0.029029569 -0.019442972
000090 ed ae cd 3d ba 25 cf 3c 70 f9 4d bd d0 85 07 bd
       0.1004313 0.025286544 -0.05028671 -0.033086598
0000a0 68 30 60 bc 74 d5 d8 3a 60 a8 5b 3d 02 11 c9 bb
       -0.013683416 0.0016543106 0.05362737 -0.0061360607
0000b0 8a e4 76 bd 3b 67 af 3d 32 4b 47 bc 00 24 ee 3d
       -0.060276546 0.085646115 -0.012163924 0.1162796
0000c0 05 35 39 3d c4 fe 0f bc 53 65 16 3c ef 0d 8c bc
       0.04521658 -0.008788768 0.009179431 -0.017096488
0000d0 dd 45 ae 3d 6a 8b b8 bd 7f b9 f6 3c 21 d3 1e 3d
       0.08509419 -0.09010966 0.030117748 0.038775567
0000e0 56 5e aa 3d c9 56 1c bd 5b cb 95 38 14 94 a1 bc
       0.083187744 -0.038168702 7.1427516e-05 -0.01972393
0000f0 e6 e8 ba 3b 4e c7 1e 3c 1e 46 aa 3d f7 5d 0e 3c
       0.005704033 0.009691073 0.08314155 0.008689395
000100 00 81 25 bd 81 40 10 be d5 8b 0a be fa 83 c2 bc
       -0.040406227 -0.14087106 -0.13529904 -0.023744572
000110 69 88 4c be 67 ac 93 bc 64 10 d6 bd 07 8a d7 bc
       -0.19973911 -0.018026544 -0.10452345 -0.026310934
000120 7d b8 fe bc 5e 45 bc be 24 8a e2 bc f8 f4 ac bd
       -0.03109383 -0.36771673 -0.027653761 -0.084451616
000130 4c dc 9d bc 26 74 06 bd 7d aa cc bd 90 27 a3 bb
       -0.019270085 -0.03282561 -0.099934556 -0.0049790815
000140 c7 cc 2a be f6 31 5d bd 73 b1 00 bf 6e be f6 bc
       -0.16679679 -0.054002725 -0.50270766 -0.0301201
000150 6b 76 9d bc aa 70 3c bd 4c 70 e0 bc b4 4e 1e be
       -0.019221505 -0.046005882 -0.027397297 -0.1545971
000160 84 a3 95 bc 77 dc 25 bc db 09 65 bc 0a 8f 0d be
       -0.018266447 -0.010123364 -0.0139794005 -0.13824096
000170 a5 9f a6 bd cd 83 88 bb ad d8 b7 bd df 15 96 bb
       -0.081359185 -0.0041661025 -0.089768745 -0.004580244
000180 fc d3 11 bd d3 d4 03 bd 10 94 75 bc 7e 3b b5 bc
       -0.035602555 -0.032185387 -0.014988914 -0.022123095
000190 8a 23 f6 bc 26 cc 19 be 15 35 d1 3e c0 1e 67 bc
       -0.030046243 -0.15019283 0.4086081 -0.014106452
0001a0 c1 fc b3 be c3 63 36 bd 51 dd 81 bc a7 29 5f bc
       -0.35153773 -0.044528734 -0.015852602 -0.013620771
0001b0 69 66 03 be cf 1b 67 be f3 4e 28 be 97 5a df bc
       -0.12832035 -0.22569202 -0.16436367 -0.027264876
0001c0 ad 10 51 be c7 7c e9 bc 4f d9 0b bd f6 8e 23 bc
       -0.20416518 -0.028501881 -0.03414279 -0.009982815
0001d0 b2 f1 96 bd 2c 81 9f be ff 61 19 bd 60 45 b5 bd
       -0.073703185 -0.31153238 -0.037446972 -0.08851123
0001e0 87 11 1e bc 34 37 76 bd 0f 65 9b bc 28 87 a5 bc
       -0.0096477335 -0.06011124 -0.018969087 -0.02020605
0001f0 9d f1 d7 bc 56 89 1b bc e8 ca a8 bd 93 3c a5 bb
       -0.026360327 -0.009493193 -0.08241826 -0.0050426214
000200 e5 0e 6f bd d7 cf 9c bd 74 fe a9 3d 50 ea c0 bd
       -0.058363814 -0.0765683 0.08300486 -0.094196916
000210 78 ba 21 3d a1 c8 08 3d 60 70 8f 3d 82 95 02 3e
       0.03948447 0.03339446 0.07003856 0.12752345
000220 ad fb 55 3d 55 ad ec bd ff 66 24 3e b6 65 40 3d
       0.05224197 -0.11556498 0.16054915 0.046972
000230 23 8e 94 3d c2 a9 cd bd ce 46 13 3e 75 32 e0 3d
       0.07253673 -0.10042144 0.14382479 0.10947124
000240 53 9e ae bd 82 ed ef 3d ef d6 04 3e d3 95 bb bd
       -0.08526292 0.11715223 0.12972616 -0.09159436
000250 49 d3 6b 3d 77 59 51 3d f7 8f e6 3d 5f 6a 34 3d
       0.057574544 0.05111071 0.11257928 0.044046756
000260 fe 84 8f 3b b5 27 dc 3d 22 13 c1 bd 38 88 73 bc
       0.0043798676 0.10749761 -0.094274774 -0.01486402
000270 3d 74 dd 3d ca f6 6b 3d 46 f0 8c 3c 23 17 c6 3c
       0.10813186 0.057608403 0.017204415 0.024180954
000280 4c d8 92 3d 9c 9c 42 3d a2 02 98 bd 17 ab 8e bd
       0.071701616 0.047512636 -0.07422377 -0.069662265
000290 00 b5 b8 bd 03 8b 33 3d e0 50 af bd 19 d8 b5 bd
       -0.09018898 0.043833744 -0.085603476 -0.08879108
0002a0 b5 a3 08 be 51 d5 42 bd bb 5e fd 3d 51 99 ea 3d
       -0.133437 -0.047566716 0.12371584 0.11455024
0002b0 15 10 2a 3d cd bc c7 bc 54 5d 98 3d 96 41 02 be
       0.041519243 -0.02438202 0.07439676 -0.12720332
0002c0 ae d1 00 3d bf b6 a1 bd 57 77 ea bc 86 a4 0b 3b
       0.031449966 -0.07896184 -0.028621359 0.002130778
0002d0 78 27 eb bd 19 08 32 3d ff 4c af bd 8d cb 09 3c
       -0.114821374 0.043464754 -0.08559608 0.008410347
0002e0 37 82 f7 3d 9f fa 45 bd 45 c3 c0 bc 82 1a c0 bd
       0.120853834 -0.048334714 -0.023530612 -0.09380056
0002f0 e3 ad de 3d 26 52 ed 3d de 4b da 3d 9d de 3e 3c
       0.1087301 0.11587934 0.10659002 0.011649755

gru.weight_ih_l1 f4 [192, 64]
000000 78 db f5 ba e6 e2 29 bc 8b c3 43 bc 70 6f 90 bb
       -0.0018757423 -0.010369038 -0.011948477 -0.0044078156
000010 3e 4a 67 bc 44 da 21 bb 43 a9 61 bc 17 8c 5f bb
       -0.014116822 -0.0024696747 -0.013773265 -0.00341106
000020 59 4a e2 bb ee ee 82 3c bc 6f e4 bc 8c 4b 26 bb
       -0.0069058356 0.015983071 -0.02788531 -0.002537462
000030 a5 50 fc 3b 9d 3f ba 3b 3e 98 86 bc 9d dc 76 bc
       0.0077000433 0.005683853 -0.016430017 -0.015067247
000040 06 14 23 3c d0 b0 7d bc 65 68 85 bc b6 ad aa 3b
       0.009953504 -0.01548405 -0.01628513 0.0052086962
000050 d5 0b 12 bb 71 dc 4a bc 36 a1 85 bc 93 75 4a bc
       -0.0022284884 -0.012381659 -0.016312223 -0.012357133
000060 2d f1 fb bb ad 9e be 3b 65 d7 e6 3a 9c 62 65 bc
       -0.0076886625 0.0058172555 0.00176118 -0.014000561
000070 9d 85 b0 bc 24 5a 4a bb 2e b5 52 bc ab 71 c2 bb
       -0.021548087 -0.0030876482 -0.012860579 -0.0059339604
000080 7b 91 28 bc 11 20 cb 3b 93 f5 94 3b d0 c0 15 3c
       -0.0102885915 0.006198891 0.0045458763 0.009140208
000090 c0 70 73 bc cb 62 99 bc 72 79 cd 3c bd 15 53 bb
       -0.014858425 -0.018723866 0.025082324 -0.0032209002
0000a0 cc 7b 92 3c 1b f8 aa 3b b6 91 72 ba 43 ea a0 3b
       0.017881297 0.0052175648 -0.000925328 0.0049107387
0000b0 9b 71 45 bc 0d 32 3a 3c 46 2b 28 bc 9d 07 47 3c
       -0.012051011 0.011364472 -0.010264223 0.012147811
0000c0 5d 5e 7b 3c 28 6b fe bb 42 4f 92 bb d1 ad 36 3c
       0.015342322 -0.007764239 -0.0044650147 0.0111498395
0000d0 30 a0 02 3c f4 e3 74 3c b4 88 64 bb 02 f1 2f 3c
       0.007972762 0.014946926 -0.003487152 0.010738613
0000e0 5c 0c b3 3c 1b 41 83 3b 4c fc 7c 3c 6c 0b f6 3b
       0.02185648 0.004005564 0.015441012 0.007508686
0000f0 b9 f7 fd bb da 84 17 ba 67 66 c4 3b b1 93 f6 bb
       -0.007750478 -0.00057799893 0.0059936526 -0.0075249304
000100 c0 39 0b bc 06 83 94 bb ae 27 d7 bb 9c 81 9c bb
       -0.008497655 -0.004532221 -0.0065660095 -0.004776193
000110 8c 0e 20 bc 66 37 2a bb 6e e6 9d bb 13 77 12 bb
       -0.009769093 -0.0025972961 -0.004818729 -0.0022348806
000120 04 a4 0f bb d8 fd 61 3c 34 e8 f6 bb 1a 3f 6a bb
       -0.002191783 0.013793431 -0.007535005 -0.0035743178
000130 fd f5 c2 3b 58 51 23 3b c9 c8 1f bc 23 d2 23 bd
       0.0059497342 0.002492031 -0.009752461 -0.039995324
000140 2f 65 eb 3b 36 ff 2f bc e5 83 9d bc 49 60 cb 3a
       0.007183693 -0.010741999 -0.019227931 0.0015516366
000150 3a db 13 3c 7c 8b 05 bb 1a 15 c6 bb f0 45 1f bc
       0.009024436 -0.0020377329 -0.006044996 -0.009721264
000160 2f 89 4b bb b0 7a 38 3b 9b 0f 6a 3a f6 f8 0c bc
       -0.003105711 0.00281493 0.0008928717 -0.008604279
000170 88 dc e8 ba 81 15 dd bb ca 21 ee bb 43 8e 6c 3a
       -0.0017765919 -0.006746948 -0.0072672116 0.0009023884
000180 1a f9 4c bb c9 61 ea bb d1 d3 22 3c 5c 28 2f 3c
       -0.0031276406 -0.00715277 0.009938196 0.010690775
000190 05 a5 31 3b ca 4e b1 bb 90 6e 3f 3a 4a 05 a4 ba
       0.0027106416 -0.0054110037 0.0007302547 -0.0012513783
0001a0 7a a6 54 3c f7 b1 0c 3b 60 13 dd b7 a9 af 82 3a
       0.012979144 0.002146838 -2.6354275e-05 0.0009970564
0001b0 28 ca cc bb 74 07 1d 3c a3 45 e7 bb ea 95 e6 39
       -0.006249685 0.0095842965 -0.007057862 0.00043980713
0001c0 f9 02 0e 3c d4 dd ce b9 c5 88 0b 3a 90 20 87 38
       0.008667701 -0.00039456657 0.00053228094 6.443367e-05
0001d0 4a 24 f7 3b 6f 7a 0c 3c 12 b6 a0 bb 1b 75 bd 3b
       0.007542168 0.008574112 -0.004904517 0.0057817823
0001e0 b2 cb d0 3b e7 0f 56 3b 7a 35 1f 3c c1 86 a7 3b
       0.0063719386 0.0032663287 0.00971734 0.0051124995
0001f0 b5 e3 eb bc ea 60 ca bb 36 16 c3 3b c5 38 02 bd
       -0.028795103 -0.006176104 0.0059535755 -0.03179242
000200 11 21 f2 3b cd 4e 2b bc 62 57 4a bc 15 b1 06 bc
       0.0073891957 -0.010455799 -0.012349935 -0.008220931
000210 74 32 8c bc f7 aa 0f bc 25 46 53 bc d1 19 7a bb
       -0.017113902 -0.008768789 -0.012895142 -0.003816236
000220 a3 25 a0 bb d3 16 ae 3c 98 bc 11 bd 16 a4 15 bb
       -0.004887299 0.021251118 -0.035580248 -0.0022833399
000230 b0 e4 49 3b 2a 57 c6 3b ae 07 a0 bc ea c9 8f 3c
       0.0030806474 0.0060528712 -0.019534912 0.017552335
000240 43 5a 4e 3c c4 04 8c bc 38 d0 d5 bc a9 d6 b3 3b
       0.012594762 -0.017092116 -0.026100263 0.005488236
000250 14 39 39 3c db 69 6b bc d1 c1 17 bc 77 89 80 bc
       0.011305112 -0.0143685 -0.009262518 -0.015690548
000260 3d 80 98 3b ee 2d b3 3b 07 64 62 3b cd 9d 99 bc
       0.004653959 0.0054681217 0.0034544484 -0.018752003
000270 f1 84 6a bc 02 63 02 bc 2c af 43 bc fb 0d 6c bb
       -0.014313922 -0.007958176 -0.01194362 -0.0036019075
000280 d1 87 45 bc 00 40 6d 3c 56 02 7a 3b 33 39 4d 3b
       -0.012056307 0.014480591 0.0038148365 0.003131461
000290 ab 5a bf 3c 6d 78 92 bc e4 6c 76 3c 3f 2a 68 bb
       0.023358664 -0.01787969 0.01504061 -0.0035425571
0002a0 78 98 b8 3c f8 8d 07 3c 34 0e 8a ba 2d df a0 3b
       0.02253364 0.008273594 -0.0010532797 0.004909417
0002b0 c0 dc 4c bc 02 f2 7f 3c 83 1c 49 bc 7e 75 06 3c
       -0.012503803 0.015621664 -0.012274864 0.008206723
0002c0 e3 14 92 3c c2 19 9d bb c8 99 a8 3a 65 e6 34 bc
       0.017832225 -0.0047943303 0.0012863213 -0.011041258
0002d0 b9 ad 39 3c 74 af 84 3c 8a d6 46 bb 2f a8 38 3c
       0.011332923 0.016196944 -0.0030340278 0.011270567
0002e0 b6 57 84 3c 52 0c cc 3b 26 29 21 3c 91 4b 88 3c
       0.016155105 0.0062270546 0.009836471 0.016637595
0002f0 a9 07 96 3a b0 b5 16 bb c9 2d 14 3c f5 f7 87 bc
       0.0011446375 -0.0022996478 0.009044119 -0.016597727
000300 09 62 fe b9 26 78 99 ba 56 85 49 bb fc f3 bd 3a
       -0.00048519697 -0.0011708781 -0.003074964 0.0014492269
000310 15 8c 8b bb cb 1b 24 3a d4 af 3a bb 7d 89 33 ba
       -0.0042586424 0.0006260245 -0.002848615 -0.00068487955
000320 38 74 33 b7 58 99 f4 3b 4b 16 ac bb 65 2f 3a ba
       -1.0696291e-05 0.007464569 -0.005251681 -0.0007102399
000330 80 c8 2c 3a 56 58 92 3a 5e ce a8 b9 32 83 67 bd
       0.0006591156 0.0011165242 -0.00032197213 -0.056521602
000340 35 83 86 3b c1 43 31 bc 34 5f 4a bc 80 34 48 3a
       0.0041049966 -0.010819376 -0.0123518 0.00076372176
000350 d8 89 ef b7 6d 9b 10 3b 4e 92 3f ba 41 0e bc bb
       -2.8555209e-05 0.0022065297 -0.0007307873 -0.005739004
000360 ad ba 9f ba be 0a df 3a 1e ad c6 39 e5 c8 ad bb
       -0.0012186371 0.0017016751 0.00037894485 -0.0053034895
000370 d9 a2 42 bb 27 3a 6b bb 74 5e 54 bb 9e 35 d9 39
       -0.0029699116 -0.0035892816 -0.0032404931 0.00041429413
000380 8c 10 cb ba 6f 02 37 bb 72 ed fb 3b 15 32 aa 3b
       -0.0015492602 -0.0027925035 0.007688218 0.0051939585
000390 96 ec 2c bc be 6d df ba 29 b9 a8 ba 33 de af ba
       -0.010554453 -0.0017046256 -0.0012872565 -0.0013417661
0003a0 70 60 d2 3b cf ae 9e 3a 3c 52 61 3a 50 c9 34 3a
       0.0064201877 0.001210654 0.0008595323 0.0006896453
0003b0 e4 35 0d bb ea 88 ad 3b bc 6c 67 bb 1c 9c 0f bb
       -0.0021547014 0.0052958624 -0.0035312613 -0.0021913117
0003c0 48 73 85 3b 9f 94 95 ba e2 dc 17 3a e8 27 84 ba
       0.0040725805 -0.001141209 0.0005793107 -0.0010082694
0003d0 62 47 0e 3b 5d a0 0c 3b 7b 51 cb ba ea bb 31 3b
       0.0021710028 0.0021457889 -0.0015511954 0.0027120062
0003e0 cd 91 9c bb 08 9b e2 3a 64 50 fe 3b 05 6b 2c bb
       -0.004778123 0.0017288635 0.007761048 -0.0026308906
0003f0 aa 41 81 bc 1f b8 8d bb be 76 3e 3b 48 27 93 3b
       -0.015778381 -0.0043249275 0.0029062475 0.0044907667

gru.weight_hh_l1 f4 [192, 64]
000000 0b cd 2c bd 8b 2b 43 bc d4 07 cf bb 80 59 f1 bc
       -0.04218773 -0.011912237 -0.006318072 -0.029461622
000010 be 8f b3 ba df 72 e8 3c c0 5d c0 bb 99 10 7d bc
       -0.0013699455 0.028375087 -0.005870551 -0.015445852
000020 c2 fb 20 3d d1 6c a3 bc bb 9b 0c bd e8 19 da bc
       0.039302595 -0.019949349 -0.034328204 -0.026623681
000030 a9 e7 15 3c 9b f1 d4 bb 90 a3 8b bc c2 da 9c bb
       0.00914947 -0.006498528 -0.017045766 -0.00478682
000040 70 e1 cd 3c d9 c7 a9 3a 1d 27 72 3c cc dc 53 3c
       0.025131911 0.0012953236 0.014779833 0.01293106
000050 a4 a1 df bc 29 24 9d bc 48 74 94 bb 1e e2 6e 3d
       -0.027298756 -0.019182282 -0.0045304634 0.05832111
000060 22 fc 0b bb 55 3f 3d bc 90 ff de bc 11 e0 bd bc
       -0.002136 -0.011550744 -0.027221471 -0.023178132
000070 72 c0 0b 3c bf d6 48 3b 51 c9 1e bd d7 c6 35 bd
       0.008529769 0.0030645577 -0.03876621 -0.04437908
000080 ab 4d 99 bd 84 fe 0c 3c ee 02 0b bd 0d d2 2e 3c
       -0.07485517 0.008605603 -0.03393834 0.010670197
000090 5f 6e 40 bd eb 83 31 bb 92 07 2f 3d 0e e9 20 3d
       -0.046980258 -0.0027086686 0.04273183 0.03928476
0000a0 16 bd 4e 3c ae e7 97 3c 74 77 b0 ba 69 d1 e5 bb
       0.012618324 0.01854309 -0.0013463334 -0.007013489
0000b0 a9 be 10 bd 16 e3 f9 bc ac 81 37 3b b7 0d e9 3c
       -0.035338078 -0.03050379 0.0028000874 0.028448923
0000c0 67 e5 79 3c 1f c0 03 ba 14 57 78 bc 06 a0 4f bd
       0.015252448 -0.00050258817 -0.01515748 -0.05068972
0000d0 b0 3e 57 bd cd 57 07 bc e2 f5 3e 3d 61 e8 d6 bc
       -0.052550018 -0.008260679 0.04662121 -0.026233854
0000e0 4b c4 f8 bb 78 1d 8a bc 1a ab 93 bc 76 a5 46 ba
       -0.0075917593 -0.016859755 -0.018025924 -0.0007577756
0000f0 79 ec a9 3b bb eb c3 3c d1 32 9b 3d 9c b9 15 3c
       0.0051856604 0.023916116 0.07578052 0.009138491
000100 20 64 2f bc d9 3d 01 bd d0 ca 38 3d b1 f7 80 bd
       -0.010705024 -0.031553123 0.045115292 -0.062972434
000110 d9 80 3c bd 70 e6 f1 bc af ba 9a 3a 3a e9 ee bc
       -0.046021316 -0.029528826 0.0011804904 -0.029163945
000120 60 0d d3 3c 06 65 de 3c 22 86 62 3d 50 da 9a bd
       0.025763214 0.027147781 0.0553037 -0.07561171
000130 1f bc d5 bb 05 69 0d 3d a1 c0 8b bb 18 76 ed 3c
       -0.00652267 0.034523983 -0.0042649065 0.028986976
000140 c1 e7 2c ba 5f e4 0d 3b 21 46 7c bd ee d1 22 3c
       -0.00065958133 0.0021651012 -0.061590318 0.009937746
000150 4d 9d 30 bc 1d 49 03 bc 6b 73 a9 3c d0 3f c3 bc
       -0.010779691 -0.008013037 0.020684918 -0.02383414
000160 b3 20 51 3a 8d a4 2f 3b 88 af be bc 9f 00 31 3b
       0.000797759 0.002680096 -0.02327706 0.0027008427
000170 da 85 92 b8 8b b9 86 3c 1f 4e c4 3c f4 fb 70 3c
       -6.986754e-05 0.016445896 0.023963032 0.014708508
000180 5f 45 b8 3c e7 f9 28 bb 12 0a c4 3c 4c 06 b3 bc
       0.022494016 -0.002578372 0.023930583 -0.021853589
000190 79 3f 9d 3d 27 29 c4 b9 ca 0b 00 bd f9 74 ff bb
       0.07678122 -0.00037414694 -0.031261243 -0.0077959266
0001a0 0e 70 da 3c be 36 d1 bc 4f ae 41 bb d3 37 83 bc
       0.02666476 -0.025538798 -0.002955336 -0.01601783
0001b0 90 59 28 bd b9 e9 8a 3d 02 3c 09 bd d0 3d 61 3c
       -0.04110104 0.0678286 -0.033504494 0.013747647
0001c0 94 f6 15 bd ae f2 ae 39 83 32 58 ba 19 9c 24 bd
       -0.03661211 0.00033368677 -0.0008247273 -0.04018793
0001d0 eb 8f 9d 3d de 81 ff ba 10 d9 2c 3d 20 47 2a bd
       0.07693466 -0.001949366 0.042199194 -0.041571736
0001e0 00 e4 b1 3b b7 fc de 3b 84 05 ea 3c 74 65 01 3c
       0.005428791 0.0068050283 0.028567083 0.0078977235
0001f0 a9 e9 12 bd fb 17 e6 3c cb c9 de 3c c5 03 38 3b
       -0.035867367 0.028087607 0.027195832 0.0028078419
000200 84 06 3e bc 33 eb 74 bc 72 06 0f bd 31 06 5e 3d
       -0.011598233 -0.014948654 -0.034918256 0.054205123
000210 56 07 22 3d 05 73 4a bc ec dd 3f bb 1b 05 29 3d
       0.039557777 -0.012356524 -0.0029276563 0.041264635
000220 e5 19 a0 3c ed 39 45 bd 67 cb b3 3d e8 ff 95 3d
       0.019543597 -0.048150945 0.0877903 0.07324201
000230 bb 86 b7 3c 96 d9 88 ba cb f9 12 bc 92 e6 d5 bc
       0.022403112 -0.0010440822 -0.008970688 -0.026110921
000240 3c e0 be bd c9 f3 98 3a 2a 95 23 bc 97 09 00 3c
       -0.09320113 0.0011669333 -0.009984294 0.007814786
000250 31 bc 4a bd 2d 97 a9 bc ee 4c 4d ba 30 d5 42 bd
       -0.04949588 -0.020701969 -0.0007831593 -0.047566593
000260 a3 0d 26 bc 11 14 4f bc 51 f0 57 3d c1 cd f4 3c
       -0.010135087 -0.012639062 0.052719418 0.029883267
000270 fa 94 7e bc 4f 3d 58 39 24 37 37 bd 18 f0 49 bd
       -0.0155384485 0.00020622204 -0.04473032 -0.049301237
000280 27 ca 31 3d ce f7 a9 bb d4 a3 2a 3d 75 2e fc b9
       0.043405678 -0.0051870113 0.041660145 -0.000480998
000290 e2 97 4b 3d 24 f6 37 ba 02 9d 91 3d 2d 7d 81 3c
       0.049705394 -0.0007017574 0.07110025 0.015806759
0002a0 52 6b 24 3d bb 98 46 3d ce b2 79 b9 5c 1b 23 bd
       0.04014141 0.0484855 -0.000238131 -0.039821014
0002b0 f4 c6 58 3d 11 e7 17 bd 39 69 17 bd 1a 2a 31 bc
       0.05292411 -0.037085596 -0.036965583 -0.01081326
0002c0 4f 99 85 3c 0e c5 4a 39 b0 2c 0c bd 5c 09 18 bc
       0.016308455 0.0001933763 -0.034222305 -0.009279575
0002d0 19 2b 89 bd 06 ff 92 b9 83 f8 75 3d f9 0e 04 3d
       -0.06697673 -0.00028037297 0.060051452 0.03224084
0002e0 ff 31 52 bd 46 5b d8 bb 2c a7 43 3d 06 12 9f bb
       -0.05131721 -0.0066026775 0.04776685 -0.0048544435
0002f0 1f 7a 1a 3d ee 11 85 3c fc f8 41 3d 89 cc 65 3a
       0.03771412 0.016243901 0.04735659 0.0008766135
000300 f0 59 8f 3c 4c cd 30 b8 fb f4 99 bc 90 21 b0 bc
       0.01749894 -4.2152868e-05 -0.018793574 -0.021500379
000310 40 8f 1e bd a0 e6 df bc 6e ab ab 3a 06 c3 ab bb
       -0.038710833 -0.02733165 0.0013097355 -0.0052417545
000320 36 12 69 3b 86 71 0e 3c 88 e8 e9 3b dc b0 ee 3c
       0.0035563833 0.008694058 0.0071383156 0.029137067
000330 0c 2a e2 ba a5 54 c0 3c 99 1c 61 bb ff 9f 2f 3c
       -0.0017254963 0.023477862 -0.003434932 0.010719298
000340 e4 6c 63 3c 85 c2 88 3b d6 51 78 3c 02 b3 4f 3b
       0.013880942 0.004173579 0.01515623 0.003169239
000350 ab 72 5e bc ce 52 26 3a 3d 25 00 3b 2a f7 c1 bc
       -0.013577144 0.00063447363 0.0019553446 -0.023677427
000360 32 61 5d bb 34 09 b3 3b 37 6d 5a bc 22 18 68 bb
       -0.0033779857 0.0054637436 -0.013331703 -0.0035414775
000370 fb b8 8e 3b 39 a4 08 bc 50 15 1d 3c 5f b4 eb 3b
       0.0043555475 -0.008339935 0.009587601 0.007193133
000380 8c d3 14 3c 72 6d 87 bb 13 89 bf bc ed 1a e3 3b
       0.00908364 -0.00413292 -0.023380792 0.0069307
000390 b8 be 8b bb 12 30 01 bb fd 3c 26 bd a7 60 d7 3c
       -0.004264679 -0.001971249 -0.040585507 0.026291205
0003a0 1d 53 72 bb f3 d8 8b 3c 36 cb 53 bb 01 7a 46 3c
       -0.003697581 0.017071223 -0.0032317168 0.012114049
0003b0 6a 59 23 bc 39 28 10 3a 3d 26 da bc 7a b2 3c bb
       -0.009970048 0.00054991577 -0.026629562 -0.0028792904
0003c0 59 a5 4e bc d5 61 df 3a a7 21 98 ba 5a 09 87 bc
       -0.012612664 0.0017042706 -0.0011606709 -0.016483951
0003d0 6c 65 ae 3c 50 84 ce bb 2b 54 9f bc a4 a5 ed bb
       0.021288596 -0.006302394 -0.019449314 -0.007252412
0003e0 a6 f3 d8 bc 84 5d b3 bb e9 f1 35 3d 77 b1 08 3b
       -0.026483368 -0.0054737944 0.044420157 0.002085773
0003f0 b2 06 7b 3c d4 04 28 3d 70 c2 2d bd f2 e8 52 3b
       0.0153214205 0.04102023 -0.04242176 0.0032182303

gru.bias_ih_l1 f4 [192]
000000 6c af 57 3d d4 92 34 bc d2 15 88 bc c1 eb 28 3d
       0.05265753 -0.011021335 -0.016611967 0.041240457
000010 4e 9e 2d bd 5d ef a6 bd b3 a3 c3 bb fd 5f 31 bd
       -0.0423873 -0.08151124 -0.005970442 -0.043304432
000020 17 72 0c 3c 47 38 73 3d 61 c6 6d 3d 5e 14 f0 3d
       0.008572123 0.059379842 0.058050517 0.11722635
000030 64 e7 c9 bc de ae be bc 4c fb 45 3c 9f 9c 26 3d
       -0.024646468 -0.023276743 0.01208384 0.04067671
000040 90 2b 6f bc cf 61 7d bc e2 bf 59 3c 41 64 42 bc
       -0.014597788 -0.015465214 0.013290377 -0.011864723
000050 c9 9d da bc 2d 1d 2a bd 55 69 ba bc c6 66 78 bd
       -0.026686566 -0.04153173 -0.022755304 -0.060644887
000060 d9 a2 92 bc 94 ce 05 3c d2 ab 1b 3d a3 81 2c 3d
       -0.017899917 0.008166928 0.038005657 0.04211582
000070 00 df 91 bc d7 9d b9 3d 8b 16 c9 bd 07 2b c6 bc
       -0.01780653 0.09063309 -0.09818753 -0.024190439
000080 38 35 91 3d 5e ca fb bc 7b 3b d4 bb 47 53 4b 3a
       0.07090229 -0.030736145 -0.006476817 0.0007756245
000090 22 55 b8 3d cb 5a d6 3c c5 ae b3 bd 8d c5 4e bd
       0.09000613 0.02616634 -0.08773569 -0.050481368
0000a0 0e b9 29 bc a9 fd 93 3d 86 05 a0 bc af 33 c9 bc
       -0.010359062 0.07226116 -0.019533884 -0.024560777
0000b0 c6 cf 8c 3b f7 bd 55 bd 71 a5 80 3c 91 0a eb 3c
       0.0042972295 -0.052183118 0.015703889 0.028691562
0000c0 e8 9d 8b bc de ba e9 ba a7 7b 35 bd f8 5c 92 bc
       -0.017043069 -0.001783218 -0.044307377 -0.017866597
0000d0 ae 5a 4c bd fd 50 6d 3b bc b2 5f 3d 30 be fa 3d
       -0.049891166 0.0036211603 0.054613814 0.12243307
0000e0 ff d5 50 3d ee 79 7c bb d3 83 84 3c 2e 9f dd bc
       0.050985333 -0.0038524824 0.01617614 -0.027053442
0000f0 8b fd 38 bd b2 4d ad bd 8d f1 e5 3c d2 f1 99 bc
       -0.045163672 -0.08462085 0.028069282 -0.018792067
000100 a2 8f a1 bd b4 39 55 bd 0b 3c 6b bd 38 0f a1 bc
       -0.07888724 -0.052056983 -0.05743031 -0.019660577
000110 1e 3c 7a bc dd 3e fe bc 34 ef 0a 3a 05 db 8c bd
       -0.015273122 -0.031035835 0.0005299926 -0.06877712
000120 6c 60 4d bd 35 54 cd bd cf 94 93 bd e4 f3 14 bd
       -0.050140783 -0.10025827 -0.07206117 -0.036365405
000130 4d c7 71 bd 94 88 92 bd ed 76 e9 bb 42 a2 00 bd
       -0.05902796 -0.071549565 -0.0071247728 -0.03140474
000140 81 d3 33 bd f8 8f 5f bd a3 c6 a1 bd e9 be c0 3b
       -0.043902878 -0.05458066 -0.07899215 0.0058821333
000150 d5 41 84 bd 4d 45 13 be c9 82 94 bd 90 71 6a 3b
       -0.06457869 -0.14381905 -0.07251508 0.0035773255
000160 f7 78 3a bd b2 af 29 bd 64 13 7b 3b 29 af 9e bd
       -0.045525517 -0.04142732 0.0038311118 -0.07748253
000170 3f f3 7f bd 08 24 90 bd 8b db 93 bd b2 36 83 bd
       -0.062487837 -0.070381224 -0.07219609 -0.06406917
000180 18 5b 3c bd d7 eb cb bc 0e 7a 72 bd 50 16 4e bd
       -0.04598531 -0.02489273 -0.05919843 -0.050314248
000190 65 e4 88 bd 52 e5 d1 bc 8d fa 65 bd d0 1d 21 bd
       -0.06684188 -0.025622044 -0.056147147 -0.039335072
0001a0 8b 87 bd bb 83 56 81 bd a3 67 bb bb 53 58 f4 bc
       -0.0057839802 -0.06315329 -0.0057191416 -0.029827273
0001b0 a4 f9 a8 bd ea 6f 36 bc 11 d7 0f 3c 32 21 34 bd
       -0.0825074 -0.011135081 0.008779303 -0.04397697
0001c0 bc 07 5a bd b3 4e 09 bc b6 0b 83 bd 06 c0 e6 bd
       -0.053230032 -0.00838058 -0.06398718 -0.11267094
0001d0 a5 51 5e bd 8b ea ca bc aa 02 5e bc 95 f8 c5 bd
       -0.05427708 -0.024770042 -0.01355044 -0.09666554
0001e0 26 14 75 bd 34 63 a9 bd 90 d3 58 bd 6b 94 86 bb
       -0.05983367 -0.082708746 -0.052936137 -0.0041070483
0001f0 80 02 91 bc fa fc 8e bd e1 ad 75 bd e2 b2 24 bb
       -0.017701387 -0.06981845 -0.059980277 -0.0025131037
000200 6b fa d8 3d 77 6c 0d 3d ea a1 e0 bc 30 43 f6 3d
       0.105946384 0.03452727 -0.027420957 0.12024534
000210 61 7b f5 3d d3 8e 11 3e 78 a0 19 3d be 1f 78 3c
       0.11986423 0.1421464 0.03750655 0.015144287
000220 7e a1 7f bd 67 c5 c9 bb bf 15 00 3e e0 02 b7 3c
       -0.06240987 -0.0061575654 0.12508295 0.022340238
000230 c9 66 b1 bd 9d 57 13 3e db 24 ed 3c 1d 6d 85 bd
       -0.08662183 0.1438889 0.028948238 -0.06514952
000240 a5 a5 1a be b7 97 91 bd c6 6e c9 3d c5 42 88 bc
       -0.15102251 -0.071090154 0.098355815 -0.0166334
000250 6a 71 32 3e 7a 59 cd bd 4a 5a 94 3c d1 d2 05 be
       0.17426077 -0.10026832 0.01810946 -0.13068701
000260 9a cb 13 3e 62 eb 59 bd 3a 55 10 be 0e 16 18 3e
       0.14433137 -0.053202994 -0.14095011 0.14852163
000270 dd 3b f0 3d 12 ea cb 3c 96 fa c5 bd 11 67 db bd
       0.11730168 0.024891887 -0.09666936 -0.10713018
000280 a7 78 01 3e e9 d9 1d be 67 6c 00 3e 4e 66 24 be
       0.12643681 -0.15415157 0.12541352 -0.16054651
000290 c3 ca 5c bd fb 01 fd 3d 6a e5 b2 3d 04 20 23 3e
       -0.053904306 0.12353893 0.087351635 0.15930182
0002a0 8e e3 a4 3d 1d bc d2 3d 8c 29 b7 3d 7e 8c 11 be
       0.08051215 0.10289786 0.08943471 -0.1421375
0002b0 6b 9d 20 3e 85 ec 16 bd 74 24 9a 3d ae a0 55 3a
       0.1568505 -0.036846656 0.07526484 0.00081492483
0002c0 dc a1 2b 3d ed d4 95 3c d6 2a 2c be 6f 8f 15 be
       0.041902408 0.018290007 -0.16813216 -0.14605497
0002d0 ed 65 0f be e6 49 76 3c b1 64 1d 3d b8 52 a5 bd
       -0.14003725 0.015032267 0.038426105 -0.08072418
0002e0 67 04 a4 bd 94 ae 13 be 94 69 db bd 71 c2 ec bc
       -0.08008652 -0.14422065 -0.10713497 -0.02890131
0002f0 0d 40 2c be 81 8c 98 bd f6 dd 0a be 34 f6 a0 bd
       -0.16821308 -0.07448674 -0.13561234 -0.078594595

gru.bias_hh_l1 f4 [192]
000000 07 0b 53 3d 62 8a 95 bd 6a 84 ba 3d 44 e6 c2 bc
       0.05152419 -0.07301785 0.09107287 -0.02379144
000010 b6 02 b5 3b 1e df a7 bd 78 e8 14 bc bf c7 c2 3d
       0.005524005 -0.08196853 -0.009088628 0.09510755
000020 65 45 cf 3c 28 ab a3 bd 16 09 9b 3d e0 fe ab 3d
       0.025301645 -0.0799163 0.075700924 0.08398223
000030 af d1 a5 3b 00 6b bd 3b 35 42 d2 bb b1 da 66 3d
       0.0050603966 0.0057805777 -0.006416584 0.056360904
000040 83 57 03 3d e8 1d 88 bc f2 fe 63 bd 0a 06 bf 3b
       0.03206588 -0.016615823 -0.055663057 0.0058295773
000050 68 42 9c bd 47 5a 3c bd 40 e1 3a 3d 37 4b 98 bd
       -0.076298535 -0.045984533 0.04562497 -0.07436221
000060 a7 72 78 bc b1 5d 49 3b 6a 57 ef 3b e5 0b 8c bc
       -0.015164054 0.003072601 0.0073041217 -0.017095516
000070 cb 04 8e bc b6 03 4f bd fc a8 b3 bb a8 68 c0 bd
       -0.01733627 -0.05054065 -0.005482791 -0.093949616
000080 07 3f 84 3d 77 bc 26 bd 90 7d a0 bd 94 ce 79 bd
       0.06457334 -0.040707078 -0.07836449 -0.060988024
000090 fe c2 d5 3d 11 96 80 bd 5e 03 df 3d 46 28 7e 3d
       0.104375824 -0.06278623 0.10889314 0.062050126
0000a0 c3 48 90 3c 21 ab 1a bd 08 96 9c bb b4 52 1a bd
       0.01761282 -0.037760857 -0.0047786273 -0.037676528
0000b0 88 e6 95 3d ab 79 2e bd 05 1a 55 bb 59 69 91 3d
       0.07319361 -0.0425965 -0.003251673 0.071001716
0000c0 f6 ce 9a bc 60 9d 61 3b 64 68 75 3c cb 38 e8 bc
       -0.018897515 0.0034426078 0.014978502 -0.028347393
0000d0 fc 5f 97 3b d2 70 98 bb 75 ba 63 bc ba df 99 bd
       0.0046195965 -0.004652121 -0.013899435 -0.075133756
0000e0 78 1c 15 bd a4 5f 97 bd a5 7c f2 3a 74 49 e5 bc
       -0.036404103 -0.07391289 0.0018500282 -0.027989127
0000f0 63 a1 a2 3c 66 2f 55 3d 8d de 93 3d 8d bf 99 bc
       0.019852346 0.052047156 0.072201826 -0.018768096
000100 db 8f a1 bd 81 39 55 bd 93 3b 6b bd 8b 13 a1 bc
       -0.078887664 -0.052056793 -0.05742986 -0.01966264
000110 24 3c 7a bc 6b 3f fe bc 92 50 0b 3a f8 da 8c bd
       -0.015273128 -0.0310361 0.0005314435 -0.068777025
000120 67 61 4d bd e4 67 cd bd 39 9c 93 bd 8d f2 14 bd
       -0.05014172 -0.10029581 -0.072075315 -0.036364127
000130 63 c5 71 bd c4 87 92 bd cb 75 e9 bb f5 a1 00 bd
       -0.059026133 -0.071548015 -0.0071246377 -0.031404454
000140 e3 d0 33 bd 36 90 5f bd b8 c1 a1 bd 14 d7 c0 3b
       -0.04390038 -0.05458089 -0.07898277 0.0058850143
000150 36 42 84 bd f0 44 13 be bc 82 94 bd 85 9b 6a 3b
       -0.06457941 -0.14381766 -0.07251498 0.0035798263
000160 39 79 3a bd 47 af 29 bd 7b 19 7b 3b 3d af 9e bd
       -0.045525763 -0.041426923 0.0038314748 -0.07748268
000170 76 f3 7f bd 8d 23 90 bd 62 db 93 bd e8 3b 83 bd
       -0.06248804 -0.07038031 -0.07219578 -0.064079106
000180 1d 5b 3c bd 41 ec cb bc 1a 7a 72 bd 3c 16 4e bd
       -0.04598533 -0.024892928 -0.059198476 -0.050314173
000190 2d e5 88 bd 6c e4 d1 bc 76 f9 65 bd dc 1c 21 bd
       -0.06684337 -0.025621615 -0.056146108 -0.039334163
0001a0 8b 75 bd bb 37 73 81 bd bc 69 bb bb 60 58 f4 bc
       -0.0057818345 -0.063208036 -0.0057193916 -0.029827297
0001b0 de f2 a8 bd 3e 70 36 bc 29 cb 0f 3c 3c 21 34 bd
       -0.08249448 -0.011135159 0.0087764645 -0.043977007
0001c0 42 08 5a bd ee 4d 09 bc f5 0a 83 bd 69 c1 e6 bd
       -0.05323053 -0.008380396 -0.06398574 -0.11267359
0001d0 81 5a 5e bd 96 ea ca bc 8c 02 5e bc 3e 00 c6 bd
       -0.05428553 -0.024770062 -0.013550412 -0.09668015
0001e0 0f 0e 75 bd 2d 63 a9 bd b1 d2 58 bd 40 07 87 bb
       -0.05982786 -0.082708694 -0.052935306 -0.0041207373
0001f0 93 fd 90 bc 58 02 8f bd 1f c5 75 bd 80 b8 24 bb
       -0.017699039 -0.06982869 -0.060002442 -0.0025134385
000200 d2 d8 0e 3d cc 92 81 3d c8 d1 22 be 41 dc 2b 3e
       0.034874745 0.063268274 -0.15900338 0.16783239
000210 40 78 07 bd 87 81 18 bd fc c2 fe ba 98 a3 cd 3d
       -0.033073664 -0.037232902 -0.0019436772 0.10040969
000220 39 57 00 be e3 be a7 3b 92 75 90 3d 0f 2e 31 3e
       -0.12533273 0.005119191 0.07053675 0.17302726
000230 34 f1 72 bd 31 10 0e 3e 55 e0 11 3e bc a6 e0 3c
       -0.05931206 0.13873364 0.14245732 0.027423255
000240 94 c0 07 bb 63 7c 41 3c c4 c3 3b 3d 48 15 a7 bd
       -0.002071415 0.011809441 0.045840994 -0.08158356
000250 04 d5 6e bd 13 8c 87 3b b8 68 f7 3d 3a 0a 44 bd
       -0.058308616 0.004136571 0.120805204 -0.047861315
000260 45 99 a2 bc 9a 11 0d bd 21 81 d0 bc d0 9a 4a 3d
       -0.019848475 -0.034440614 -0.025452198 0.049464047
000270 ce 00 f1 3d 86 5a 0c be 39 81 22 bd b0 ef 55 3d
       0.117677316 -0.13706407 -0.039674018 0.052230537
000280 06 9f 18 3e 52 0f b9 bd fb 7c 10 3e b7 31 f1 bb
       0.14904413 -0.09036125 0.14110176 -0.007360663
000290 fc 1c 82 bd 04 ff 70 3c 0c c1 ed bc 59 dc 7d 3d
       -0.063531846 0.014709238 -0.029022716 0.061977718
0002a0 42 9a 11 3c e1 05 ac 3d 92 b0 2c 3c 75 ac 3a 3d
       0.008886876 0.08399559 0.0105401445 0.045574624
0002b0 79 2a 0f 3e cb b5 06 be 1c 64 aa 3d 6d cb 09 be
       0.13981046 -0.13155286 0.083198756 -0.13456507
0002c0 48 78 da 3d 3e ff b9 bd 81 15 f2 bd 48 99 d0 bc
       0.10667473 -0.09081887 -0.11820508 -0.025463715
0002d0 21 f1 8a bd a6 16 3e 3d fd 46 dd bd 49 2e 18 be
       -0.06784273 0.046408318 -0.108045556 -0.14861406
0002e0 e7 86 0b be 5c 23 0b 3d b0 2d 0b be b1 cf f7 bc
       -0.1362568 0.03396927 -0.13591647 -0.030250402
0002f0 26 4a 83 bc 4f 23 c4 bd 48 ce a5 bd 16 18 ee 3c
       -0.016026568 -0.09577047 -0.08095986 0.02906422
