models/prediction/lstm_model.pt (torch, 211618 bytes, 10 tensors)

lstm.weight_ih_l0 f4 [256, 1]
000000 7d aa 35 3e 4f fd e0 3c 80 98 3b 3d 0e 94 c2 3d
       0.17740817 0.027464537 0.045799732 0.095008954
000010 74 04 f2 3d f2 43 55 3e da 47 2b 3c cd cd bd 3d
       0.118172556 0.208267 0.0104541425 0.09267769
000020 85 e0 3e 3e bc 95 f4 3d 73 f8 8c 3d 54 b8 a7 3c
       0.18640335 0.11942622 0.068833254 0.020473637
000030 fd 39 ad 3d 9f b2 97 3d db 8c de 3d 5c f3 2e 3e
       0.08458326 0.07407116 0.1086671 0.17085022
000040 29 4a d7 3d ca bb f8 bc 28 ac 57 3d 1c 79 ce 3d
       0.10512192 -0.030362982 0.052654415 0.100816935
000050 06 bb 9c bd 15 57 9c 3d 1e f6 a0 3c e8 d0 8f 3c
       -0.076528594 0.07633797 0.019648608 0.017555669
000060 4c 2c 9c bc c6 21 47 bd bb 80 7b 3d ff c6 e5 3d
       -0.019064091 -0.048616193 0.061402064 0.11219596
000070 2d b7 8d 3d ca c9 12 bd 5f 39 14 3e 26 87 6a 3d
       0.06919704 -0.035836972 0.1447501 0.057257794
000080 f0 66 9e 3e 71 66 fc 3c 50 81 8e bd db f2 96 3d
       0.3093791 0.030810567 -0.06958258 0.0737054
000090 da 37 d2 3d d9 6f d7 3d 62 8d 2d 3d dd b8 0b 3e
       0.10264559 0.1051938 0.04237116 0.13644738
0000a0 0c 3a 47 3d b3 6f a7 3c 3f cc ea 3d 36 7a 09 3e
       0.048639342 0.020439005 0.11464738 0.13425526
0000b0 70 dc 01 3e ce 88 6a bc 62 8d a9 3d 99 37 f4 3c
       0.12681746 -0.014314843 0.0827892 0.029811667
0000c0 dc a9 20 3e df 3b 6f bc 89 ee 67 bd 53 87 1f bd
       0.15689796 -0.014601677 -0.05662397 -0.038947415
0000d0 03 ea 41 bd 9d a0 92 3d d7 7a 21 3d 5e de 9a 3d
       -0.04734231 0.07159541 0.03942379 0.075619444
0000e0 9d d5 cc 3d a4 e7 d0 3d 33 07 b6 3d 19 33 8d bc
       0.10001681 0.10200432 0.08888092 -0.01723628
0000f0 c9 2f 2d 3a c8 27 99 bd 6c 82 99 3d f6 14 60 bc
       0.0006606547 -0.07478291 0.07495579 -0.0136768725
000100 91 8f b4 3d 6b 09 bd 3b 6f 8a 0e 3e 02 e0 f4 bc
       0.088164456 0.005768945 0.13919996 -0.029891971
000110 e6 60 b5 bc 37 c3 f7 ba 59 00 10 3e e7 c9 89 3d
       -0.022140931 -0.0018902783 0.14062633 0.06727963
000120 ab 93 2e 3e 6b 69 f9 3b 3d 91 d8 bd 31 2e 3a bd
       0.17048518 0.0076114438 -0.10574577 -0.045454208
000130 8f 53 89 bd 6f af b7 3d 68 7b 95 3d 4a 67 f5 3d
       -0.06705391 0.08969008 0.072989285 0.119825915
000140 4a 6e f2 bc 04 61 00 be 75 c7 e9 3d 10 db 28 3c
       -0.029593606 -0.12537009 0.114149965 0.010306135
000150 90 c8 8b 3c 3f c9 97 3c d4 e7 86 3d 8c cc b9 bd
       0.01706341 0.018528579 0.065871865 -0.09072217
000160 3c 09 7a bc 50 15 04 3d b6 70 4c 3d 00 80 2e 3d
       -0.015260991 0.032246888 0.049912177 0.04260254
000170 c7 8a 8e 3d ad e6 06 3e c7 dd 99 bc c4 51 34 bd
       0.069600634 0.13173933 -0.01878251 -0.04402329
000180 ca 42 9f 3d ff 66 58 bc 8b 30 88 bd 3b f9 0e be
       0.07776411 -0.01320815 -0.06649884 -0.13962261
000190 81 b0 c1 3b 28 e2 62 3d 5b 88 94 3c b9 81 47 3c
       0.0059109335 0.05539146 0.018131426 0.012176924
0001a0 af 9b bc 3c 3d 1a d6 bc db 39 00 bd dc c3 73 bc
       0.023023454 -0.026135558 -0.031305175 -0.0148782395
0001b0 11 5b 1a bd f3 04 10 bd b3 e6 03 3e 26 cf 00 3d
       -0.037684504 -0.03516097 0.12880974 0.031447552
0001c0 9a 33 6b 3c d3 cb 58 bd 79 1b 02 bd c9 41 19 bd
       0.0143555645 -0.052928757 -0.03176448 -0.037416253
0001d0 69 84 01 bc 80 8c 94 bd c9 db c7 bc 89 f8 bc 3b
       -0.007905104 -0.07253361 -0.024396794 0.0057669324
0001e0 6f 5b 4b 3d 3a 20 58 3c a6 38 02 3c d8 42 b6 bc
       0.049647745 0.013191277 0.007948076 -0.02224867
0001f0 60 3d 96 bd ee f2 79 bd 3f 79 45 3b a6 62 47 bd
       -0.07335925 -0.06102269 0.0030132083 -0.048678063
000200 8f 06 43 3e 7b 5c f2 3c c7 67 2e 3e a9 3c 9e 3d
       0.1904547 0.029585114 0.17031775 0.07726414
000210 e0 82 64 be c6 32 54 3e da af cf bd 07 0b dd 3c
       -0.2231555 0.20722494 -0.10140963 0.026982797
000220 15 f3 33 be 59 eb 5c be 0e e2 18 3d 55 9c a4 bb
       -0.17573197 -0.21574153 0.037324958 -0.005023519
000230 9a 82 15 3d ae af 24 be 31 f9 1b 3e 91 dd 3b be
       0.036501504 -0.16082641 0.15231778 -0.1834624
000240 a3 a2 72 3c 16 7b 87 3d c4 36 17 3e 08 ad 25 3e
       0.014809283 0.06615274 0.14766985 0.16179287
000250 05 b8 f2 3d a9 14 29 be 29 fd 84 bc 98 a6 88 bd
       0.11851505 -0.16511787 -0.016233997 -0.066724
000260 5f 65 db 3c 16 cd aa bd 37 b6 4d 3e 60 7e 4c be
       0.026781736 -0.08339898 0.2008904 -0.19970083
000270 2c ed 15 3e 25 bd e0 3d 1c 3d 08 3e 6f 57 6e be
       0.14641255 0.109735765 0.13304561 -0.23275541
000280 57 33 66 3e ac ea 3a 3c c9 7c 99 3c ab 21 51 be
       0.22480522 0.011408489 0.01873626 -0.20423
000290 70 5f 2b 3e 8e c2 f4 bd ab 8b a8 bc f4 bd 49 3e
       0.16735625 -0.11951171 -0.020574411 0.19701368
0002a0 30 18 02 bd 0f f5 e5 bd d8 92 27 be b7 f9 7b 3d
       -0.03176135 -0.11228382 -0.1636461 0.061517444
0002b0 d2 45 0f 3e c2 03 a1 3b 76 14 3f bd a6 76 60 bd
       0.13991478 0.004913778 -0.046650372 -0.054800652
0002c0 26 72 90 be 2c fa bd bb c4 c4 17 3d 8a 26 03 be
       -0.28212088 -0.005797645 0.037052885 -0.1280767
0002d0 8b 30 ce 3d 03 34 6a 3c ea 9e 33 3d e4 54 f7 bd
       0.100678526 0.014294627 0.043852724 -0.120767385
0002e0 b3 b8 0a 3e c7 54 24 3e 08 89 84 3d 52 ba ff 3c
       0.1354702 0.16047965 0.06471449 0.031216774
0002f0 7a 46 8a bc 89 7a 69 3c 3e a4 95 bd a5 0c 36 bd
       -0.016879309 0.014250406 -0.07306717 -0.044445653
000300 a1 7a 20 3e 43 7c e5 3c e6 a6 84 3d 41 69 5f 3c
       0.15671779 0.028013354 0.06477146 0.013635934
000310 17 fc 03 3e 35 4d 10 3e a3 e9 ae 3d f4 9f 95 3d
       0.12889133 0.14091952 0.085406564 0.07305899
000320 87 39 82 3c d3 59 1f 3e d5 57 5a 3d d6 6b f3 3c
       0.015896572 0.15561609 0.05330642 0.029714506
000330 4c 02 25 bc cf 81 42 3b 94 fc 90 3c c9 87 9b 3d
       -0.010071348 0.0029679423 0.017698564 0.07594258
000340 7a 7b b1 bb 2d df fa bc d6 cc 20 3e 04 1e 01 3e
       -0.005416331 -0.030623997 0.15703139 0.12609106
000350 2b 03 16 be 3c 1a 10 3d a3 27 16 3d a0 bb b2 3c
       -0.14649646 0.03518127 0.036658894 0.021817982
000360 49 3e c1 3c d1 9a 3c bd 46 24 d9 3d f2 dd f3 3d
       0.02358927 -0.046046082 0.10602622 0.11907567
000370 60 bc c8 3c 86 ce 1c 3e eb 6c 12 3d 0f 73 97 3d
       0.024503887 0.15313157 0.035748404 0.073949926
000380 99 23 22 3e ed 96 8d 3d 92 19 c4 3c d9 5e d8 3c
       0.15833892 0.069135524 0.023937974 0.026412414
000390 18 79 1a 3d 0c 4a b2 3c 0c 23 89 bd 75 c9 4e 3e
       0.03771314 0.021763824 -0.06696138 0.20194037
0003a0 4f 08 8a 3d 97 6c f9 3d 42 2d 00 3e 26 0e ac 3d
       0.06739866 0.12178915 0.12517264 0.08401136
0003b0 8d b4 91 3d 6e 30 26 bd 22 c1 a9 bd 32 47 b3 bd
       0.071145155 -0.04057353 -0.0828879 -0.08753814
0003c0 5e 66 08 3e e0 fc b2 bb af eb 70 3c aa fe 90 bd
       0.133203 -0.005462274 0.014704629 -0.07079823
0003d0 f0 4e 8e bb 34 eb 8c bd 13 5f 17 bd 34 18 9a 3d
       -0.004342906 -0.06880799 -0.036955904 0.07524148
0003e0 6d 78 7d 3d 74 8c 0b 3e 52 fe f6 bb 98 63 99 bc
       0.061882425 0.13627797 -0.0075376416 -0.018724248
0003f0 fb 7e 03 bd 2a 54 79 bd 89 26 94 3c 96 ef 6e bd
       -0.03210352 -0.06087128 0.018084781 -0.058333956

lstm.weight_hh_l0 f4 [256, 64]
000000 0e 45 46 3d 76 8e 69 3a f0 d7 20 3d 3d d9 2c 3d
       0.0484057 0.0008909473 0.039268434 0.042199362
000010 f4 a4 9e 3c 9e b7 4d 3b ca 9a 08 3d 3e 61 3f 3a
       0.019365765 0.0031389962 0.033350743 0.0007300562
000020 2f bc f6 ba d2 8e 9f 3c 6d 03 97 bc bb eb 4d 3c
       -0.0018824394 0.019477282 -0.01843425 0.01256841
000030 5e 39 26 bd 07 e7 ad bd cf 8a 30 3d 46 7d 2e bd
       -0.040582053 -0.084913306 0.04310113 -0.04259994
000040 e0 18 63 3d ac dc ac bc d0 37 7b 3d e5 ae 4f 3a
       0.055443645 -0.021101318 0.061332524 0.00079224847
000050 31 ea 87 bd 74 42 01 ba 2c 76 8f 3c 28 79 4c 3c
       -0.06636465 -0.0004930862 0.017512403 0.012480058
000060 70 47 e7 3b 98 58 d5 3b ce 56 7d 3c e0 ae 21 bc
       0.0070580766 0.0065108053 0.01546259 -0.009868354
000070 61 51 16 3b c2 1d 08 bb f6 48 0f bd 90 a7 b1 3c
       0.002293669 -0.002076969 -0.03498169 0.021686345
000080 0a 7d 7b 3b 95 42 bf bc ee 18 d1 bc 75 dc ea 3b
       0.003837409 -0.023347178 -0.025524583 0.007167394
000090 74 be 08 bd 2d 40 27 bd 9b 2b 54 3d 6e bf 63 bb
       -0.033384755 -0.040832687 0.051799398 -0.0034751552
0000a0 e3 99 26 bd db 44 f4 bc 2a 36 dc bc 03 5f 1f bc
       -0.0406741 -0.02981799 -0.026881296 -0.009727242
0000b0 29 c1 9d 3c 88 e5 2b 3c a0 0c 93 3b be e7 78 bd
       0.019257145 0.010491736 0.004487589 -0.06076788
0000c0 b5 13 79 bd 11 b2 15 3d aa d3 10 bd 3b b1 ba 3c
       -0.06080981 0.03654677 -0.03535811 0.022789588
0000d0 f5 c4 fb bb af 81 ae bc e1 63 70 3d cd e1 2e bb
       -0.007683391 -0.021302072 0.058689002 -0.002668488
0000e0 a7 dd e5 bc 92 de a1 3c ce 54 9c 3d 9b 43 fc 3c
       -0.028059794 0.01975945 0.07633363 0.030793956
0000f0 63 35 32 3d b5 b2 a7 3d a9 04 e4 bc c0 00 0f bc
       0.043507945 0.081883825 -0.027834253 -0.008728206
000100 6f 63 02 38 19 cb 9c 39 61 f4 70 3a 3c 93 bd 39
       3.108702e-05 0.00029905958 0.0009191689 0.00036158587
000110 8c fb 1e b9 47 7e 40 3a 49 ba a1 ba 71 39 4d 3b
       -0.00015161763 0.00073430355 -0.0012338842 0.0031314755
000120 6d f4 70 ba 4c 20 3b ba 45 84 f9 ba 62 7e a4 3a
       -0.0009191696 -0.00071382965 -0.0019036612 0.0012549872
000130 c7 57 6d bb ab 57 13 bb d8 88 f2 39 66 a2 f3 b9
       -0.003621565 -0.0022482674 0.00046259793 -0.00046469568
000140 b1 2b c4 3a 05 f1 76 bb c6 3a 03 3a 74 4d ca 3a
       0.0014966634 -0.003768028 0.00050060113 0.001543446
000150 01 a1 89 bb 15 8a 09 ba f6 e1 1f ba e3 5c b3 3a
       -0.0042001014 -0.0005246711 -0.00060990395 0.0013684299
000160 9e 58 81 3a f1 82 7c 3b eb d1 2d 3a 46 f0 08 ba
       0.0009868329 0.0038530196 0.00066307065 -0.0005223792
000170 6f 2b 54 3a b9 e0 1a 3b fc 4c 30 3a a8 31 6a 38
       0.00080936303 0.002363248 0.0006725339 5.5836193e-05
000180 7a cd 06 3a 3b af b9 ba c7 a6 c9 ba 21 d5 3a 39
       0.0005142313 -0.0014166603 -0.0015384787 0.00017817739
000190 92 49 05 3a a2 d0 3c ba 09 38 5a 3b 7e f6 f6 39
       0.000508451 -0.00072027196 0.003329756 0.00047104427
0001a0 8c 26 2f ba ab 8d 0e bb 28 66 13 ba fc cd ff 38
       -0.0006681464 -0.002175192 -0.00056228274 0.00012197715
0001b0 79 07 57 3a 14 20 fc 3a d0 ce 8a 3b bc 93 45 bb
       0.00082027126 0.0019235634 0.0042360798 -0.003014787
0001c0 e1 fd 88 39 d3 b3 07 bb 7b 60 24 bb 84 1d e9 3a
       0.00026129096 -0.0020706549 -0.002508192 0.0017785286
0001d0 62 90 24 ba 6b 97 2a bb e2 fb fd 39 ce ec ff ba
       -0.0006277618 -0.0026030194 0.00048443588 -0.0019525529
0001e0 81 5f 9f 3a e4 31 99 39 82 8d 8b 3a 4e fe 30 3b
       0.00121592 0.00029219605 0.0010647031 0.0027007046
0001f0 58 86 fb 3a f7 35 27 3b cc 9a 4c ba 99 40 a4 ba
       0.0019189818 0.0025514343 -0.0007805049 -0.0012531459
000200 e0 65 15 3c b6 8f 97 39 01 13 10 bd fb 72 2d bc
       0.009118527 0.00028908037 -0.035174374 -0.0105864955
000210 f9 89 75 3c fe 39 f3 3c 6e 58 b8 bc 67 86 30 bc
       0.0149865085 0.029690739 -0.022503104 -0.0107742315
000220 cf 30 23 3c 69 b6 d1 3b 56 b9 85 bb e3 b1 d6 ba
       0.009960367 0.006399919 -0.0040809317 -0.0016379919
000230 69 32 70 bd 62 a2 0c bb ce 2a b1 3c 74 8c a6 bc
       -0.058641825 -0.0021459092 0.021626856 -0.020330645
000240 58 a9 2e bc 9c 5c c6 ba 63 d4 04 3c f1 e8 2a 3c
       -0.010660492 -0.0015133801 0.008107278 0.010431514
000250 ac ca a3 bc a2 71 05 bd ba 79 54 bd 85 d6 d6 3b
       -0.019994102 -0.03257907 -0.0518739 0.0065563344
000260 1b 6c 08 bc 54 55 b2 3c 76 12 27 bc d9 65 91 bb
       -0.008326556 0.021769203 -0.0101972725 -0.00443719
000270 92 8e c0 3c c3 a9 ff 3c 57 f0 19 3d 01 84 92 bc
       0.023505483 0.031208878 0.03758272 -0.01788521
000280 86 31 c6 bb 67 fa 1e 3c 0c 95 a9 bc 5d 08 b8 3a
       -0.006048384 0.009703255 -0.020700954 0.0014040578
000290 5f a6 b0 3a b1 9c 5c bc 70 26 4e bd 6f c0 16 3c
       0.0013477317 -0.0134650925 -0.050329626 0.009201153
0002a0 9d 74 02 3d 94 58 29 bb 5a d3 47 bc dd d2 85 bd
       0.031849492 -0.002584015 -0.012196386 -0.065343596
0002b0 36 93 8d bc df d4 82 3c a1 93 29 3d 32 fd 9c bc
       -0.01728211 0.015970645 0.041400556 -0.019163702
0002c0 54 30 d8 bc 8b 30 fc 3c 41 9e 2f bd 8e 19 b1 3c
       -0.026390232 0.030784866 -0.042875532 0.02161863
0002d0 fc 9e 09 ba 55 a1 dc bb 1c f4 01 bb 06 25 ad bb
       -0.0005249826 -0.0067330995 -0.0019829338 -0.0052839546
0002e0 54 0a a7 bb df f6 b8 3c 97 ab bf 3b d2 ff 1b 3d
       -0.0050976668 0.022578655 0.0058493125 0.038085766
0002f0 31 19 19 3d 5c 40 af bc c8 37 68 bd 51 0e b5 3c
       0.03737754 -0.021392994 -0.056693822 0.022101553
000300 10 59 81 3b 54 b0 dd b9 21 96 ad 3a e2 30 0e bc
       0.0039473847 -0.0004228378 0.0013243594 -0.008678647
000310 d8 ef b4 3b b4 b9 87 bb 74 b2 e5 3a 75 69 d2 3b
       0.0055217557 -0.0041420106 0.0017524497 0.006421263
000320 92 ef f5 ba 54 87 23 3a ac 71 59 bb 38 09 c4 3a
       -0.0018763414 0.0006238122 -0.0033179326 0.0014956361
000330 07 f9 c1 bb 19 0a 39 ba 14 e6 bd 3a a7 2e 7e 3b
       -0.005919579 -0.00070586946 0.0014488124 0.0038785131
000340 50 17 6e 3b 28 99 f1 bb f3 3f 36 bb 60 1d fc ba
       0.0036329813 -0.007372994 -0.0027809113 -0.0019234829
000350 f8 c6 04 3b 22 d0 d8 3a 46 fb b5 3b d1 7e ba 3b
       0.0020260196 0.0016541521 0.005553636 0.005691387
000360 f3 60 95 39 9b 79 09 3b 0d 46 0f bc 72 df 53 3b
       0.00028491727 0.0020977024 -0.008744729 0.0032329229
000370 63 7b c6 ba 4a bc 97 ba 4c 27 1d bb 98 65 05 3c
       -0.0015142973 -0.00115765 -0.0023979722 0.008141898
000380 77 8c ad bb 45 52 7d bb 8a fa bb 3a 10 c7 b1 3b
       -0.0052962857 -0.0038653773 0.0014341634 0.0054253414
000390 e8 1e 92 bb 16 25 96 39 3d 3b 36 3c ec 9f 27 bb
       -0.0044592507 0.0002863786 0.011122522 -0.0025577499
0003a0 56 86 9a 3b 4a f9 38 3b 0a 6a 42 3b 27 00 c4 3b
       0.004715721 0.002822476 0.0029665255 0.0059814635
0003b0 97 cf 59 3b ca 4a 5a 3b 6c 8c c0 3b 40 ea 9a bb
       0.0033235305 0.0033308738 0.0058761146 -0.004727632
0003c0 b1 22 2c 3c 5d a4 b1 3b 58 0e d8 bb d6 c2 d4 3a
       0.010506318 0.005421205 -0.006593507 0.0016232382
0003d0 84 41 62 3b c6 4a b0 ba 0c d9 e4 ba e9 74 37 b8
       0.0034523914 -0.0013450019 -0.0017459705 -4.373948e-05
0003e0 7a 44 c1 3b 28 08 04 bb 33 b2 ce bb 31 cd 54 3a
       0.0058980556 -0.0020146463 -0.006307864 0.0008117734
0003f0 ff ad 7c ba 21 ad d5 39 14 cc bd 3a 5c fd 38 bb
       -0.00096389645 0.00040755517 0.0014480376 -0.0028227186

lstm.bias_ih_l0 f4 [256]
000000 a5 9a 64 3d a3 28 06 3d 3f 76 14 bd ac d0 e2 3b
       0.055811543 0.032753598 -0.03624558 0.0069218483
000010 c0 2c 3d 3e de 32 20 3e dc 49 dd 3d a9 b5 37 bd
       0.18474102 0.15644404 0.10805103 -0.04485098
000020 80 13 ae 3d 7b 45 8b 3e 9f eb 29 bd 7b 20 30 bd
       0.08499813 0.27201447 -0.04148447 -0.042999726
000030 76 ef 02 bd b3 b4 d6 bc 60 5e c7 bc 2d 64 df 3d
       -0.03196665 -0.026209211 -0.024336994 0.10907779
000040 f4 27 14 bd 3f de 50 bc 25 0b 0d 3e 95 78 20 3b
       -0.036170915 -0.0127483 0.13773783 0.0024485935
000050 16 3c 62 3d de f4 f0 3c c3 ba 5d 3d f3 18 85 3d
       0.055233084 0.029413637 0.054133188 0.06498899
000060 8f 6c 1e 3c 34 c9 26 3d 88 2f 9e 3d c2 f5 5a 3e
       0.009669437 0.040719226 0.077239096 0.21382812
000070 20 fa 36 bc e9 a1 ff 3d 22 ab aa 3c 51 76 55 3e
       -0.011168033 0.12482054 0.020833556 0.20845915
000080 10 f9 b6 3e e1 ba fc 3b a8 6b 4f 3c f7 5a 28 3e
       0.35736895 0.0077127074 0.012659945 0.1644095
000090 cd 2e 70 3d 36 3f 85 3d 98 61 0e 3e 8f 85 06 3e
       0.058638383 0.06506197 0.13904417 0.13136886
0000a0 f5 e1 5a bc c2 0a 98 3d 80 f4 04 3e 35 b1 f8 3d
       -0.013359536 0.07423927 0.12983894 0.121431746
0000b0 52 83 8f bd 9d 8f 87 3d f9 bf 94 3d 89 ed 69 bd
       -0.07007469 0.06619189 0.072631784 -0.057111297
0000c0 b2 4f 70 3e 74 9f 0b bd ed a0 63 3d cd 63 41 3d
       0.23467901 -0.034087613 0.055573393 0.047214318
0000d0 51 66 e5 3d 1e 97 d3 bc a3 27 1d 3c a3 06 62 bc
       0.11201156 -0.025828894 0.00959197 -0.013795528
0000e0 24 8e b1 3d 57 6e 05 3d 33 cd 63 3c 10 4c 34 3d
       0.08669689 0.03257593 0.013903904 0.04401785
0000f0 89 63 c3 3c af c7 50 bc 99 1a 37 3d 11 6e 26 3c
       0.023851173 -0.012742921 0.0447031 0.010158078
000100 9a 0e 6a bd 3a e6 43 3b ef 84 c9 bc 6a 76 f5 bc
       -0.05714283 0.0029891864 -0.02459952 -0.02996369
000110 18 90 7c 3c d6 61 90 3d 10 f1 71 bd 77 2e 87 bd
       0.015415214 0.07049911 -0.059067786 -0.06600659
000120 4c 25 54 bd c7 73 0c 3d 4c fe 98 3d 77 9e 72 bb
       -0.05179338 0.0342901 0.07470378 -0.0037020722
000130 79 fa 0f bd c4 f1 9e bd b4 90 6d 3c 94 04 0c 3e
       -0.03515098 -0.07760957 0.014499832 0.13673621
000140 b6 85 a6 bd 38 c1 b2 3d ee 33 d5 3d c2 16 d9 3c
       -0.08130972 0.0872826 0.104102954 0.02650011
000150 dd 3c af 3d a5 9e 02 3d 7f bd 6f bd f5 5a b8 bc
       0.085565306 0.031889576 -0.058530327 -0.02250431
000160 66 29 be bc 09 cc 42 bc 77 68 2c 3c e6 56 4b 3d
       -0.0232131 -0.011889466 0.010522953 0.04964342
000170 7b c6 81 3b da b2 7d 3d 62 8b 49 bd 82 8c c6 3d
       0.0039604283 0.061938144 -0.04920519 0.096947685
000180 17 ee 9e 3b 66 89 8a 3d f4 ab db 3d e7 50 68 bd
       0.00485016 0.06764488 0.10726157 -0.05671778
000190 7a 5d 82 bd 57 bf 77 3d 42 2e fe 3d c7 08 9a 3c
       -0.063654855 0.06048521 0.12411167 0.018803013
0001a0 6b bc 9e 3c 97 a3 ea 3b bc 90 ce bc f6 09 83 3d
       0.019376954 0.0071606147 -0.0252155 0.06398384
0001b0 7f 34 25 3d 17 d8 ae bd 88 b3 4f bc 1c c0 52 bd
       0.040333267 -0.085373096 -0.012677081 -0.05145274
0001c0 3f 2b 92 3d a1 b2 b0 bd 68 f1 a8 bd 79 ed 83 bd
       0.07137155 -0.08627821 -0.082491696 -0.06441779
0001d0 7e e6 dc 3c eb c4 0d bd 06 6e 13 bb 2e ef 03 bd
       0.026965376 -0.034611624 -0.0022496 -0.03221052
0001e0 f2 a3 8b 3d f3 70 ae 3d b3 aa 17 3d f5 3d a4 bc
       0.068183795 0.08517637 0.037028026 -0.020049075
0001f0 b5 a6 8f 3d 56 fe 8f bd c4 19 2c bd 9e 95 8c bc
       0.07014219 -0.070309326 -0.04201676 -0.017161187
000200 0e 1f f7 bd 71 bc c5 3d c1 50 88 3d 68 6e 2f 3d
       -0.1206647 0.09655083 0.066560276 0.0428299
000210 28 3b 77 3d 5f 3b a0 3d 47 dd 15 bd 6b 94 54 3d
       0.06035915 0.07823824 -0.03658798 0.051899355
000220 7b 7b 08 bd b9 ab 4b bc 83 13 e6 bd 29 64 ba 3d
       -0.033320885 -0.012431079 -0.1123419 0.09101135
000230 62 20 e9 bd 4d 97 da bc b5 1e 5b 3d 03 cb fc bc
       -0.1138313 -0.026683474 0.05349608 -0.030858522
000240 47 b9 85 3c 57 14 07 be 3b 75 9f bd 99 f8 c3 3d
       0.016323699 -0.13191353 -0.07786032 0.095689006
000250 d4 9e 0f 3c c9 ad 29 3d fd 38 0f bd 17 95 00 3e
       0.008765895 0.0414255 -0.034966458 0.12556873
000260 5f 90 ac 3d 48 65 94 3d 52 30 e8 bd 63 93 93 3c
       0.08425974 0.0724588 -0.11337341 0.018014615
000270 2d 34 93 3b c7 41 06 3d 9a 1e c9 3d a2 fc 02 3e
       0.004492304 0.032777574 0.0982029 0.12791684
000280 e1 0c 22 3d 92 6f 9e bd d6 f7 01 bd 03 89 be 3c
       0.039563064 -0.07736124 -0.031730495 0.023258692
000290 09 30 9a bd 09 47 3e 3d 72 f0 c0 3d 8c b4 d4 bd
       -0.07528693 0.046454463 0.09420861 -0.10385999
0002a0 20 9d 28 bd 1f 31 6e bd bb 1d da 3c a4 52 3b 3d
       -0.04116547 -0.058152314 0.026625505 0.04573311
0002b0 78 ae 8d 3d 49 d5 98 3c 63 63 c6 3d da e5 e4 bd
       0.06918043 0.01865639 0.09686925 -0.11176653
0002c0 b5 f9 7a 3c 83 53 c5 bc 96 a8 98 bd 47 54 0b 3e
       0.015318324 -0.024087673 -0.0745403 0.13606368
0002d0 d0 8a 78 3d 22 cb 0d be f9 dc e4 bd 1a ee 58 bd
       0.060679257 -0.1384702 -0.1117496 -0.052961446
0002e0 23 da 43 bb f6 85 25 3d e9 af 25 3d 1c b3 d8 3d
       -0.0029884658 0.04041096 0.040450964 0.105810374
0002f0 f6 c6 4f bd 2f 9d a0 3c 14 41 40 bd 51 b1 4a bd
       -0.050726853 0.019606201 -0.046937063 -0.04948551
000300 97 7a 44 3d 52 e6 06 3d 04 cc 89 bd de 7a 06 3d
       0.047968473 0.032934494 -0.06728366 0.03283202
000310 24 26 41 3e 6d 15 9c 3e 12 30 87 bc 07 23 8e 3d
       0.18862206 0.30485097 -0.016502414 0.06940275
000320 79 ca 0f 3d 35 b9 d4 3d 51 bf ac 3d 7f a3 1d bc
       0.035105202 0.10386888 0.08434928 -0.0096215
000330 dd dc 80 bb d6 eb 62 3a 6c 2c e7 3d ff 67 21 3e
       -0.003932579 0.0008656358 0.1128777 0.15762328
000340 7d 57 25 bc af 29 fe 3c 1f 8b 6f bc 2e bf 7b 3d
       -0.01009166 0.031025736 -0.014620571 0.06146162
000350 1a 2c ff 3d dd 5d b7 3d d5 7c b1 3c fd 83 75 3c
       0.124595836 0.0895345 0.02166597 0.014985082
000360 99 df 72 bd 7d 6e 11 bd 0b 32 48 3d 93 6b 3a 3e
       -0.05929527 -0.03550576 0.04887585 0.18205099
000370 ae d0 d9 3d e2 06 6c 3a a9 a4 fc 3c ce a8 52 3e
       0.106355056 0.0009003711 0.030840235 0.20572206
000380 4a 0f 92 3e d6 5b 57 bd 69 88 87 3d b7 e4 6e 3d
       0.2852729 -0.052577816 0.06617815 0.05832359
000390 5d 99 97 3b 19 e4 4c 3d 72 bc 35 bd 00 36 a5 3d
       0.0046264366 0.05002222 -0.04436917 0.0806694
0003a0 08 75 0d bd e2 9f ec bb 80 48 a0 3d 32 2e 53 bc
       -0.034535438 -0.007221208 0.07826328 -0.012889432
0003b0 51 87 9a bd 1c f5 c8 bc ee 98 f9 3d b9 e0 7e bc
       -0.07545341 -0.02453094 0.12187372 -0.015556508
0003c0 8d fa e3 3d f4 00 aa bc a5 62 bb 3d be 78 60 3d
       0.11131773 -0.020752408 0.09149674 0.05480265
0003d0 8e 84 a1 3d 46 d0 ed 3d 08 95 ff 3c 35 5c ee 3c
       0.07886611 0.11611991 0.031198993 0.029096702
0003e0 c8 02 02 3e 33 d9 a3 3d 47 52 1d bc 16 b3 92 3d
       0.12696373 0.08000412 -0.009602136 0.07163064
0003f0 00 08 6b 3d c9 f6 6e bd 3d af af 3d 5a e1 ec bc
       0.057380676 -0.05834082 0.08578346 -0.02891605

lstm.bias_hh_l0 f4 [256]
000000 38 b2 2e bd 4c 04 08 3d 6e b6 70 bd c1 a3 e7 3a
       -0.04265043 0.033207223 -0.05876773 0.0017672704
000010 10 95 f9 3d 9c c1 6c 3e dc e6 4a 3b 46 0f 99 3d
       0.121866345 0.23120731 0.0030960357 0.07473616
000020 5f aa 08 3e 05 13 b3 3d d1 5c b7 bd 07 b8 88 bd
       0.13346241 0.08743862 -0.0895325 -0.066757254
000030 9d 7d eb 3d df 75 9a 3b 12 c2 60 bc bc cb 10 3e
       0.11498568 0.0047137584 -0.013718145 0.14140218
000040 aa cc ff 3c 56 4b 5b 3d 24 47 e0 3d a6 f8 df 3d
       0.031225521 0.053538643 0.10951069 0.10936098
000050 a0 c8 08 3e b5 f8 3b bb 16 b2 1a 3d 02 9f af bc
       0.13357782 -0.0028682176 0.037767492 -0.021438126
000060 45 66 a7 bc 9a 6d 6b 3d e0 b1 e6 3d b5 65 e5 3d
       -0.020434508 0.05747757 0.11264396 0.1120104
000070 84 5c 62 bb c5 85 5b bc c7 92 9b 3d 32 f4 27 3e
       -0.0034540007 -0.013398592 0.07596355 0.16401747
000080 12 e3 b5 3e eb a7 8d bd 8a ac 3b 3d eb a5 2e 3e
       0.35524803 -0.069167934 0.045818843 0.1705548
000090 64 81 f7 3d 5e cf 49 3b 7a 5b 1b bd cf 3e 17 3e
       0.12085226 0.0030793766 -0.037929036 0.14770053
0000a0 2b f4 59 3c 21 62 6c 3d 5f c9 fa 3d 26 6d d3 3c
       0.013302843 0.05771077 0.1224544 0.025808882
0000b0 06 0f 6e bb a9 ff 64 3d 46 b9 5c bd a3 2a 1d bd
       -0.0036324873 0.05590788 -0.053887628 -0.03837074
0000c0 8e 9e 44 3e b8 8e 2e ba 1f c7 80 3d 9a fe 7b 3c
       0.19201109 -0.000665884 0.06287979 0.015380526
0000d0 df 95 c1 3d d1 2c 67 3d 2a 69 94 3c 9b 86 a6 39
       0.09452414 0.056439225 0.018116552 0.00031762276
0000e0 6c 13 bf 3d f8 8f 09 3e d2 0e db bb bc 65 09 bd
       0.09329876 0.13433826 -0.0066851163 -0.033544287
0000f0 2d 25 e8 bb 4f 64 ca 3d e5 61 a2 3d 5c b8 ab bc
       -0.00708451 0.098824136 0.07928828 -0.020961933
000100 f2 7d 8a 3d d3 78 57 3b 38 c9 df bb fc a1 b8 bc
       0.067623034 0.0032878413 -0.006829407 -0.022538178
000110 ad b8 81 3c c1 42 a8 3d ff e7 eb 3c 1e 46 a0 bd
       0.01583513 0.08215857 0.028797148 -0.07825874
000120 38 39 4d 3c dd fb c7 bc 88 ce bb bd 2f 89 88 bd
       0.012525849 -0.02441209 -0.09170252 -0.06666791
000130 f7 3a d9 3b db 9a c2 3c 9f 45 0a 3c b9 7b 8f 3d
       0.0066293436 0.023755481 0.0084394505 0.0700602
000140 9a 87 00 bd 22 6b 75 bd e3 af 3d bc 27 e5 aa bd
       -0.03137932 -0.059916623 -0.011577579 -0.083444886
000150 2b 9d ad 3c 22 24 c1 3c e7 57 ca 3c 4b 77 7c bd
       0.021193108 0.0235768 0.024700118 -0.061637204
000160 5a c2 24 3d 59 30 1b 3e 17 8c b6 bc 2d aa 12 bd
       0.04022441 0.15155162 -0.022283597 -0.035806824
000170 6b c4 45 3c a3 73 d0 3c e6 db 9e bc 32 03 83 bb
       0.0120707555 0.025445765 -0.019391965 -0.0039981836
000180 cd ae 55 3d f5 bf 58 bd 18 6f ff bc 7d 2e 67 3d
       0.052168656 -0.05291744 -0.031180903 0.05644082
000190 84 0b f9 3c b4 86 1a 3d f8 cf 08 3e 77 20 da 3c
       0.030400999 0.03772612 0.13360584 0.026626809
0001a0 4a db f9 3c c4 af 7c 3d e7 4a 61 bd eb d5 a0 3d
       0.030500073 0.06169106 -0.055003073 0.078533016
0001b0 58 79 9d 3d 77 7a 00 bd d9 c0 da 3d 32 0e 19 bd
       0.0768916 -0.03136679 0.10681314 -0.037367053
0001c0 0d d3 1a bc 11 6f 92 3d ed 50 41 3d 43 d9 d7 3c
       -0.0094497325 0.071500905 0.047196317 0.026348716
0001d0 8b d0 2d bc 04 66 b0 3d 2f 1b 10 3d 35 7d 0b bd
       -0.010608803 0.08613208 0.035182174 -0.034054954
0001e0 ca 9a 8d 3b b1 7e 94 3d 24 80 25 3d e6 19 d1 bc
       0.004321431 0.07250727 0.040405408 -0.025525045
0001f0 45 9c db 3c fb 8d 60 bc bf 10 a1 3d 99 31 0d 3d
       0.026807914 -0.013705726 0.07864522 0.034471128
000200 dc e3 bc bc cb 79 f9 bc 7d 6b d6 bd e6 6e 20 bd
       -0.02305787 -0.030453583 -0.104697205 -0.03916826
000210 90 bf 80 3d 8d e4 27 be 72 ae cd 3c 64 45 0d 3e
       0.06286538 -0.16395779 0.025107596 0.13796002
000220 7c fb 7d 3d 56 7b 90 3d d9 e6 36 bd c1 dc 09 3c
       0.062007412 0.070547745 -0.044653747 0.008414448
000230 f3 55 05 be c2 33 ff bc aa 16 c1 bc e0 88 ad 3d
       -0.13021068 -0.03115261 -0.023570377 0.084733725
000240 63 23 95 3d 1a e4 b4 bd 28 19 f1 3c 43 de ad bd
       0.0728214 -0.088325694 0.02943094 -0.08489659
000250 4e a3 16 be d8 d5 33 bc 52 ca 68 bd 9c c3 61 3d
       -0.14710733 -0.010976277 -0.056833573 0.05511819
000260 5b bc c6 bb 53 dc 01 3e e3 e9 c0 3c a3 cf 1a 3d
       -0.006064934 0.12681703 0.023549026 0.037795674
000270 25 53 fa bb 31 87 0d 3d 92 dc 00 be cf 52 0b bd
       -0.007639306 0.034552757 -0.12584141 -0.03401452
000280 0f d1 ff bd 66 e4 81 bd c1 17 fb b9 ff d7 ed 3d
       -0.12491047 -0.06342392 -0.0004789215 0.116134636
000290 a3 7e 45 3d 1a 5c 1b bd 44 c9 2e 3d 4a 24 43 3d
       0.048216473 -0.03792963 0.04267241 0.04764203
0002a0 9f 56 a8 3c f8 23 85 bd 1a 4c b9 3c b1 12 b9 3c
       0.020549117 -0.06501001 0.022619296 0.02259192
0002b0 4e 15 a4 bc e5 d3 fc 3d ca 88 f4 3d 1d 57 80 bd
       -0.02002969 0.12345103 0.11940153 -0.062666155
0002c0 4d b7 df 3d f5 fe de bd ac 43 b3 bd 38 ac 92 3d
       0.10923634 -0.10888473 -0.08753142 0.07161754
0002d0 1a 16 56 bc 68 80 86 3d 02 87 8d 3d 24 cd bd bc
       -0.013066793 0.0656746 0.06910516 -0.023169108
0002e0 be 53 92 3d a4 15 d8 bd 20 eb c3 39 7b 77 54 3d
       0.07144879 -0.105510026 0.0003736848 0.051871758
0002f0 1c 63 fe 3d 74 c5 04 3e 71 ae 88 3d 66 6d 37 bd
       0.12421247 0.12965947 0.06673897 -0.044782065
000300 bc 48 0b 3e c3 ef 08 3d 88 12 a1 3c 3c 4e b8 3d
       0.13601965 0.03343178 0.019662157 0.08999297
000310 d8 93 23 3e a2 82 4c 3e 82 d4 3a 3d ec d3 1e 3c
       0.15974367 0.19971707 0.04561282 0.009694081
000320 dc 06 ec 3c 06 da 42 3e 0e 39 f7 3a 70 ca 33 bd
       0.028811865 0.19028482 0.0018861608 -0.04389423
000330 ea 06 76 bd 3c 46 60 3d 47 e5 c9 bb fc 12 4f 3e
       -0.060065188 0.05475448 -0.006161365 0.20222086
000340 21 da e1 3d 93 30 d0 3d 65 43 d6 3d a0 d9 9d 3d
       0.11027933 0.10165515 0.10462073 0.07707524
000350 3d 8e dc 3d f8 95 db bb 2b 41 e8 3d 85 d3 e3 bc
       0.10769317 -0.0067012273 0.11340555 -0.027810821
000360 d7 ec 22 bd 54 96 e1 3b 03 13 11 3e fd cf 3a 3e
       -0.03977665 0.0068843756 0.14167409 0.18243404
000370 8e 88 72 3d 69 53 97 3d 88 b8 53 bd 65 ae b6 3d
       0.05921226 0.07388956 -0.051689655 0.08919982
000380 c9 c9 a9 3e cf 00 95 bc 04 9d 6c 3d c8 74 fa 3c
       0.33161762 -0.018188862 0.05776693 0.030573264
000390 77 f1 18 3e e2 40 e4 bb 23 96 b2 3d 28 0c 3a 3e
       0.14935862 -0.0069657424 0.087200426 0.181687
0003a0 5f 64 08 bd 51 20 a8 3d 48 2d c4 3d e7 60 8d bc
       -0.033298846 0.08209289 0.09578949 -0.01725812
0003b0 e5 05 b3 bc 2d 2e 9d 3d 87 f6 20 bc 57 97 82 3c
       -0.021853397 0.07674823 -0.009824402 0.015941305
0003c0 85 5d 5c 3e 4c 76 66 3d 9a cc 41 bd 2d 79 f7 3d
       0.2152005 0.05626516 -0.047314264 0.12083659
0003d0 c8 a9 eb 3d dd d4 64 3d b4 36 97 bc 3e da 3d 3d
       0.115069926 0.055867065 -0.018458702 0.04635071
0003e0 35 ba 01 3d aa eb 0f 3e 60 3d 67 3d 80 66 87 3d
       0.03167172 0.14054742 0.056455016 0.06611347
0003f0 b0 3a 3e 3c 56 e6 c0 3d 61 88 ca 3d a8 32 af 3c
       0.011610672 0.09418933 0.098892935 0.02138646

lstm.weight_ih_l1 f4 [256, 64]
000000 ea ee a7 3b b8 21 fa 3a 26 94 96 3b e8 92 7d 3b
       0.0051249163 0.0019083535 0.0045952974 0.00386923
000010 19 cc 8c bb ec 3e 1b 3c f2 1b e6 3b 5e 92 e1 39
       -0.0042967913 0.009475451 0.0070223743 0.00043024396
000020 c8 3f fa bb b3 7a 38 bc a5 21 c1 b8 a2 f4 cd 3a
       -0.007636998 -0.0112597225 -9.209224e-05 0.0015713165
000030 ab 16 77 3b 34 b1 2f bc 49 12 ce 3b 60 41 fe bb
       0.003770272 -0.010723401 0.006288801 -0.007759258
000040 bd 8d 1f bb 0f d7 51 3b f6 b8 b3 3b e5 5d 6d 3a
       -0.0024345957 0.0032019054 0.0054846955 0.0009054824
000050 a2 7d af 39 6a b7 b0 bb c0 e5 6b bb bb b5 6a 3b
       0.00033472205 -0.0053929584 -0.0035995096 0.0035813886
000060 fc 3f a6 b9 81 50 03 3b 69 29 0e 3c 8d 19 c6 bb
       -0.0003170966 0.0020036998 0.008676865 -0.0060455264
000070 1b 00 86 3b e2 cd 0e bc 54 2e 0a 3b b6 d3 4d bb
       0.004089368 -0.0087160785 0.0021084743 -0.0031406707
000080 fe 67 3a 3c 88 d9 25 3b ae 8a e1 3a c5 72 91 ba
       0.011377333 0.002530666 0.0017207467 -0.0011096826
000090 80 ce 3c 3b 6b 45 68 bb a1 28 81 3b f3 87 f7 3b
       0.0028809607 -0.0035441767 0.003941611 0.007554048
0000a0 fe 1b a8 b9 8e 8f 07 3c 2f 14 a1 bb a3 16 4b 3c
       -0.00032064313 0.008273972 -0.004915736 0.012395534
0000b0 e6 40 a9 39 aa c1 82 bb f8 18 32 ba 01 89 e7 bb
       0.00032282545 -0.0039903717 -0.0006793882 -0.0070658927
0000c0 9b 4f 1e bc 29 a2 41 b8 d1 31 16 3b 63 0a 55 b9
       -0.009662534 -4.616581e-05 0.0022917876 -0.00020317132
0000d0 3c 04 5f 3b 8b 4b 6a 3b 2a 77 c8 3a 8d d4 c9 bb
       0.0034029623 0.0035750594 0.0015294303 -0.006159371
0000e0 7d fd 1a 3c b2 18 58 3b 4e c9 2e ba 5c ca b0 39
       0.00945985 0.0032973704 -0.000666757 0.00033720105
0000f0 55 24 5a bb 0e 5c 1f bc d6 58 45 3c 66 c8 7b 3a
       -0.0033285816 -0.009726537 0.012045106 0.0009604752
000100 dc ba 54 3d d2 79 0d 3c 32 bf e4 3c 42 67 02 3d
       0.051936015 0.008635001 0.0279232 0.031836756
000110 e8 9c 16 bd d4 dd 3e 3d 36 44 2a bd 8d d7 0b 3c
       -0.03677073 0.04659827 -0.041568957 0.008535278
000120 50 c6 ba bc fe a7 1a bd f9 03 20 bc 0e a4 1d 3b
       -0.02279964 -0.037757866 -0.009766572 0.0024054083
000130 e9 5d b4 3b e4 e7 03 3d fc ef 84 3c a0 d4 0f bd
       0.005504359 0.03220357 0.016227715 -0.035114884
000140 4d e9 96 ba 86 a1 ed bb da 5a 92 3c d0 a8 52 3d
       -0.0011513621 -0.007251921 0.017865587 0.051430523
000150 90 98 b8 3c 74 ed a0 bc b4 6d 0a bd 46 df 9e bb
       0.022533685 -0.019644476 -0.033796027 -0.0048483936
000160 62 9c a6 3c 7b f1 69 bc 86 6a 8f 3b 04 81 0a bd
       0.020338241 -0.014278765 0.0043767123 -0.033814445
000170 72 ec d1 3c 7d 27 91 3b d7 a0 60 3c 28 76 0e bd
       0.025625441 0.004429756 0.013710222 -0.03478065
000180 50 e7 5a 3d da e3 87 bb fd 33 b5 bb 72 3f c9 bc
       0.053443253 -0.004147035 -0.005529879 -0.024566386
000190 59 69 38 3d b7 72 b6 bc 00 b3 cb 3c 34 28 0c 3d
       0.045022342 -0.022271497 0.024865627 0.03421803
0001a0 bb f6 53 bc 58 ef 11 bd 96 6f a1 bc 28 1a 0c 3d
       -0.012937243 -0.035628647 -0.019706529 0.034204632
0001b0 3f 34 fd 3c e6 dc 9b 3b 25 23 97 3c 28 72 5f bd
       0.030908702 0.0047565578 0.018449375 -0.054552227
0001c0 ad 0f 14 bd 50 6d 9b 3c 32 ec 69 3c 00 e3 85 3b
       -0.036147762 0.018973023 0.014277505 0.0040858984
0001d0 bb ab 22 bb df a3 e6 bc ea 89 a1 3b 6e 3c d5 bc
       -0.0024821598 -0.028154312 0.0049297707 -0.026029792
0001e0 36 da 58 3d c7 fa e8 3c f6 6f 53 3d 68 5d 04 39
       0.052942477 0.028439892 0.051620446 0.00012623298
0001f0 fe 6e 20 bb 5d dc d4 bc 53 ed 96 bb ff f8 c6 bb
       -0.002448022 -0.025983984 -0.004605928 -0.006072163
000200 8b 66 22 3d d7 3d 13 3c de bf e4 3c 71 bd c7 3b
       0.039648574 0.008986912 0.02792352 0.006095581
000210 52 7e 0f bd fc d0 3e 3d 4b 44 1c 3c 3a 25 79 3c
       -0.035032578 0.04658602 0.009537767 0.015206629
000220 5f 64 a7 bc d8 40 1b bd c9 71 ad b9 b1 04 b9 3b
       -0.020433603 -0.037903637 -0.00033081908 0.005646311
000230 99 04 94 3b c5 00 b7 bc 14 43 91 3c 57 38 1c bd
       0.0045171496 -0.022339234 0.01773218 -0.038139667
000240 93 62 06 3d 74 07 19 bc d0 ff e4 3c 54 97 f5 3c
       0.03280885 -0.009340156 0.027954012 0.029979385
000250 ee ab 3b bb 93 9d bd bc 5b c3 77 bc 98 1f 92 39
       -0.0028636414 -0.023146426 -0.01512226 0.0002787083
000260 e7 5d 90 3b a5 2b ba 3c bb 80 fd 3c 6e e2 ff bc
       0.0044057253 0.02272589 0.030945173 -0.0312359
000270 bc 9f 7e 3c ea 3f 00 3d e1 9b f9 3c 99 14 17 bd
       0.015541013 0.031310953 0.030469837 -0.036884878
000280 2b ce 61 3d f6 86 25 bb f4 17 83 bc 5a da c3 bc
       0.055128258 -0.0025257445 -0.016002633 -0.02390783
000290 5b 30 14 3d 8b 49 b9 bc fb 89 26 bc 2a fa 08 3d
       0.036178928 -0.022618076 -0.010164733 0.0334417
0002a0 e8 68 ad bc fd 2d c6 bc a9 bd d0 bc 89 7b b5 ba
       -0.021168187 -0.02419185 -0.025481062 -0.001384602
0002b0 16 ab bc 3a a6 1a 1f bc 7d ae 01 bb ee a2 b3 bc
       0.0014394249 -0.009710943 -0.001978784 -0.021928277
0002c0 15 02 13 bd ef b0 02 bd df 6b a6 bc bb b2 28 ba
       -0.035890657 -0.03190702 -0.020315109 -0.00064353243
0002d0 88 76 42 39 6d b4 ef 3b b6 be 86 3c b1 04 8d bc
       0.00018545438 0.0073152096 0.01644836 -0.017214151
0002e0 88 58 ee 3c 85 e8 dd 3c e7 2b a9 3c 29 7f 79 39
       0.02909495 0.027088413 0.020650817 0.00023793861
0002f0 3f c9 be 3b 37 37 60 3c a0 40 74 ba fa 02 a7 bc
       0.0058223302 0.013685039 -0.0009317491 -0.020387162
000300 cc 0d 3c 3c 82 05 a2 3b 93 8a 7c 3c 41 34 44 3c
       0.011477899 0.0049445042 0.015413898 0.011975349
000310 81 6f b0 bb c4 81 5d 3c b7 4a 7a bc 94 e3 bf 3c
       -0.005384386 0.013519708 -0.0152766025 0.023423947
000320 02 d7 76 bc c4 e3 a3 bc 64 49 3d bc fa ad 21 3c
       -0.01506591 -0.020006068 -0.011553142 0.009868139
000330 67 2f b1 bb 14 9f c2 bc 6f fc 75 3c 7e 6a 3f bc
       -0.005407262 -0.023757495 0.015013798 -0.011683105
000340 b6 04 31 3b 3f a6 b3 bc f8 44 52 3c 87 96 92 3c
       0.0027010865 -0.021929858 0.012833826 0.017894043
000350 ea 1a e2 bc 9f 48 31 bc da 15 22 bc 9f 6a 5a 3c
       -0.027600724 -0.010820537 -0.009892905 0.0133310845
000360 30 99 a3 3b 9b 07 c1 3c 68 6f d2 3c ce 2a 36 bc
       0.0049926266 0.023563197 0.025687888 -0.011118604
000370 31 39 3a 3c 73 7c a6 3a aa e1 02 3c fc d1 05 bc
       0.011366175 0.0012701884 0.007988373 -0.00816774
000380 26 8d 82 3c b7 97 2e bc 93 4e d2 bb 66 df c2 ba
       0.015936445 -0.010656289 -0.006418058 -0.0014867603
000390 71 5c 38 3c f6 48 2b bc b5 53 68 3c 99 90 63 3c
       0.0112525085 -0.010454407 0.014180114 0.013889455
0003a0 31 e4 ce bb b9 fb d9 bc 46 d0 30 bc 80 dc 3c 3a
       -0.0063138236 -0.026609289 -0.010791844 0.0007204488
0003b0 83 bb 9a 3c 31 9b fd 3b 5c c4 64 bb cb dd 9b bc
       0.01888824 0.0077394475 -0.0034907078 -0.019026658
0003c0 b2 be 23 bc db ed 60 bc e3 fb b8 bb a9 de 2d 3c
       -0.009994196 -0.013728584 -0.0056452616 0.010612168
0003d0 c9 77 26 3b 18 8c 27 bc 8d 07 23 3c 66 e3 33 bc
       0.0025400987 -0.010226272 0.009950531 -0.010979509
0003e0 57 28 aa 3c f0 d8 15 3c c2 87 29 3b fc 58 83 3c
       0.020771189 0.00914596 0.0025868271 0.016033642
0003f0 e2 83 03 3c 86 fe af 3c 36 ff 96 bb bf e7 f4 bb
       0.008027049 0.02148367 -0.0046080602 -0.0074739153

lstm.weight_hh_l1 f4 [256, 64]
000000 e2 35 51 bb 1f 88 46 3d ca 48 52 bb e9 bc d1 3a
       -0.0031922986 0.04846966 -0.0032086843 0.0016001734
000010 39 87 0e bd 5d f2 23 3b c5 0c 15 bc f2 5e 26 3d
       -0.034796927 0.0025016286 -0.009097283 0.04061789
000020 56 11 50 bd fc 23 3c bc e4 11 a5 3c e9 e4 91 b9
       -0.050797783 -0.011483189 0.020150132 -0.00027827107
000030 34 b5 8b 3c fb 3d 10 3c 6f ba 10 bb 55 51 34 ba
       0.017054178 0.00880384 -0.002208378 -0.00068785745
000040 6d 25 78 ba b6 77 30 3c 68 de ec ba 0e 05 67 3b
       -0.0009466026 0.010770729 -0.0018071653 0.0035250816
000050 87 d9 e1 3c 7e 8e bc 3b de f6 9f 3b 4a 38 30 bc
       0.027569545 0.005754291 0.004881724 -0.010755608
000060 68 a4 b9 bb 12 59 54 bd dd 99 d8 ba 58 36 43 bb
       -0.0056653507 -0.051842757 -0.0016525347 -0.002978703
000070 a3 09 1c 3d 36 f7 a7 3c e5 01 17 3b 27 5a 3d bd
       0.038095128 0.020503622 0.00230419 -0.046228554
000080 86 11 cd bb e1 31 de bb cc d3 4c 3c 6b 7b 34 3d
       -0.0062581925 -0.0067808484 0.012501668 0.044063013
000090 a9 2c be 3b 0c c9 a7 3c d0 03 63 3d 23 8b 33 bc
       0.0058036637 0.020481609 0.055423558 -0.010958466
0000a0 93 2b 23 3d 35 f7 bd bb f0 6d 38 3c 50 15 2f 3c
       0.039836477 -0.0057972916 0.01125668 0.010686234
0000b0 e9 53 4f bc 07 9f 21 3d 6c 61 0f 3d d4 9e f1 bc
       -0.012654283 0.0394583 0.035005018 -0.02949468
0000c0 e1 14 df bb 6d ba 27 3d 6a 98 ce 3c 3e 63 98 bc
       -0.006807909 0.040949274 0.025219161 -0.01860201
0000d0 92 fc 55 bd 07 6f 6a bb b3 54 c6 3b d1 56 20 3c
       -0.052242823 -0.0035771744 0.0060525774 0.009786324
0000e0 77 e6 9c 3c 11 dd 1e bb 2b 62 58 ba 52 e8 00 3b
       0.019152863 -0.0024240653 -0.0008254374 0.0019669724
0000f0 af 44 80 3c aa dd c2 b9 9b ab c5 3c 99 0a af 3c
       0.01565775 -0.00037167716 0.02412968 0.021367358
000100 94 88 5d bc db 96 2e 3c 82 bd 97 bd d8 37 ca bd
       -0.013521332 0.010656084 -0.074091926 -0.098739326
000110 a0 a5 d8 3d c7 7f 82 3b 58 35 28 bb 92 00 33 bd
       0.105784655 0.0039825174 -0.002566656 -0.043701716
000120 24 6d be 3d 50 3c d3 bc ca 4f 8e 3b 38 cd 07 bd
       0.09298161 -0.025785595 0.0043430077 -0.033154696
000130 ee a1 5b 39 24 cb 05 3c 66 bb 88 bc 61 65 0c bc
       0.00020945791 0.008166108 -0.016690921 -0.0085690925
000140 3e af c7 bc e5 82 0b bc 2b 11 be bd c4 83 21 3c
       -0.024375554 -0.008515094 -0.09280618 0.0098580755
000150 43 32 be 3c 3e a2 81 39 a6 5a 9e 3c d6 5e c9 3d
       0.023217326 0.00024725677 0.019330334 0.09832542
000160 a2 71 11 3d 75 23 13 3d 44 00 6b 3c ca f9 da 3c
       0.03550876 0.035922486 0.014343325 0.026730437
000170 4b a4 b1 3c 57 93 2d 3d a4 df 1e bd ce 84 a0 bd
       0.021684786 0.042376842 -0.0387875 -0.078378305
000180 91 0b 37 bd c7 e5 35 3d 42 ca af 3d 96 40 a5 3d
       -0.044688765 0.044408586 0.085834995 0.080689594
000190 d9 a0 8a 3c 13 98 da 3c cc fe a4 bc bb 4b 9f 3d
       0.016922401 0.026683843 -0.020141028 0.07778116
0001a0 aa e3 3e 3d c1 f1 8a 3c 3d 8d 98 bd a9 55 5c 3d
       0.046603836 0.01696098 -0.07448814 0.05379263
0001b0 c7 6c ec bc 20 68 43 bd e1 53 ac 3d ad 18 ff bc
       -0.028860463 -0.047706723 0.08414436 -0.031139696
0001c0 89 16 5f 3c 43 6d 6f 3d 21 7c f5 bc 2a 1f b5 bd
       0.013616213 0.05845381 -0.029966416 -0.08843835
0001d0 c4 b5 a5 bb a6 ae 99 bd dd ac 1a bd 58 13 8c 3b
       -0.0050570685 -0.07504015 -0.03776251 0.004274767
0001e0 c3 0c 4d bb 3a 69 bc 39 19 be 68 3a d7 57 26 bc
       -0.0031288124 0.00035936554 0.00088784244 -0.010152779
0001f0 15 4f 4a bb 14 32 fd bc 7c 84 c5 bc 09 61 39 bd
       -0.003086989 -0.030907668 -0.024111025 -0.045258556
000200 d0 ca 9d 3c 02 4b bd bd cd 20 f2 3b 80 e3 be bd
       0.019261748 -0.09242822 0.007389164 -0.09320736
000210 42 ca b5 3d 90 dd ba 39 f1 c7 37 bb b4 55 8b 3c
       0.08876468 0.00035641761 -0.0028042758 0.01700864
000220 f4 4a 37 3d 7a 75 5c 3d 47 29 84 bd 14 9e 93 3d
       0.044749215 0.053822972 -0.064531855 0.072078854
000230 e2 77 dc 3c 2e 38 0e bd f9 e1 ca 3d 27 9b f0 ba
       0.026912633 -0.034721546 0.09906382 -0.0018356786
000240 6c 0b 8a bc 31 f8 96 3a 4d 38 47 3c 43 ff 2e 3b
       -0.01685115 0.0011518059 0.012159419 0.002670244
000250 b6 c6 44 bd 17 84 2b ba 2b 15 79 3b 1b ec bd 3b
       -0.048041068 -0.0006542815 0.0038007002 0.005795968
000260 79 58 a6 ba 24 25 b3 3c 5b ba 6d 3d 6a e9 14 3d
       -0.0012691162 0.021868296 0.05803905 0.036355413
000270 96 94 d2 bc 00 cf 9f bc cd db d6 3c 7f 1f 8c bc
       -0.025705617 -0.019507885 0.026227856 -0.017104862
000280 6e ad e1 3c 8f ee 9d 3c 7b 62 b2 bc 1e 22 86 3d
       0.027548518 0.019278793 -0.021775475 0.06549476
000290 70 cf 72 3c 2c 8f 91 bb f3 30 0e 3b f0 84 88 bb
       0.014819965 -0.0044421162 0.0021696656 -0.004166238
0002a0 c5 86 40 3d e1 42 33 3d d7 29 b4 3b 83 3d 57 3d
       0.047003526 0.043764953 0.0054981518 0.052548897
0002b0 e6 91 af 3c 88 21 b3 3c 99 cc 4c 3c ce 19 52 3c
       0.021431874 0.021866575 0.012499952 0.012823535
0002c0 00 83 63 bc 9c 6c ad bc c0 61 87 3d eb 1c b6 bc
       -0.013886213 -0.021169953 0.06610441 -0.022230586
0002d0 de 33 53 3d 8b f9 82 bd fb 9f 8e 3c 66 72 20 3b
       0.051563136 -0.06395253 0.017410269 0.002448225
0002e0 24 4f 0c 3b 8d 8c b4 3d 43 0d 9d b8 4e 1e 46 bc
       0.0021409476 0.088158704 -7.4888136e-05 -0.012092186
0002f0 a7 77 5d 3d 01 e0 f0 bc 2f ac a2 bc 22 64 d7 3c
       0.054069187 -0.029403688 -0.019857494 0.026292864
000300 ed 2f ab bb 93 4f 74 3c 58 69 c2 bd ab 1b 16 bd
       -0.005224219 0.01491155 -0.09492749 -0.03664748
000310 1c 25 2b 3c 18 b6 24 bc c5 6c 84 bc 74 4c 63 3d
       0.010445859 -0.01005318 -0.016165147 0.055492833
000320 ce 0e 87 3d 5a d5 b5 bc 50 8f 3f bc 0e 4c e1 3d
       0.06594621 -0.02219646 -0.011691883 0.110008344
000330 71 bc 81 3d 06 bc 66 bb b7 0c 91 3d 87 8f d1 bc
       0.063347705 -0.0035207286 0.07082503 -0.025581134
000340 a8 52 fc 3a bd 81 c2 3c f1 1e 84 bd 85 2b 70 3c
       0.0019250708 0.023743505 -0.06451214 0.014658813
000350 98 5f 0a 3d 82 11 60 3b ca 52 8f bd 1b 5f aa 3c
       0.03378257 0.0034190123 -0.06998213 0.020797303
000360 90 cf a4 3b 03 3e ae 3c 82 18 9b 3d e2 1e 13 3d
       0.005029626 0.021269804 0.07573034 0.035918124
000370 48 e2 8a bd c0 20 90 3c 3f 73 96 bb 5d a8 76 bd
       -0.06781441 0.017593741 -0.004591375 -0.060219157
000380 59 1d 5f bd 28 f1 52 bc d6 e8 b6 3d 63 44 8e 3c
       -0.054471347 -0.012874879 0.08931129 0.017366594
000390 f7 8f 9e 3c 46 65 bc 3d 40 b3 c1 3c 78 f9 e2 3c
       0.019355757 0.09199004 0.023645043 0.027706847
0003a0 48 18 b5 bd a3 b6 9a 3d 02 2a cf 3c 8e 72 fe bc
       -0.08842522 0.075543664 0.025288586 -0.031060483
0003b0 6b 0d 10 bc a8 83 e6 bc 43 5c e8 3c 15 1c f2 3a
       -0.008792262 -0.02813895 0.028364306 0.0018471504
0003c0 73 66 fc ba 25 d6 72 3c ef 10 c2 3d 7f 89 38 bd
       -0.0019256606 0.014821564 0.09475886 -0.045053
0003d0 b0 a1 36 3d 65 9c 9a bb 1f d0 1f bc b9 a6 15 3c
       0.04458779 -0.0047183507 -0.00975421 0.009133988
0003e0 2c 2f 08 3d 79 0f d5 3c 04 82 e2 ba 0c 29 36 bc
       0.03324811 0.026008354 -0.0017281179 -0.011118185
0003f0 ec 8c 71 3c 2d 83 4b bc 0e 89 0d bd 2f 71 58 3d
       0.014743071 -0.012421411 -0.034554534 0.052842315

lstm.bias_ih_l1 f4 [256]
000000 98 cd f6 3c 66 a5 02 3d bf 85 ab 3d 4d 4d a3 bc
       0.030127332 0.031896017 0.083751194 -0.01993432
000010 39 58 2f bc 9f 74 87 3b ee 40 1a 3d 69 42 3c bd
       -0.010702186 0.0041337754 0.037659578 -0.04596177
000020 df c4 7c 3c c9 f9 1c bc 54 fe 00 3e 56 5b 82 3d
       0.015427797 -0.009581038 0.12597018 0.06365077
000030 7f 61 d6 3c 0f 82 6f 3d 99 de 50 3c a5 11 10 3d
       0.026169537 0.058473643 0.012748384 0.035173077
000040 bd 77 21 bd 2f a0 5a 3d 37 ec f1 3d 1e 69 34 3d
       -0.039420832 0.05337542 0.118126325 0.04404556
000050 9e 17 25 3e 9a 27 5c 3c ae 9d d3 3d 59 b8 01 3e
       0.1612229 0.013437176 0.103328094 0.1266798
000060 d8 a9 03 3c be 61 a2 3c 5f c1 02 3d 39 77 64 bd
       0.008036099 0.019821998 0.031922694 -0.055777762
000070 eb f8 08 bd 90 86 c1 3d 2d 94 46 bd 63 3a 45 3d
       -0.03344051 0.09449494 -0.048481155 0.048151385
000080 d5 20 20 3d 5f 8e d4 3d cb ec 4c bd c1 92 4f 3c
       0.03909381 0.10378718 -0.05003051 0.012669266
000090 c0 e3 59 3c 5b ca 8a bd 67 c1 d9 3d fa 85 e0 3c
       0.013298929 -0.067768775 0.10632592 0.027407635
0000a0 ab a6 64 bd ae 61 3c 3b 13 27 24 3d 81 13 48 bd
       -0.05582301 0.0028744745 0.040076327 -0.048846725
0000b0 0c 0c 35 3d 44 08 0d 3b f7 13 55 3d 04 c9 80 3d
       0.044200942 0.002151982 0.052020993 0.06288341
0000c0 3e 90 09 3c 5e 5f 94 bd 49 66 7e 3d 0f c8 52 3c
       0.008396206 -0.07244752 0.062109265 0.0128650805
0000d0 59 af 0b bc 34 9b 7c 3d e9 bd 2e 3d fa fc 99 3c
       -0.008525693 0.06167145 0.04266158 0.018797386
0000e0 b0 99 d1 3d 85 60 84 3d 5c a0 a2 bb ee 7e 02 3d
       0.10234392 0.06463722 -0.004962964 0.03185933
0000f0 e9 c8 d0 3c 67 05 42 ba c9 c3 b1 bd dd 1a f9 3d
       0.025486426 -0.00074013177 -0.08679921 0.12163327
000100 b5 be 9d 3b b9 a6 78 bb 68 48 dc 3c 15 c2 01 3d
       0.004813994 -0.0037941171 0.026889995 0.03167923
000110 4a 86 a1 3c 81 8f 62 bb 3a 03 72 3d 5c 5c b6 3d
       0.019717354 -0.0034570398 0.05908511 0.08904335
000120 13 4f 8a bd d2 2c a2 bd 56 33 98 bc 75 f3 8e bd
       -0.067533635 -0.07918705 -0.018579166 -0.069800295
000130 dd 67 41 bd 4e e3 5e bd 26 6a 87 3d 22 e2 d9 bc
       -0.047218192 -0.054415993 0.06612043 -0.026597086
000140 84 2e 78 3c e0 5b e1 3b a0 53 52 3d 2e 19 f3 3a
       0.015147809 0.0068774074 0.051349282 0.0018546933
000150 18 24 bd 3d 17 09 a8 3b 16 36 74 bc db ec eb 3d
       0.092354 0.0051280367 -0.014905473 0.11519786
000160 86 50 2d 3d 61 79 98 3d be a7 3f bd 2b 49 f1 bb
       0.04231312 0.07445026 -0.04679083 -0.0073634586
000170 5c 25 34 3d 20 5e c4 3d 21 9a 5f 3d a2 24 92 3d
       0.04398094 0.095882654 0.05459035 0.071358934
000180 93 df b1 3c 9b 31 cd 3d 03 72 7c bd 39 34 f6 3d
       0.021713054 0.10019227 -0.061632168 0.120216794
000190 68 04 38 3c f4 ff 0f bd be ef 08 3e 1d c1 ae 3c
       0.011231519 -0.035156205 0.13372704 0.021332318
0001a0 d0 f4 93 3d 70 b1 ea 3d be 98 36 bd 80 75 55 bd
       0.07224429 0.11459625 -0.04457926 -0.05211401
0001b0 73 e9 41 3d 48 7f a4 bb bc 97 82 bd 57 79 11 3d
       0.047341775 -0.005020056 -0.06376597 0.03551611
0001c0 2a 18 69 bc 25 74 c7 3d f3 ed 9c bc 8d fd 77 bd
       -0.014226953 0.0973895 -0.019156432 -0.06054454
0001d0 7f 5b 9b 3d 22 cb d2 3d d6 ca 30 3c f3 71 b3 3c
       0.07585811 0.10292651 0.010790547 0.021904921
0001e0 27 c4 92 3d f2 39 73 bd 34 bf c2 3a 7c ab 6a bc
       0.07166319 -0.059381433 0.0014858008 -0.014323112
0001f0 ee a0 40 bb c6 51 89 bd 8d 42 e5 3a 2a ca 11 bd
       -0.0029392797 -0.0670505 0.0017491147 -0.03559319
000200 db 4a 64 bd ea 06 cd bc 6f 93 fa bd a7 63 40 3d
       -0.05573545 -0.025027711 -0.12235152 0.046970036
000210 c3 47 29 3e 77 59 82 bc cb ca d9 bd 52 19 a1 3d
       0.16531281 -0.0159118 -0.10634383 0.078661576
000220 c3 6a 2f 3d 2a 02 0e be 54 da 6d 3b 8c 3a ee 3d
       0.042826425 -0.13868013 0.0036293464 0.11632261
000230 d6 64 ab 3d c0 51 14 bc 9a 0b e3 3d 30 d6 4d 3d
       0.08368842 -0.009052694 0.11086197 0.050253093
000240 a1 e5 28 bc 62 c0 a0 3d 3e 94 2b be dd 1d 9b 3d
       -0.010308654 0.07849194 -0.16755769 0.07574055
000250 d4 ef e8 3d 6c dd 04 be a3 08 1d bc 20 86 86 bd
       0.113738686 -0.1297509 -0.009584579 -0.06568551
000260 c5 0f 14 3e 64 06 23 be ff c6 17 3d 42 c4 04 3e
       0.1445914 -0.15920407 0.03705501 0.12965491
000270 6e c8 20 bd 4a 63 85 3d 30 60 3e 3d 23 c4 da bb
       -0.039253645 0.065130785 0.04647845 -0.0066762134
000280 52 7f a7 3b 68 d7 b6 bd aa 40 2c 3e 0c 54 a1 3d
       0.0051116133 -0.08927804 0.16821542 0.07877359
000290 df 65 e0 3d 8e 81 92 3d cb c6 9d 3d 42 98 8f 3d
       0.1095693 0.07153617 0.077039324 0.07011463
0002a0 de 4b 61 bd f2 44 3d 3d 90 ff 1a 3e 15 7b 3b 3c
       -0.055003993 0.04620833 0.15136552 0.011442919
0002b0 d8 52 c3 bd e2 03 a0 3c 06 35 8d 3d ba 85 bb 3d
       -0.095372856 0.019533101 0.06894879 0.09156366
0002c0 60 84 31 bd e5 d5 de 3d 3b 43 01 bd fd b9 06 be
       -0.043339133 0.10880641 -0.031558257 -0.13156886
0002d0 32 0c 11 bd 69 ec 52 bd e9 f2 7d bc 3f 0b 13 3c
       -0.03541202 -0.05149499 -0.015499809 0.008974849
0002e0 eb 78 da 3d da e5 4a 3d 1d dd af bd c8 ec 80 bd
       0.106675945 0.04953561 -0.08587096 -0.062951624
0002f0 65 69 18 3e 13 8d 88 3d 67 cc f7 bd 01 ae 21 3e
       0.14883955 0.06667533 -0.120995335 0.15789033
000300 2e 36 b7 bc 14 bd 92 3d 71 24 90 3d 41 ec 3e 3d
       -0.022364702 0.0716497 0.07038201 0.046612028
000310 c9 64 bd bc 75 12 c3 bc e1 a2 59 3d e2 8f 93 3d
       -0.023119347 -0.023812512 0.05313385 0.07205178
000320 51 c9 41 bd ec 6b 0f 3c af 6f 03 3e 46 93 55 bd
       -0.04731113 0.008753758 0.12835573 -0.052142404
000330 09 ff e9 3d e0 1c 56 3d d2 a7 08 3e ed de 7d bd
       0.11425597 0.05227363 0.13345268 -0.061980177
000340 a3 95 6f 3d 53 fa 1c 3d 79 b8 f3 3a 61 a1 ab ba
       0.058492314 0.038324665 0.0018594406 -0.0013094359
000350 5d 0f e9 3c e3 02 9a 3c 52 04 26 bd 34 58 e8 3c
       0.028449709 0.018800205 -0.040531464 0.028362371
000360 89 be 02 bd 87 20 0d 3e a8 a2 87 bd df 3a 23 bd
       -0.03191999 0.1378194 -0.06622821 -0.039851066
000370 9c 5b f9 3d 09 2c b8 3d a1 16 7f 3c aa c8 5a bb
       0.12175676 0.08992774 0.01556936 -0.0033383765
000380 c1 95 ca bc d1 90 8e 3c 27 32 d9 3d f1 6a 13 3e
       -0.024729611 0.017403038 0.10605269 0.14396264
000390 39 ad 53 3d c5 72 be bc 13 09 2a 3c 1f 2a 86 bc
       0.05167887 -0.023248086 0.01037814 -0.016377507
0003a0 0f 0d 95 bc e3 23 15 3e 3a 50 f0 bc 0c ac 01 3d
       -0.018194703 0.14564471 -0.02933513 0.031658217
0003b0 83 05 ab 3d d1 af 0a 3e 43 48 2d bd 1d d5 0a bc
       0.08350661 0.13543631 -0.042305242 -0.008473662
0003c0 48 14 38 bc 36 de 81 bd 9b 83 f3 3d b8 00 97 3c
       -0.011235304 -0.063412115 0.11890336 0.01843296
0003d0 b6 d8 9c bd eb 9d c7 3d ce 24 ea bc a2 73 9d 3c
       -0.07658522 0.09746917 -0.028582003 0.019220177
0003e0 ca 59 db 3b 84 53 e7 3c ef 9b 26 bc 40 a5 3c bb
       0.0066940533 0.028238066 -0.010169013 -0.002878502
0003f0 5c 0e 6c bd bd 63 18 3d 1d ce 84 bc bb bb 7f 3d
       -0.05763088 0.037204493 -0.016211564 0.062434893
