models/prediction/transformer_model.pt (torch, 285186 bytes, 28 tensors)

input_projection.weight f4 [64, 1]
-0.065346174 -0.8553957 -0.21096289 -0.8814285 0.4297473 -0.6057641 -0.29995823 0.92300195
-0.28038222 -0.21342887 0.45124862 0.5564381 -0.3623099 -0.28303736 0.41465983 -0.8958708
0.4751804 0.95342284 0.80126464 -0.8805596 0.5198405 -0.89116466 0.07324508 0.4402282
0.01629725 0.877502 0.98379874 0.07685404 -0.97519463 0.9449218 0.9773758 0.23312707
0.37331355 -0.5313538 0.82681 0.50273365 0.7781858 -0.9254322 0.40240952 -0.23682986
0.5794227 -0.075222656 -0.37383047 0.30455118 -0.57064945 0.83287585 0.83563334 -0.3890357
0.1265375 0.7652074 -0.3010554 0.618043 0.04489457 -0.50144947 0.030291326 0.9020481
0.05827721 -0.97428477 -0.5450871 0.48297563 0.7445589 -0.009474424 0.30911303 -0.121969394
00000000: 37d4 85bd 36fb 5abf a806 58be 4ca5 61bf
00000010: d707 dc3e 5b13 1bbf 2094 99be db49 6c3f
00000020: 428e 8fbe 198d 5abe 0f0a e73e ba72 0e3f
00000030: af80 b9be 46ea 90be 4b4e d43e ca57 65bf
00000040: d84a f33e 8513 743f ae1f 4d3f 5b6c 61bf
00000050: 4414 053f 5e23 64bf 8401 963d 9765 e13e
00000060: cf81 853c f9a3 603f 3cda 7b3f a765 9d3d
00000070: 5ba6 79bf 65e6 713f 4d35 7a3f ddb8 6e3e
00000080: f422 bf3e cd06 08bf d2a9 533f 27b3 003f
00000090: 2f37 473f 20e9 6cbf 9f08 ce3e 8783 72be
000000a0: 0c55 143f 560e 9abd b566 bfbe 22ee 9b3e
000000b0: 1516 12bf 5a37 553f 11ec 553f b02f c7be
000000c0: 0c93 013e a2e4 433f ef23 9abe 1138 1e3f
000000d0: 5ee3 373d fe5e 00bf 8425 f83c a0ec 663f
000000e0: 15b4 6e3d ba6a 79bf d48a 0bbf 9548 f73e
000000f0: 699b 3e3f 9d3a 1bbc 1044 9e3e 17cb f9bd

input_projection.bias f4 [64]
-0.022730652 -0.33282423 0.8050598 -0.41354212 -0.30392188 -0.38750944 0.050901454 0.24033841
0.8161913 -0.354874 -0.44900444 -0.92437994 -0.6508407 -0.7099737 -0.37186685 -0.7485107
0.24682222 -0.076907754 0.20901732 -0.54629874 0.36697036 -0.889438 0.14038315 0.8882679
0.7372235 -0.13123243 -0.087815255 0.73184323 -0.2802133 -0.9437755 -0.90856147 0.72414577
0.029092735 0.5730592 0.5362747 0.35944763 0.7846636 -0.466089 0.68001497 -0.7125185
0.79367214 0.10786831 -0.5319385 0.6807277 0.9394263 0.19453512 0.4623798 -0.4717985
-0.07916142 0.76539046 -0.8251339 -0.22576825 -0.23930272 -0.6970972 0.89430004 0.23899657
-0.2194347 0.5074409 0.13758636 0.31333396 0.5730818 0.41814718 0.03694153 -0.6891736
00000000: a235 babc f067 aabe 6618 4e3f cbbb d3be
00000010: a69b 9bbe a367 c6be 0b7e 503d 461b 763e
00000020: eaf1 503f 0cb2 b5be e9e3 e5be 2aa4 6cbf
00000030: 7f9d 26bf d6c0 35bf 5565 bebe 669e 3fbf
00000040: f7be 7c3e d081 9dbd a308 563e 3cda 0bbf
00000050: 8ae3 bb3e 35b2 63bf 9ac0 0f3e 8665 633f
00000060: aeba 3c3f cb61 06be 7cd8 b3bd 145a 3b3f
00000070: 1e78 8fbe 459b 71bf 7c97 68bf 9e61 393f
00000080: e353 ee3c 02b4 123f 4c49 093f 8509 b83e
00000090: b7df 483f 38a3 eebe 7615 2e3f 9d67 36bf
000000a0: 192e 4b3f 0fea dc3d 1f2d 08bf 2c44 2e3f
000000b0: 3e7e 703f 3734 473e 0cbd ec3e 938f f1be
000000c0: 621f a2bd a1f0 433f fa3b 53bf cb2f 67be
000000d0: c60b 75be f674 32bf d9f0 643f 84bb 743e
000000e0: 7db3 60be a6e7 013f 70e3 0c3e 4f6d a03e
000000f0: 7db5 123f 6317 d63e 0050 173d ae6d 30bf

transformer_encoder.layers.0.self_attn.in_proj_weight f4 [192, 64]
0.011600206 -0.0028194753 0.0037200707 0.0035381715 -0.0040572644 0.0134202 0.0005808681 0.007420971
-0.0037892815 0.02041691 0.0066943183 0.013622683 -0.0066182404 0.0069111595 -0.004142612 0.010954131
-0.0021415742 0.0011041685 0.0042494377 0.008168242 0.00080265274 0.022042347 -0.0006926899 -0.03343912
0.009812974 -0.002501751 0.007279594 0.004573993 0.0021768587 0.008128335 -0.004507977 0.009296548
-0.00045491027 -0.001246151 -0.012251724 -0.008074033 0.0009766944 0.002200931 -0.010423213 0.0005193207
-0.025279423 -0.002129087 0.0011856026 -0.03616791 -0.004779945 -0.033721317 -0.018809576 -0.0007798096
-0.00073855923 -0.042453576 0.0017019378 -0.0140449405 0.00036883377 0.0002626088 -0.005551807 -0.016765635
0.0004368565 -0.004631898 0.0008041187 -0.0021133397 -0.013846976 0.0025313804 -0.0011725434 -0.0008481323
-0.0097905565 -0.011231498 0.00078709977 0.007685326 0.007227314 -0.00613009 3.973141e-05 0.048461694
0.0035344844 0.013815535 0.0066945944 -0.0158641 -0.0007603166 -0.0020421685 0.005333245 -0.018209225
-0.029460486 0.0008167935 0.001282974 0.028810862 0.013617862 0.0426018 -0.0001469349 -0.036788587
0.0011539881 0.0014722063 0.0006216161 0.0008192454 -0.0030329935 0.012883358 -0.0020281433 0.0025792886
-0.008063312 -0.00030372967 0.05371728 -0.0021420035 -0.055845056 0.0012291659 -0.027735876 0.00023319075
-0.014021295 -0.02530617 -0.0019920755 0.008615632 0.0062767863 0.03764195 0.0044183685 -0.0002990017
-0.0002321872 -0.047275364 -0.016148897 -0.00043565006 9.0862675e-05 5.0785427e-05 -0.016889468 0.021014573
0.00012456975 -0.0036466967 4.9273763e-06 -0.021985997 -0.0002319732 -0.023481127 -0.00038316724 -0.00027069898
-0.020110201 -0.026682017 -0.008130733 -0.023609078 0.017243102 -0.03878329 -0.0025485554 0.029929414
0.008542238 -0.0383499 -0.015188162 -0.026980206 0.002776935 -0.018776465 0.016150624 -0.013165104
0.03314135 -0.0021514313 -0.0057969755 -0.013005233 0.009748422 -0.07069967 0.0027598816 0.030318854
-0.0072654714 0.009427506 0.0053495164 -0.0044484963 -0.0100527285 -0.024620084 0.015504525 0.00013996934
0.034958556 0.0024252434 0.056225583 0.0060108514 0.052171007 -0.009644453 0.008077728 -0.0019280876
0.032216508 0.00805388 -0.008574227 -0.002748907 0.0155329 0.02616921 0.025721865 0.002268051
0.002553957 0.053822186 -0.016543357 0.014300372 -0.0013210606 -0.0018074199 0.015737982 0.04272026
-0.0015200045 0.013650462 -0.003605865 0.06321638 0.027543692 0.03571959 0.0044493685 0.0027949987
-0.011710657 -0.021398142 -0.006195644 0.005534831 0.016634844 -0.025507208 -0.0013657769 0.0053159557
0.008013336 -0.034721516 -0.0153977685 -0.021007195 0.0031720712 -0.026589196 0.011119241 -0.03978141
0.030373668 -0.0040711584 -0.0076169167 -0.042043928 0.059035122 0.015586153 0.0022027022 0.008687667
-0.0062739323 0.0028019508 -0.0009580662 -0.003923676 -0.004745846 -0.029257108 0.010527243 0.0015508506
-0.0027490696 0.0037122644 -0.00778332 0.020885622 -0.01683892 -0.006828809 0.049478784 -0.0016190201
0.03539927 0.029510098 -0.011805797 0.051861353 0.008588801 0.03411648 0.029951207 0.0034900287
0.0019797143 0.063311346 -0.022498813 0.04124826 -0.0014690812 -0.00041298912 0.027415967 0.0036714482
-0.0016657544 0.021289406 -0.0016773995 0.06810173 0.025016095 0.021879647 0.0030515136 0.0030682506
00000000: ca0e 3e3c f2c6 38bb 6ecc 733b abe0 673b
00000010: cdf2 84bb 66e0 5b3c 6645 183a 9e2b f33b
00000020: 9855 78bb 5d41 a73c 035c db3b ac31 5f3c
00000030: d3dd d8bb 0277 e23b c0be 87bb f578 333c
00000040: a759 0cbb bfb9 903a de3e 8b3b 17d4 053c
00000050: 1d69 523a 2792 b43c a295 35ba 75f7 08bd
00000060: 99c6 203c 6bf4 23bb a989 ee3b 6fe1 953b
00000070: a1a9 0e3b b52c 053c a7b7 93bb 8c50 183c
00000080: 0681 eeb9 e455 a3ba 74bb 48bc f348 04bc
00000090: 6d04 803a 7f3d 103b 20c6 2abc 0623 083a
000000a0: cb16 cfbc 2788 0bbb 3966 9b3a cd24 14bd
000000b0: 16a1 9cbb 5d1f 0abd 8a16 9abc 236c 4cba
000000c0: df9b 41ba cde3 2dbd 8e13 df3a c01c 66bc
000000d0: 0860 c139 c2ae 8939 efeb b5bb 1658 89bc
000000e0: e309 e539 2dc7 97bb 7ecb 523a f57f 0abb
000000f0: 6dde 62bc 84e5 253b 07b0 99ba 3255 5eba
00000100: 9268 20bc 5104 38bc 5f55 4e3a 30d5 fb3b
00000110: 1bd3 ec3b ecde c8bb 47a5 2638 c57f 463d
00000120: cfa2 673b 8e5a 623c 545e db3b 6ef5 81bc
00000130: fc4f 47ba e7d5 05bb 80c2 ae3b 832b 95bc
00000140: 1e57 f1bc 151e 563a 7729 a83a c204 ec3c
00000150: 741d 5f3c 3a7f 2e3d 8912 1ab9 a1af 16bd
00000160: 6a41 973a 0cf7 c03a f3f3 223a a1c2 563a
00000170: 30c5 46bb b814 533c 99ea 04bb 4809 293b
00000180: fb1b 04bc e83d 9fb9 a706 5c3d db60 0cbb
00000190: c9bd 64bd f71b a13a 5936 e3bc aa84 7439
000001a0: 93b9 65bc e34e cfbc 7b8d 02bb 9428 0d3c
000001b0: 80ad cd3b 722e 1a3d f6c7 903b 54c3 9cb9
000001c0: 4777 73b9 d0a3 41bd b14a 84bc f667 e4b9
000001d0: 878d be38 7002 5538 c85b 8abc c126 ac3c
000001e0: f09e 0239 6bfd 6ebb d755 a536 fa1b b4bc
000001f0: d53d 73b9 7e5b c0bc d6e3 c8b9 9aec 8db9
00000200: 26be a4bc 3f94 dabc c436 05bc d367 c1bc
00000210: 6841 8d3c 3adb 1ebd aa05 27bb 882e f53c
00000220: bef4 0b3c c914 1dbd c5d7 78bc 9805 ddbc
00000230: 3dfd 353b 1ad1 99bc 504e 843c 73b2 57bc
00000240: 39bf 073d 07ff 0cbb 8ef4 bdbb e713 55bc
00000250: d8b7 1f3c fdca 90bd 21df 343b 3f5f f83c
00000260: 3113 eebb d375 1a3c ff4a af3b b1c4 91bb
00000270: 33b4 24bc 0fb0 c9bc b106 7e3c bcc4 1239
00000280: b430 0f3d d5f0 1e3b cc4c 663d adf6 c43b
00000290: 44b1 553d c503 1ebc 7258 043c e2b7 fcba
000002a0: 75f5 033d 6cf4 033c ea7a 0cbc 0227 34bb
000002b0: b47d 7e3c d060 d63c a9b6 d23c 95a3 143b
000002c0: 4a60 273b a774 5c3d ef85 87bc 1c4c 6a3c
000002d0: 7027 adba f3e6 ecba f1ec 803c 70fb 2e3d
000002e0: e33a c7ba 30a6 5f3c 6050 6cbb 9777 813d
000002f0: 4fa3 e13c b44e 123d 02cc 913b 4c2c 373b
00000300: 0ede 3fbc 284b afbc d404 cbbb 875d b53b
00000310: cc45 883c 7ef4 d0bc de03 b3ba 7831 ae3b
00000320: 5e4a 033c 2638 0ebd ec46 7cbc 4817 acbc
00000330: 86e2 4f3b 96d1 d9bc 7a2d 363c d5f1 22bd
00000340: 33d2 f83c 5a67 85bb 5497 f9bb 4136 2cbd
00000350: d0ce 713d 105d 7f3c 365b 103b b756 0e3c
00000360: 8f95 cdbb efa0 373b bc26 7bba 2e92 80bb
00000370: 0b83 9bbb 9aac efbc 757a 2c3c e945 cb3a
00000380: bc29 34bb 7649 733b 380b ffbb 5318 ab3c
00000390: c6f1 89bc 34c4 dfbb 44aa 4a3d 4d35 d4ba
000003a0: d3fe 103d 29bf f13c 1a6d 41bc 926c 543d
000003b0: 0bb8 0c3c b9bd 0b3d 3c5c f53c f7b8 643b
000003c0: 18be 013b 61a9 813d 6e4f b8bc eff3 283d
000003d0: 2f8e c0ba 7686 d8b9 7397 e03c ae9c 703b
000003e0: 7155 daba 1f67 ae3c 30dc dbba eb78 8b3d
000003f0: 8eee cc3c f23c b33c e7fb 473b b414 493b

transformer_encoder.layers.0.self_attn.in_proj_bias f4 [192]
-0.006415719 -0.0017650997 0.019453537 0.016295437 0.0097121755 0.0119358525 -0.052053664 0.004133421
0.01953625 -0.023007352 -0.014025056 0.007682927 0.012139181 0.0031025913 0.0047474476 -0.0064025247
-0.006316376 0.064912 0.056021094 0.04979019 -0.090774745 -0.030807802 0.0140260635 -0.008715333
-0.025508692 0.018835649 0.020313224 0.034761894 0.033123508 -0.049104456 -0.038015943 -0.01866661
-0.029627724 -0.016817885 0.0588931 -0.021883734 0.031930234 0.04437165 -0.04062064 0.03812404
-0.028864175 0.04967218 0.028590944 0.023307346 -0.0355639 -0.016758148 0.03623531 -0.012403837
0.0016135531 -0.0032919429 0.009803093 -0.00938211 0.00019957779 0.0022746008 -0.0078033446 0.0024183502
0.011024578 -0.000782601 -0.0003290075 0.002960584 -0.008787374 -0.0016350333 -0.0074123084 -0.0020924306
4.910305e-08 3.773311e-08 -1.1133318e-07 -1.8838013e-07 -9.259456e-09 -1.2215774e-07 1.643289e-07 -9.4011465e-11
-1.9338289e-07 1.05849594e-07 -2.2380114e-08 -4.8280555e-08 -6.745383e-08 -2.3422263e-08 -1.940856e-08 4.764182e-08
8.3017593e-10 -2.357549e-07 -2.6175821e-06 -1.7015842e-06 2.587256e-06 -1.3572227e-07 5.5964044e-08 5.5213302e-08
-6.558312e-07 5.1099266e-07 1.0489809e-07 2.0935677e-06 1.855092e-06 -1.8575133e-06 -2.0048956e-06 -1.1304132e-06
2.6960012e-09 3.1440948e-09 -9.749878e-07 -4.673354e-08 6.309365e-08 3.3235608e-08 -6.9998555e-07 5.992745e-07
-1.8300936e-07 -1.4049823e-07 2.3514654e-07 -9.318967e-08 1.583746e-07 1.0081035e-07 8.745945e-07 -1.2250743e-07
2.7869165e-09 -5.6518648e-08 4.1305718e-08 -1.6171732e-08 3.146888e-09 1.1105948e-08 -7.0983033e-09 2.8426888e-09
7.962978e-09 1.9721933e-09 4.55358e-13 1.4825353e-08 -1.7597118e-08 4.2547894e-09 -1.2923095e-08 2.14669e-09
-0.015789665 -0.006672456 -0.0034853208 -0.018148933 0.0126217725 -0.00019524114 0.0113458745 0.015387992
-0.0033961015 0.010840347 -0.017797409 -0.008166977 -0.008573821 -0.010098028 -0.002468581 0.01352155
-0.013433971 -0.02002078 0.0018965427 0.020477235 -0.0056243315 -0.015178605 0.0057902983 0.017447127
0.003481075 -3.4260323e-05 0.010488598 0.017735071 -0.018675353 -0.021643355 -0.029830644 -0.00056020415
0.012927 -0.009321363 0.008028177 0.0056442223 0.0006472609 0.013111279 -0.015266659 0.003330904
0.009567489 -0.014522358 -0.024478337 0.0036234953 -0.017710656 -0.016194582 0.0009084989 -0.0019514426
-0.015101324 -0.007917925 -0.009565883 -0.013718208 0.020864634 0.0061709723 0.0031010406 0.007522517
-0.0074826125 -0.016519895 -0.016636534 0.0011138527 -0.0012299739 0.0221516 0.007344038 0.0021186518
00000000: f43a d2bb eb5a e7ba 065d 9f3c 027e 853c
00000010: d11f 1f3c 988e 433c 3936 55bd a671 873b
00000020: 7c0a a03c ea79 bcbc 59c9 65bc 10c1 fb3b
00000030: 6ae3 463c d854 4b3b 7a90 9b3b 45cc d1bb
00000040: 9af9 cebb 95f0 843d 6076 653d ccf0 4b3d
00000050: 1ce8 b9bd a560 fcbc 93cd 653c c2ca 0ebc
00000060: 9bf7 d0bc 384d 9a3c eb67 a63c 7d62 0e3d
00000070: 84ac 073d c121 49bd 9bb6 1bbd b8ea 98bc
00000080: d7b5 f2bc a9c5 89bc e439 713d 8445 b3bc
00000090: 47c9 023d 0cbf 353d d461 26bd f427 1c3d
000000a0: 9074 ecbc 0e75 4b3d 8e37 ea3c 0cef be3c
000000b0: 74ab 11bd 6248 89bc 7a6b 143d 7739 4bbc
000000c0: dc7d d33a a3bd 57bb 279d 203c 6cb7 19bc
000000d0: c145 5139 7811 153b 33b3 ffbb 2f7d 1e3b
000000e0: 6ea0 343c 7727 4dba a47e acb9 5b06 423b
000000f0: ebf8 0fbc 9d4e d6ba f3e2 f2bb 2921 09bb
00000100: 60e5 5233 fe0f 2233 1016 efb3 8945 4ab4
00000110: 8513 1fb2 772a 03b4 6272 3034 c0bb ceae
00000120: afa4 4fb4 6e4f e333 643e c0b2 085d 4fb3
00000130: 23db 90b3 1a32 c9b2 e0b7 a6b2 bc9e 4c33
00000140: 7032 6430 d023 7db4 b8a9 2fb6 fd61 e4b5
00000150: b8a0 2d36 0ebb 11b4 1e5d 7033 ab23 6d33
00000160: 600c 30b5 262b 0935 5644 e133 387f 0c36
00000170: 7afc f835 ac4f f9b5 d88b 06b6 b4b8 97b5
00000180: 8e44 3931 800f 5831 53dc 82b5 12b8 48b3
00000190: 1a7e 8733 f0be 0e33 a4e6 3bb5 d4dd 2035
000001a0: 3b81 44b4 dcdb 16b4 977c 7c34 901f c8b3
000001b0: ae0d 2a34 137d d833 adc5 6a35 968a 03b4
000001c0: f483 3f31 e9be 72b3 1e68 3133 04ea 8ab2
000001d0: a440 5831 7acc 3e32 56e5 f3b1 1c59 4331
000001e0: 8ccd 0832 3187 0731 002c 002b 98b2 7e32
000001f0: 7928 97b2 8631 9231 5f04 5eb2 f884 1331
00000200: 5459 81bc 9ea4 dabb fb69 64bb 12ad 94bc
00000210: 8dcb 4e3c a5b9 4cb9 0ce4 393c eb1d 7c3c
00000220: 2191 5ebb b69b 313c dfcb 91bc c9ce 05bc
00000230: 3679 0cbc 3372 25bc ebc7 21bb 7e89 5d3c
00000240: 291a 5cbc 9e02 a4bc 6a95 f83a e0bf a73c
00000250: 504c b8bb afaf 78bc 8bbc bd3b 47ed 8e3c
00000260: bf22 643b beb2 0fb8 5ed8 2b3c 2449 913c
00000270: 0efd 98bc 684d b1bc 655f f4bc aada 12ba
00000280: c5cb 533c a1b8 18bc 9d88 033c 2bf3 b83b
00000290: f2ac 293a b1d0 563c 0221 7abc 4c4b 5a3b
000002a0: f5c0 1c3c 2fef 6dbc cb86 c8bc 2a78 6d3b
000002b0: f015 91bc 80aa 84bc 5428 6e3a 8cc7 ffba
000002c0: 8b6b 77bc 2fba 01bc 39ba 1cbc 56c2 60bc
000002d0: 4fec aa3c de35 ca3b d43a 4b3b 727f f63b
000002e0: b430 f5bb bb54 87bc 5749 88bc b2fe 913a
000002f0: 1337 a1ba 4677 b53c 42a6 f03b 14d9 0a3b

transformer_encoder.layers.0.self_attn.out_proj.weight f4 [64, 64]
0.08435133 0.029196378 -0.0143311955 -0.07547208 -0.09076282 -0.019649964 -0.07560793 0.04338742
-0.015526481 0.070863694 -0.0031961713 0.014126454 0.045673817 0.06777217 0.01943986 -0.056196593
-0.027986376 0.041146547 -0.019695586 -0.04107248 -0.10362178 0.0089125065 -0.0020753678 -0.08453022
-0.0765855 -0.006994748 0.03968698 0.08134211 0.068268344 0.07582516 0.054458383 0.05211203
-0.08615032 -0.0024692924 -0.05207238 -0.08869679 -0.0009208235 -0.017707031 -0.0632837 0.102076754
0.07622329 0.06912777 -0.10950088 -0.016688067 0.023313582 0.016017813 -0.06401009 -0.056422193
-0.0052683107 0.018563068 -0.013832283 -0.10566687 0.05796673 0.032036014 -0.044714563 -0.0136425495
-0.01847349 -0.042130068 -0.003507229 0.041927088 0.079364 -0.09001874 -0.0694348 0.0040248167
0.008136325 0.034219094 -0.023854204 0.08517969 0.077346176 0.005827437 -0.0847147 -0.097405344
0.022042485 0.03931415 0.088925324 0.07979563 -0.05192494 -0.03795786 0.040418167 -0.06972115
0.0106352605 0.088354774 0.040916074 0.031652752 -0.07961811 -0.035980735 -0.035106577 -0.012702116
-0.07493674 -0.047852386 0.017782563 -0.0870565 -0.11174055 0.007371706 0.072469816 -0.032188524
0.04972046 -0.106228426 -0.07705604 -0.0001842145 -0.0730766 -0.048240937 0.08307956 -0.110216655
-0.0055587557 0.09564594 -0.02158599 0.10554942 -0.027904615 0.051628865 -0.012351447 0.012597821
-0.10994146 -0.077120446 0.0057114814 0.09444995 -0.022247938 -0.054364245 -0.04165689 0.07824307
-0.09717817 -0.051166445 -0.043459307 0.087623656 -0.00079008756 -0.03021507 -0.09625245 -0.008398204
0.12771583 -0.030175747 0.10935562 0.09124089 -0.09020214 -0.044862732 0.08512089 -0.04831994
0.04438406 -0.023640994 0.095230386 0.11697527 -0.0013233577 0.10959963 0.054175727 -0.009563738
0.09746523 -0.07878179 -0.077729836 -0.074686095 0.0794119 -0.04819664 -0.070815705 0.090477064
0.083868854 -0.05124174 -0.09368752 0.008897024 0.059572328 -0.06895719 0.03943835 0.028995732
0.090553604 -0.09509209 0.03315399 0.03268771 -0.033621714 -0.05005347 0.0352427 0.07477474
0.03881663 -0.09598207 -0.075341314 -0.02569552 -0.062207364 -0.029020756 -0.008182799 -0.07918543
-0.042499427 -0.021588525 -0.050397858 0.045768064 0.080014735 -0.064179935 -0.020031877 0.028244404
-0.10312187 -0.0386373 0.045122415 -0.01097466 -0.066722676 0.06715345 0.006427365 -0.018504461
0.084065765 0.010407548 -0.098068886 -0.025486862 0.051996775 -0.04849609 -0.06940179 -0.05320944
-0.017063783 -0.0054226657 0.064488865 0.02638751 -0.0855746 -0.08730112 -0.03648545 -0.10893173
0.043802623 -0.049595285 -0.038754955 0.021051278 0.032041293 0.0072541367 0.032180514 0.02282538
-0.031407382 0.06964122 0.026301062 0.022312755 0.05105369 -0.04917912 -0.06306513 -0.025814967
0.05233001 -0.011968737 0.11884265 -0.032063235 0.10308975 0.02415369 0.017112374 -0.032269873
0.08026104 -0.1147715 0.079334565 0.09954329 0.037962776 0.011496338 0.07498822 -0.071588784
0.07559569 -0.06887832 -0.042178653 -0.11292914 0.0879104 -0.03972685 0.1050068 -0.008762098
0.051868007 -0.09321518 0.069371186 0.032960646 -0.02503323 0.008630301 0.04223442 0.064782806
00000000: 64c0 ac3d 3e2d ef3c 64cd 6abc 1b91 9abd
00000010: dbe1 b9bd f6f8 a0bc 55d8 9abd 02b7 313d
00000020: c862 7ebc fc20 913d db76 51bb a472 673c
00000030: 7814 3b3d 23cc 8a3d 5740 9f3c 662e 66bd
00000040: af43 e5bc 4889 283d a358 a1bc 9e3b 28bd
00000050: a837 d4bd c305 123c e502 08bb 2e1e adbd
00000060: dcd8 9cbd 3334 e5bb d18e 223d b196 a63d
00000070: 46d0 8b3d 394a 9b3d c10f 5f3d 6d73 553d
00000080: 946f b0bd dad3 21bb d949 55bd aaa6 b5bd
00000090: 6b63 71ba 560e 91bc e29a 81bd 9e0d d13d
000000a0: f51a 9c3d dc92 8d3d ff41 e0bd 6ab5 88bc
000000b0: 20fc be3c ca37 833c b917 83bd f51a 67bd
000000c0: cba1 acbb 9311 983c cda0 62bc df67 d8bd
000000d0: 866e 6d3d 3238 033d 9e26 37bd 0085 5fbc
000000e0: b755 97bc 9490 2cbd 8ad9 65bb bdbb 2b3d
000000f0: 9889 a23d bf5b b8bd d533 8ebd 9ce2 833b
00000100: 384e 053c 5229 0c3d e469 c3bc b072 ae3d
00000110: ac67 9e3d 16f4 be3b e77e adbd 747c c7bd
00000120: 7192 b43c e007 213d 7b1e b63d e46b a33d
00000130: 3faf 54bd b379 1bbd 858d 253d f6c9 8ebd
00000140: 843f 2e3c 59f3 b43d 9d97 273d 51a6 013d
00000150: d20e a3bd 8960 13bd eacb 0fbd 891c 50bc
00000160: 6f78 99bd dd00 44bd bdac 913c ae4a b2bd
00000170: 3bd8 e4bd 5a8e f13b 0e6b 943d 1dd8 03bd
00000180: aea7 4b3d 4a8e d9bd 8fcf 9dbd b429 41b9
00000190: 2fa9 95bd 4a98 45bd 9e25 aa3d 45b9 e1bd
000001a0: 3926 b6bb 05e2 c33d 1ad5 b0bc 4b2a d83d
000001b0: 3898 e4bc ca78 533d b95d 4abc 1767 4e3c
000001c0: fd28 e1bd 53f1 9dbd 6127 bb3b fa6e c13d
000001d0: 4f41 b6bc 0bad 5ebd 6aa0 2abd e73d a03d
000001e0: 5905 c7bd e893 51bd 6302 32bd 0874 b33d
000001f0: e11d 4fba 9885 f7bc 0120 c5bd 9f98 09bc
00000200: f0c7 023e 2133 f7bc d7f5 df3d 81dc ba3d
00000210: e6bb b8bd fcc1 37bd dc53 ae3d 21eb 45bd
00000220: 0fcc 353d c2aa c1bc 2608 c33d bb90 ef3d
00000230: 8474 adba c575 e03d 5ee7 5d3d 39b1 1cbc
00000240: da9b c73d 5958 a1bd d230 9fbd 06f5 98bd
00000250: b5a2 a23d d769 45bd d307 91bd 0a4c b93d
00000260: 6fc3 ab3d dce2 51bd 3edf bfbd d3c4 113c
00000270: 1d02 743d 6d39 8dbd 1b8a 213d 7588 ed3c
00000280: 2b74 b93d a4bf c2bd 7acc 073d 8ce3 053d
00000290: ecb6 09bd de04 4dbd a65a 103d 8023 993d
000002a0: 30fe 1e3d 3f92 c4bd 8c4c 9abd 697f d2bc
000002b0: 26cd 7ebd f0bc edbc 2611 06bc f92b a2bd
000002c0: e113 2ebd 6bda b0bc fc6d 4ebd 4b77 3b3d
000002d0: c4de a33d c570 83bd e419 a4bc cf60 e73c
000002e0: 8f31 d3bd 2542 1ebd 48d2 383d 0fcf 33bc
000002f0: e6a5 88bd bf87 893d a59c d23b ab96 97bc
00000300: ac2a ac3d 6c84 2a3c 57d8 c8bd d3c9 d0bc
00000310: 92fa 543d d6a3 46bd 8722 8ebd 24f2 59bd
00000320: 59c9 8bbc 9eb0 b1bb bd12 843d 9f2a d83c
00000330: bc41 afbd eeca b2bd c471 15bd 9917 dfbd
00000340: 616a 333d 6d24 4bbd 84bd 1ebd bb73 ac3c
00000350: bb3d 033d 1cb4 ed3b b7cf 033d 4bfc ba3c
00000360: 07a5 00bd 0ea0 8e3d 5375 d73c 3dc9 b63c
00000370: ad1d 513d 0c70 49bd 4a28 81bd e979 d3bc
00000380: fe57 563d 8518 44bc c663 f33d bd54 03bd
00000390: b820 d33d f6dd c53c 402f 8c3c 6a2d 04bd
000003a0: e65f a43d 520d ebbd 297a a23d 5add cb3d
000003b0: db7e 1b3d 235b 3c3c 6d93 993d 249d 92bd
000003c0: ead1 9a3d 1410 8dbd 86c3 2cbd 6547 e7bd
000003d0: 5e0a b43d 9fb8 22bd ce0d d73d e78e 0fbc
000003e0: 8c73 543d 9ae7 bebd 7b12 8e3d be01 073d
000003f0: 7d12 cdbc 1b66 0d3c 00fe 2c3d d9ac 843d

transformer_encoder.layers.0.self_attn.out_proj.bias f4 [64]
0.0070225364 -0.011731954 0.008082156 -0.013930478 0.008925599 0.0071667526 -0.00787809 -0.002226886
-0.0045934366 0.010453306 0.0034814733 0.0145715065 -0.017290317 -0.001782526 0.006754851 -0.012088652
0.0059995335 0.0115458965 -0.006941254 -0.007755859 0.0010819107 -0.0113916565 -0.0058928994 0.005911247
-0.0120867565 0.006963247 -0.0058138086 0.005891141 -0.017132243 0.017577868 0.011380953 0.019231148
-0.0044551864 -0.0037385933 0.0019748432 -0.00521788 0.0032562031 -0.009162787 -0.0027419329 -0.01908986
0.019029355 0.006289295 0.016496863 -0.012111634 -0.0029590158 -0.005420204 0.00799015 -0.0055043036
0.012110908 0.009946764 -0.0125958705 0.001226976 0.017202983 -0.01416122 -0.0025967108 0.015102454
0.002967282 -0.027013285 -0.0065541677 -0.0008678448 -0.0043804217 0.016790805 -0.0021130093 -0.014206854
00000000: 4e1d e63b 6237 40bc 056b 043c a93c 64bc
00000010: ad3c 123c 14d7 ea3b 1b13 01bc f3f0 11bb
00000020: 8a84 96bb 5844 2b3c 6e29 643b 54bd 6e3c
00000030: 6ca4 8dbc a6a3 e9ba cc57 dd3b 7b0f 46bc
00000040: bc97 c43b 002b 3d3c 7573 e3bb dc24 febb
00000050: e6ce 8d3a 12a4 3abc 3919 c1bb 22b3 c13b
00000060: 8807 46bc f32b e43b c381 bebb 790a c13b
00000070: eb58 8cbc 76ff 8f3c 2d77 3a3c a48a 9d3c
00000080: d0fc 91bb 3003 75bb 5f6c 013b c0fa aabb
00000090: 0666 553b 841f 16bc 00b2 33bb 5762 9cbc
000000a0: 73e3 9b3c 6e16 ce3b 6e24 873c e06f 46bc
000000b0: 0cec 41bb f79b b1bb 1ee9 023c 725d b4bb
000000c0: d46c 463c c1f7 223c e95e 4ebc 7cd2 a03a
000000d0: 45ed 8c3c 7604 68bc 942d 2abb 4970 773c
000000e0: bb76 423b f74a ddbc 58c4 d6bb 1480 63ba
000000f0: a489 8fbb df8c 893c 6a7a 0abb ddc3 68bc

transformer_encoder.layers.0.linear1.weight f4 [128, 64]
0.09566548 -0.057270136 -0.065622725 0.06627015 0.054135982 0.058713116 -0.02732494 0.08784422
-0.04534712 0.022993008 -0.05408289 -0.0003497841 -0.016334921 0.03553022 -0.009366113 -0.07888976
-0.044728465 -0.01785957 -0.028118081 -0.07213836 0.044423208 0.023012538 0.055996846 -0.10346178
-0.07049957 -0.0024728444 2.9555804e-06 0.027274182 -0.0012126847 0.032742325 -0.008474085 -0.017881298
0.010344376 -0.027577564 -0.08538576 0.02418763 -0.050503522 -0.03099305 -0.052164327 0.011540588
0.043413553 -0.014286703 0.058082934 -0.081295565 0.012466146 0.013726033 -0.005729959 -0.03359914
0.07716876 -0.06713616 0.07981388 0.02419111 0.0057658604 -0.01862586 0.04924953 -0.035713144
-0.00012969074 0.061637335 -0.039109107 0.0089314375 -0.064871125 -0.023948297 -0.0370514 0.010140088
0.1043069 -0.09210902 -0.033251062 0.057168297 0.07393383 0.034810554 -0.04837532 0.040586896
-0.036280375 0.11377896 0.026553826 -0.07757361 0.011497887 0.051036544 0.02603659 -0.002769252
-0.11349567 0.07281605 0.017245762 0.050475616 -0.0014576131 -0.10020811 0.07525876 0.0929186
-0.07850605 0.06550698 -0.017374832 -0.028342163 -0.016432067 0.06301279 -0.03626121 0.05283422
-0.066267766 0.03432131 0.08251878 -0.07981976 -0.009582411 -0.018562324 0.020517383 -0.048152953
0.022610769 0.0516851 -0.053679626 0.02893752 0.06595894 0.07772824 -0.045482717 -0.02324152
0.08716622 -0.11314768 -0.097585835 0.04136561 -0.005273597 0.06228275 0.063501984 -0.120790586
-0.008026427 -0.09740896 -0.018698225 -0.03519822 -0.09764187 -0.055781677 0.04881233 -0.009542872
1.0480071e-20 -6.36979e-21 -7.307926e-21 -8.4546155e-21 3.5141673e-20 2.5840307e-17 2.2212753e-20 2.1393892e-20
6.9338875e-21 -1.8809441e-20 1.3363326e-20 1.6670226e-18 9.0102936e-20 8.805195e-21 4.797911e-21 5.034004e-22
6.4263476e-21 -1.9988215e-20 2.6024173e-20 -6.724949e-20 -9.84029e-21 -4.9228077e-20 3.8559124e-20 4.5986654e-20
2.4271783e-20 -1.18975916e-20 1.14140076e-20 2.5758887e-20 -7.327473e-21 6.113455e-20 7.16115e-21 8.557563e-21
-2.5145622e-20 -2.8668733e-20 6.7029696e-20 -1.1021214e-20 6.5695973e-21 7.6246004e-22 -1.3815804e-18 5.872147e-22
-6.54177e-21 1.442143e-20 1.7409814e-20 2.919613e-20 -5.082217e-20 4.0308334e-20 -1.1699129e-20 -3.4782093e-21
1.00829964e-20 8.473482e-20 7.949886e-21 -1.98105e-21 1.9073654e-20 -7.928322e-22 -3.470875e-21 3.7152594e-20
4.2372585e-21 -3.720055e-20 2.3599786e-21 3.1075644e-20 -6.963643e-21 9.174871e-21 -3.3291897e-21 -2.3423047e-21
8.048192e-05 -0.004738212 2.3750485e-05 0.0005242565 6.0562008e-05 0.0020096037 5.849353e-06 -0.00019457126
-0.00015270374 0.00013093126 0.00013784584 -0.0008745613 4.8760692e-05 0.0003081486 -0.00089251006 0.0032032055
0.00056700455 0.0019033953 -4.4442946e-05 -0.008098362 0.00024787808 0.009363367 0.00017291901 -0.0012661994
8.448735e-05 5.5503006e-05 -2.554005e-05 8.0849204e-05 -4.4696985e-06 0.00060607766 -5.0828698e-05 -2.1826674e-05
-0.0006152645 4.473864e-05 0.00042259478 -0.00035770697 0.0074610454 -0.00020865432 -0.00060508435 4.2910822e-05
0.0035693205 -7.531695e-05 0.00077050104 -0.00074801705 -8.7569795e-05 -0.0038985733 -0.0024654095 9.645204e-06
1.4515049e-06 -0.0053651216 0.0017738802 -7.820228e-05 0.00010506867 6.0255803e-05 -0.00011496919 -0.0030402874
4.610837e-05 -0.00014274342 0.00056849886 0.0034954404 -0.00013431004 -0.00017938502 -8.705854e-06 -2.7617061e-06
00000000: 43ec c33d 1794 6abd 3565 86bd a5b8 873d
00000010: b1bd 5d3d 2a7d 703d 8dd8 dfbc ace7 b33d
00000020: e7bd 39bd d55b bc3c 0586 5dbd 3a63 b7b9
00000030: d0d0 85bc 2388 113d 5374 19bc f490 a1bd
00000040: 3235 37bd 3c4e 92bc e457 e6bc 47bd 93bd
00000050: 1cf5 353d ca84 bc3c f35c 653d c5e3 d3bd
00000060: 1462 90bd 720f 22bb 7c58 4636 1b6e df3c
00000070: f2f2 9eba d11c 063d e3d6 0abc cd7b 92bc
00000080: 757b 293c 58ea e1bc bbde aebd 2325 c63c
00000090: c8dc 4ebd 23e5 fdbc 43aa 55bd bc14 3d3c
000000a0: 69d2 313d c712 6abc 5fe8 6d3d 4a7e a6bd
000000b0: ce3e 4c3c 28e3 603c 61c2 bbbb 409f 09bd
000000c0: a80a 9e3d af7e 89bd 7675 a33d 6f2c c63c
000000d0: 8bef bc3b 4295 98bc e0b9 493d f247 12bd
000000e0: 98fd 07b9 6e77 7c3d df30 20bd 2a55 123c
000000f0: 27db 84bd 382f c4bc 35c3 17bd 9d22 263c
00000100: db9e d53d a7a3 bcbd 4432 08bd 4e29 6a3d
00000110: 9f6a 973d 8395 0e3d 3325 46bd 723e 263d
00000120: bb9a 14bd f204 e93d 6987 d93c eade 9ebd
00000130: a261 3c3c b20b 513d b04a d53c 577c 35bb
00000140: 6b70 e8bd 9520 953d fc46 8d3c 85bf 4e3d
00000150: 610d bfba e939 cdbd 4421 9a3d 1b4c be3d
00000160: c8c7 a0bd 8628 863d aa55 8ebc d32d e8bc
00000170: 8b9c 86bc da0c 813d a286 14bd b268 583d
00000180: 65b7 87bd 8194 0c3d 9bff a83d 8b78 a3bd
00000190: 8bff 1cbc 0410 98bc 1214 a83c 083c 45bd
000001a0: 383a b93c c1b3 533d 2bdf 5bbd 610e ed3c
000001b0: 7b15 873d fc2f 9f3d 164c 3abd 0065 bebc
000001c0: 3484 b23d f9b9 e7bd 15db c7bd fc6e 293d
000001d0: 23ce acbb 321c 7f3d 540d 823d 0e61 f7bd
000001e0: 4681 03bc 597e c7bd 052d 99bc 022c 10bd
000001f0: 76f8 c7bd 547b 64bd 70ef 473d b559 1cbc
00000200: 84f6 451e d4a4 f09d f60a 0a9e 03b4 1f9e
00000210: adf3 251f b355 ee23 24cb d11e 420f ca1e
00000220: 39fa 021e 70a6 b19e 146d 7c1e 5502 f621
00000230: e2bf d41f 4f53 261e 8c42 b51d b824 181c
00000240: d2c7 f21d 8ac8 bc9e 97ca f51e d3c9 9e9f
00000250: b9e0 399e 1879 689f 1f17 361f 742a 591f
00000260: 923d e51e 39bd 609e c19a 571e 2b49 f31e
00000270: 7c69 0a9e 9159 901f 3245 071e d6a5 211e
00000280: 627e ed9e 5f62 079f f744 9e1f 522f 509e
00000290: 3f31 f81d 7d70 661c a2e2 cba1 8979 311c
000002a0: 1e24 f79d e134 881e 596e a41e f5df 091f
000002b0: 3c00 709f c959 3e1f 84fd 5c9e 2d67 839d
000002c0: 6176 3e1e 0e13 c81f 4a2b 161e 14af 159d
000002d0: 4425 b41e 6c9e 6f9c 3e20 839d bb72 2f1f
000002e0: 4014 a01d b5ac 2f9f a050 321d 26c0 121f
000002f0: 1c8a 039e f44e 2d1e e58b 7b9d c3fa 309d
00000300: 67c8 a838 0143 9bbb c73b c737 426e 093a
00000310: f603 7e38 8eb3 033b 8f45 c436 d305 4cb9
00000320: 191f 20b9 984a 0939 b68a 1039 d142 65ba
00000330: 6584 4c38 018f a139 56f7 69ba dfec 513b
00000340: 08a3 143a 597b f93a 4068 3ab8 feae 04bc
00000350: a2f5 8139 cf68 193c 9851 3539 9af6 a5ba
00000360: cd2e b138 e6cb 6838 d73e d6b7 968d a938
00000370: 6bfa 95b6 2fe1 1e3a e630 55b8 6d18 b7b7
00000380: b449 21ba c0a5 3b38 b68f dd39 9e8a bbb9
00000390: c97b f43b 38ca 5ab9 869e 1eba 25fb 3338
000003a0: 43eb 693b 7bf3 9db8 73fb 493a 9316 44ba
000003b0: ada5 b7b8 357f 7fbb b592 21bb d6d1 2137
000003c0: 54d1 c235 e7cd afbb 8b81 e83a 8800 a4b8
000003d0: 5058 dc38 2dbb 7c38 9d1b f1b8 8f3f 47bb
000003e0: 7c64 4138 65ad 15b9 5007 153a c213 653b
000003f0: 94d5 0cb9 4d19 3cb9 5c0f 12b7 c055 39b6

transformer_encoder.layers.0.linear1.bias f4 [128]
0.0846385 0.06577704 1.0043577e-20 -0.00037548927 0.041747417 -0.052653678 -0.015786877 0.013279415
-0.01518821 -4.106636e-07 -0.02585999 -0.00022994442 -4.5064077e-08 -0.008584723 -0.041275155 0.029714977
0.016527234 -0.02380962 -0.033591524 -5.96533e-05 0.058140993 0.06707384 -0.0001705659 -0.015300415
0.020639675 0.0861168 0.06264167 -0.014311802 -0.081041545 -0.052917894 0.04322792 -0.02699802
0.0018614789 -0.06914202 -9.560202e-10 0.011137845 0.061257944 -0.014054641 0.0053892024 -0.03631377
0.053185116 0.03441917 0.05135247 -0.036929887 -0.005258717 -0.00031153366 -0.11692341 -0.066645995
0.08058337 0.0011548096 -0.10255905 0.006058087 -6.346386e-16 -0.11328478 -6.3183827e-09 0.015911756
-0.005075734 -0.062134814 0.009561564 0.00815602 0.0037063593 0.0599073 0.060950767 -0.0035547852
-0.019485742 0.04023287 7.7237274e-33 0.022012828 0.015239343 -0.0033658831 0.04557642 -0.0054381904
0.013893022 -0.11322988 -0.021557702 -0.10648468 -0.096402735 0.00044633643 -0.017886667 5.614623e-07
0.022983452 0.0717834 -0.009365531 0.020160062 0.035782058 -0.12666859 0.055501204 0.08116559
0.008225978 0.097652234 -0.004604342 0.08851471 0.04594125 -0.099653445 0.08312352 0.0016649418
0.025609128 0.019404847 0.0042180857 0.09612341 -2.468183e-05 -0.057403527 -0.09784409 -0.05975891
1.3497922e-07 -0.06341866 -0.08558008 -0.066823855 0.0052731805 -1.3602657e-07 0.030533232 2.155564e-34
-0.045616005 -4.4992288e-05 -0.004290767 -6.187774e-15 0.02518343 0.08481192 0.011857773 -0.007852608
-0.023491455 0.033096172 -4.9137335e-12 -0.02848107 -0.012356051 0.005522711 0.07325954 -0.10089593
00000000: f356 ad3d 1db6 863d c2b7 3d1e 51dd c4b9
00000010: 57ff 2a3d 62ab 57bd 7b53 81bc e791 593c
00000020: f8d7 78bc 2d79 dcb4 54d8 d3bc 3c1d 71b9
00000030: 7a8c 41b3 f0a6 0cbc 2310 29bd d36c f33c
00000040: 1f64 873c 640c c3bc 4497 09bd 3e34 7ab8
00000050: 4025 6e3d 025e 893d efd9 32b9 98ae 7abc
00000060: 8914 a93c 015e b03d 474a 803d 0c7c 6abc
00000070: 1cf9 a5bd 6fc0 58bd c20f 313d f42a ddbc
00000080: defc f33a 559a 8dbd f864 83b0 827b 363c
00000090: 9ce9 7a3d 7045 66bc e897 b03b bfbd 14bd
000000a0: a3d8 593d 1efb 0c3d f856 523d cb43 17bd
000000b0: 5151 acbb 5755 a3b9 8a75 efbd b27d 88bd
000000c0: e508 a53d fb5c 973a 7b0a d2bd eb82 c63b
000000d0: 10ec 36a6 da01 e8bd 1519 d9b1 5f59 823c
000000e0: 5852 a6bb 1381 7ebd 1ba8 1c3c d4a0 053c
000000f0: 64e6 723b 5b61 753d 83a7 793d 66f7 68bb
00000100: 90a0 9fbc 39cb 243d 616a 200a 3f54 b43c
00000110: 70ae 793c 2696 5cbb 57ae 3a3d d932 b2bb
00000120: 8f9f 633c 11e5 e7bd c799 b0bc a414 dabd
00000130: cc6e c5bd 4302 ea39 0f87 92bc 65b7 1635
00000140: cb47 bc3c 2d03 933d e271 19bc b726 a53c
00000150: 3590 123d 69b5 01be 3b55 633d 253a a63d
00000160: 41c6 063c e5fd c73d 05e0 96bb 3347 b53d
00000170: e42c 3c3d 1b17 ccbd aa3c aa3d 2d3a da3a
00000180: 3cca d13c eaf6 9e3c de37 8a3b 5adc c43d
00000190: d40b cfb7 f61f 6bbd 7b62 c8bd c2c5 74bd
000001a0: ceee 1034 a4e1 81bd 9c44 afbd f2da 88bd
000001b0: a5ca ac3b b30e 12b4 d420 fa3c 0543 8f07
000001c0: d9d7 3abd 1ab6 3cb8 9099 8cbb 24f0 dea7
000001d0: 7b4d ce3c dfb1 ad3d 1b47 423c 3aa8 00bc
000001e0: 2771 c0bc da8f 073d fae2 acac 2251 e9bc
000001f0: 0971 4abc dcf7 b43b 1909 963d 86a2 cebd

transformer_encoder.layers.0.linear2.weight f4 [64, 128]
-0.028823799 -0.0808029 1.803997e-19 2.7472885e-05 0.0066827233 -0.024509655 0.027867235 0.028933302
-0.002364405 -3.0216608e-38 -0.051034022 2.0453974e-06 1.929098e-35 -0.013208151 -0.058758866 0.009899345
0.010464113 -0.00035507837 0.014412577 1.3982767e-06 -0.06930652 0.05363816 -5.4947004e-06 -0.019107174
-0.037776455 -0.02078337 -0.059461318 0.020534856 -0.068837255 -0.03639687 -0.06800619 0.00049026794
-0.018570652 -0.03777956 3.853539e-30 -0.017241118 0.0488995 -0.03745635 -0.09752475 -0.030207582
0.004505862 -0.017183194 0.03953945 -0.019627754 -0.018288758 -3.7414673e-06 0.013316191 0.037770066
-0.0072681676 -3.071509e-17 -0.053540207 0.050894476 5.0899556e-17 0.057544693 -9.465227e-11 -0.014596599
-8.0359016e-05 -0.0063892473 0.0010792451 -0.019862534 -0.0029129898 -0.0013955781 -0.032475524 -1.1599274e-05
-0.0011796635 -0.042573452 -1.2428373e-36 -0.009952714 -2.539884e-05 0.0012568635 0.00787591 0.00056967506
0.0013882917 -0.058217086 -0.085412264 -0.06223734 -0.044737216 0.00017896951 -0.046133544 2.71218e-08
0.0002560875 0.0038670634 0.017854393 -0.028010715 0.06950914 0.014658248 -0.008856256 0.0118110115
-0.000420342 -0.047294937 0.012203526 -0.053319287 -0.018026778 -0.036786135 0.023621855 0.0012721493
-0.004911058 0.050897595 -0.015374175 -0.04433456 -0.00014855772 0.016684992 -0.0034296436 0.011058746
-7.289146e-09 0.05292303 0.00788684 0.0338771 0.0003977725 -2.9595322e-08 -0.011122494 1.441209e-38
-0.00061432645 -4.9982347e-08 0.05299058 -4.806856e-24 4.1607564e-05 0.026325826 -0.0014835796 0.029019129
-0.023843925 -0.013635305 -3.0800943e-12 -0.03894178 0.029641896 -0.0013112577 -0.029680435 -0.022029873
0.0151071455 0.007591906 -3.050783e-20 -1.6272204e-05 0.029203217 0.025462613 -0.006347007 -0.0080011105
0.035419803 -4.5396773e-38 0.04495646 -5.943337e-06 -3.7951428e-31 -0.00891147 0.03654523 0.002275537
0.0038050876 -0.0011918506 0.068161264 -1.0329296e-05 -0.018413711 0.016261421 -7.3906685e-06 0.036477774
-0.011102649 0.025871199 -0.06798802 -0.013877914 -0.046647083 0.018893916 0.032033987 0.0049248156
-0.034561317 0.0078758085 5.343919e-16 0.048944 -0.037661392 -0.028431086 -0.040554386 -0.00921698
0.033117924 -0.039287403 -0.0115625765 0.051033963 -0.0033148883 4.921257e-37 0.026763003 -0.006304028
-0.004263912 2.350991e-17 -0.020632964 -0.010524957 1.8178488e-16 -0.06451869 4.3238743e-10 -0.0013577102
8.5881624e-08 -0.0040879236 -0.0016698621 -0.032610353 -0.022428947 -0.009385887 0.07244936 -4.129343e-08
0.013089277 0.052029137 3.728904e-39 -0.046736937 0.00062391814 0.005551111 -0.028973646 -0.00016403846
-0.04446155 -0.0030634482 0.068315 0.029951232 0.0032683057 -4.4946784e-05 0.0030012587 -4.6720565e-09
-7.2201845e-05 0.0005040491 -0.003949247 0.05367073 0.016019672 -6.347387e-05 -0.002064404 -0.014506013
-6.875988e-05 0.031616163 0.0035683129 0.01697522 0.06959271 -0.042135417 -0.04677683 0.0046819746
-0.00027616488 -0.033499423 0.035621073 0.0627855 -6.08644e-12 -0.054362208 -0.019157331 0.025956796
-5.490445e-09 0.057464685 -5.675155e-05 -0.00862083 -0.0068275006 -4.6587862e-09 0.06454074 2.8515538e-38
0.00018290986 -1.6119693e-05 0.07258409 6.095925e-27 0.0004107039 -0.048591565 0.0058781835 0.012473073
0.021450017 -0.042116806 1.3402341e-13 -0.009488295 -0.06410575 -0.012051898 -0.013775506 0.027765041
00000000: e31f ecbc fe7b a5bd 77fa 5420 9275 e637
00000010: bffa da3b 79c8 c8bc d449 e43c 8805 ed3c
00000020: 22f4 1abb ce83 2481 0d09 51bd a943 0936
00000030: 0b23 cd05 0067 58bc 23ad 70bd dd30 223c
00000040: ac71 2b3c d029 bab9 bb22 6c3c 6cac bb35
00000050: 94f0 8dbd b0b3 5b3d 1e5f b8b6 a686 9cbc
00000060: 7cbb 1abd e341 aabc b68d 73bd b738 a83c
00000070: 8cfa 8cbd e214 15bd d446 8bbd 5385 003a
00000080: 7b21 98bc bdbe 1abd 7051 9c0e 3f3d 8dbc
00000090: d84a 483d d46b 19bd 0ebb c7bd e475 f7bc
000000a0: e9a5 933b c5c3 8cbc 1ef4 213d 62ca a0bc
000000b0: 4ed2 95bc eb15 7bb6 272c 5a3c c9b4 1a3d
000000c0: cf29 eebb faa5 0da4 fa4c 5bbd ba76 503d
000000d0: 97bb 6a24 fcb3 6b3d 7e24 d0ae 9326 6fbc
000000e0: 6b86 a8b8 e45c d1bb 7575 8d3a c1b6 a2bc
000000f0: dce7 3ebb d5eb b6ba 0e05 05bd 819a 42b7
00000100: f09e 9aba 8061 2ebd 3375 d383 b510 23bc
00000110: 980f d5b7 57bd a43a f609 013c 3f56 153a
00000120: 57f7 b53a 0a75 6ebd a0ec aebd 95ec 7ebd
00000130: 5f3e 37bd c3a9 3b39 87f6 3cbd 78f9 e832
00000140: 7b43 8639 8f6e 7d3b 6043 923c ba76 e5bc
00000150: cf5a 8e3d 2629 703c d419 11bc f982 413c
00000160: 5961 dcb9 56b8 41bd 4cf1 473c 5365 5abd
00000170: e5ac 93bc 0fad 16bd 9f82 c13c 3fbe a63a
00000180: f1ec a0bb ff79 503d f7e3 7bbc 2898 35bd
00000190: 29c6 1bb9 f7ae 883c dfc3 60bb be2f 353c
000001a0: 0274 fab1 d2c5 583d ce37 013c b7c2 0a3d
000001b0: 1f8c d039 cd38 feb2 1f3b 36bc 0bef 9c00
000001c0: c00a 21ba 2cac 56b3 a70c 593d ccf4 b998
000001d0: c883 2e38 42a9 d73c ac74 c2ba 86b9 ed3c
000001e0: 5654 c3bc 9d66 5fbc 0cbe 58ac 6a81 1fbd
000001f0: 90d3 f23c 82de abba 6224 f3bc fe77 b4bc
00000200: f683 773c 86c5 f83b b411 109f 4b80 88b7
00000210: 963b ef3c f896 d03c 8efa cfbb 1717 03bc
00000220: 5b14 113d de29 7781 4424 383d e06c c7b6
00000230: a051 f68c 6a01 12bc 73b0 153d 2d21 153b
00000240: c75e 793b df37 9cba 2298 8b3d fd4b 2db7
00000250: 5ad8 96bc ac36 853c 5cfd f7b6 b869 153d
00000260: e3e7 35bc d6ef d33c 4e3d 8bbd 3160 63bc
00000270: 0311 3fbd 6ac7 9a3c 1236 033d 5960 a13b
00000280: 2b90 0dbd 8909 013c 2a07 1a26 8179 483d
00000290: d542 1abd 4fe8 e8bc 5b1c 26bd d102 17bc
000002a0: a9a6 073d d4eb 20bd f670 3dbc fd08 513d
000002b0: 993e 59bb 3276 2703 163e db3c 0592 cebb
000002c0: 49b8 8bbb 35d7 d823 7606 a9bc df70 2cbc
000002d0: 6d95 5125 6022 84bd 1fb5 ed2f 32f5 b1ba
000002e0: ec6d b833 fdf3 85bb 46df daba 6f92 05bd
000002f0: e9bc b7bc 43c7 19bc 5460 943d 9b5a 31b3
00000300: 6874 563c 811c 553d ab9a 2800 3b6f 3fbd
00000310: 708e 233a 18e6 b53b 245a edbc bd01 2cb9
00000320: 501d 36bd 22c4 48bb bce8 8b3d 495c f53c
00000330: 1231 563b 3e85 3cb8 c4b0 443b d887 a0b1
00000340: 126b 97b8 2a22 043a af68 81bb d7d5 5b3d
00000350: b03b 833c 461d 85b8 f44a 07bb a1aa 6dbc
00000360: 2e33 90b8 f37f 013d 5bda 693b 9e0f 8b3c
00000370: 9f86 8e3d 3096 2cbd 1099 3fbd 406b 993b
00000380: 39ca 90b9 b136 09bd 67e7 113d af95 803d
00000390: c725 d6ac e8aa 5ebd d6ef 9cbc 59a3 d43c
000003a0: 77a6 bcb1 1760 6b3d 8308 6eb8 623e 0dbc
000003b0: 3ab9 dfbb 1e13 a0b1 ef2d 843d dc40 1b01
000003c0: 7ecb 3f39 c738 87b7 f8a6 943d 067c f113
000003d0: bf53 d739 f307 47bd c79d c03b dc5b 4c3c
000003e0: f2b7 af3c ac82 2cbd 9ee5 162a cb74 1bbc
000003f0: e049 83bd 5375 45bc a9b2 61bc 8373 e33c

transformer_encoder.layers.0.linear2.bias f4 [64]
0.009923458 -0.00038047807 0.04348056 -0.02643127 0.009663386 -0.025772864 -0.010711888 0.008262385
0.009083709 -0.005165384 -0.019053938 0.009123628 -0.014059165 -0.011558481 0.018816255 0.0024153783
0.025910418 0.00021068574 -0.013319046 -0.0037089977 0.002678378 0.012297766 -0.034049515 -0.0030184535
-0.002346973 -0.00044634857 0.004197743 -0.004712237 0.005367771 0.00492158 0.003278066 0.025134414
-0.0050721727 -0.019613322 -0.0016656816 -0.027548106 -0.009117633 0.006978671 -0.020096896 0.0077993264
0.013046885 0.009487241 -0.009679685 -0.012967307 -0.009766776 -0.009940972 -0.007849968 -0.0051481766
-0.0033931318 -0.024699787 0.0032527277 0.0035406593 -0.016134376 0.018714294 0.028962407 0.0105287945
-0.010788797 -0.00071944384 0.017354252 0.0007914412 -0.0073550865 0.0037321923 -0.030780835 0.026523823
00000000: 0096 223c e77a c7b9 ac18 323d 6486 d8bc
00000010: 2e53 1e3c 9d21 d3bc ea80 2fbc f45e 073c
00000020: d6d3 143c 6242 a9bb 0117 9cbc 457b 153c
00000030: 6958 66bc c85f 3dbc 8c24 9a3c 534b 1e3b
00000040: 1642 d43c 86eb 5c39 2138 5abc a812 73bb
00000050: ba87 2f3b 927c 493c 8177 0bbd 3fd1 45bb
00000060: accf 19bb e403 eab9 388d 893b 1c69 9abb
00000070: 20e4 af3b 3545 a13b d2d4 563b b0e6 cd3c
00000080: 7834 a6bb 1eac a0bc 0053 daba 91ac e1bc
00000090: 2062 15bc 56ad e43b 3fa2 a4bc 7e91 ff3b
000000a0: 9ac2 553c 5f70 1b3c 8b97 1ebc d474 54bc
000000b0: d404 20bc 75df 22bc 279d 00bc 09b2 a8bb
000000c0: 4e5f 5ebb 3557 cabc b72b 553b 680a 683b
000000d0: 3d2c 84bc b84e 993c 9242 ed3c f780 2c3c
000000e0: 7fc3 30bc 0f99 3cba 812a 8e3c b878 4f3a
000000f0: f002 f1bb cc97 743b 1728 fcbc 7d48 d93c

transformer_encoder.layers.0.norm1.weight f4 [64]
0.95914876 0.930415 0.9453535 0.97354406 0.9197975 1.0210884 0.89066064 0.9434306
0.95733243 0.9572371 0.998157 1.012324 0.87673527 0.880252 0.9017408 0.9318596
0.9542909 0.98813987 1.0617375 0.9611726 0.9030659 0.9887705 0.92630184 0.9346348
0.93952644 0.79298735 0.9621323 0.8775084 0.94903183 1.003907 0.9966848 0.9486639
0.93512195 1.0085605 0.97263855 0.959991 0.91661686 0.92520154 1.0048598 0.93662906
0.9532226 0.6828227 0.85659933 0.9668006 1.0222913 0.9571244 0.9330044 0.77728355
0.81288844 1.0093347 0.88600194 0.91514516 0.8323349 1.0048225 0.9437465 0.9623499
0.8163148 1.0282542 0.99036443 0.9684275 0.9213375 0.9741403 0.8019698 0.7212713
00000000: c68a 753f ad2f 6e3f b002 723f 2f3a 793f
00000010: d977 6b3f 06b3 823f 5602 643f ab84 713f
00000020: bd13 753f 7e0d 753f 3887 7f3f d593 813f
00000030: b971 603f 3258 613f 7cd8 663f 5a8e 6e3f
00000040: 694c 743f bcf6 7c3f 04e7 873f 680f 763f
00000050: 542f 673f 1020 7d3f 1e22 6d3f 3a44 6f3f
00000060: ce84 703f 3801 4b3f 4d4e 763f 64a4 603f
00000070: c0f3 723f 0680 803f bc26 7f3f a3db 723f
00000080: 2764 6f3f 8318 813f d7fe 783f f8c1 753f
00000090: 67a7 6a3f 02da 6c3f 3f9f 803f ecc6 6f3f
000000a0: 6506 743f 78cd 2e3f 184a 5b3f 3e80 773f
000000b0: 71da 823f 1b06 753f 60d9 6e3f 0efc 463f
000000c0: 7519 503f e131 813f 06d1 623f f446 6a3f
000000d0: e613 553f 069e 803f 5f99 713f 905c 763f
000000e0: 02fa 503f d59d 833f 8688 7d3f ddea 773f
000000f0: c6dc 6b3f 4261 793f e54d 4d3f 3ca5 383f

transformer_encoder.layers.0.norm1.bias f4 [64]
-0.012923562 0.029721085 0.028656885 -0.0013769503 0.027948672 -0.05168615 0.020399243 -0.033323076
-0.010997762 0.03018935 -0.009263383 -0.062076695 0.017691221 0.03554858 0.033808634 0.030141434
0.0035322632 0.0041358043 -0.022048336 -0.024974108 -0.025218174 -0.016590947 -0.016239647 -0.012817318
0.018475648 -0.027607875 -0.029461158 -0.03057381 0.031558704 0.013958742 0.034823604 -0.025008276
-0.034171894 0.045014657 0.010584576 -0.00517806 -0.0552581 0.013394059 0.0279601 -0.035112374
-0.016821291 -0.108722016 0.061221708 -0.004568085 0.044452008 0.004778424 -0.026972352 0.017224971
-0.04175406 0.03791784 0.04517219 0.006806879 0.025044 -0.039779395 -0.015485514 -0.004075838
0.032082386 0.02282768 -0.01856221 0.013203949 0.011824419 0.030774033 0.0052241725 -0.014295362
00000000: 59bd 53bc a279 f33c d8c1 ea3c c97a b4ba
00000010: 9df4 e43c dbb4 53bd 501c a73c c77d 08bd
00000020: f52f 34bc a84f f73c 72c5 17bc 2244 7ebd
00000030: 2eed 903c 639b 113d ec7a 0a3d 2beb f63c
00000040: 8b7d 673b a485 873b b69e b4bc 8096 ccbc
00000050: 5896 cebc bde9 87bc 0209 85bc baff 51bc
00000060: 3e5a 973c e929 e2bc 8758 f1bc ed75 fabc
00000070: b343 013d 35b3 643c 32a3 0e3d 28de ccbc
00000080: d4f7 0bbd 4a61 383d ee6a 2d3c b7ac a9bb
00000090: 5156 62bd c172 5b3c 940c e53c fed1 0fbd
000000a0: cecc 89bc a6a9 debd 9dc3 7a3d e0af 95bb
000000b0: 4f13 363d 5394 9c3b 1ff5 dcbc 621b 8d3c
000000c0: 4e06 2bbd bd4f 1b3d 7906 393d 3d0c df3b
000000d0: 1329 cd3c b8ef 22bd f4b6 7dbc 9b8e 85bb
000000e0: d268 033d 1d01 bb3c c70f 98bc 6055 583c
000000f0: 35bb 413c d319 fc3c 892f ab3b 1837 6abc

transformer_encoder.layers.0.norm2.weight f4 [64]
0.96889466 0.9351047 0.9414898 0.96282965 0.92618 1.0270534 0.83976644 0.92923295
0.94231474 0.9659262 0.9972055 1.0268619 0.85014445 0.86449504 0.9348566 0.9200634
0.95282763 0.95809394 1.0356964 0.945914 0.94404185 0.99475116 0.8873042 0.9620847
0.94031 0.7891267 0.9404403 0.8825629 0.94648826 1.0050799 0.94271356 0.9364184
0.9458679 0.9664295 0.9960238 0.9506651 0.93767965 0.8525352 1.0106666 0.94879794
0.9551979 0.90751165 0.85772127 0.9483813 0.98669916 0.9515187 0.87900555 0.6935688
0.7770224 1.0113573 0.8925044 0.89537674 0.8411775 0.97087806 0.92512614 0.9615717
0.88012975 1.0035423 0.9765609 0.9586673 0.9208336 0.9825386 0.77788365 0.7902532
00000000: 7b09 783f 0663 6f3f 7a05 713f 017c 763f
00000010: 221a 6d3f 7c76 833f effa 563f 36e2 6d3f
00000020: 8a3b 713f f046 773f dc48 7f3f 3670 833f
00000030: 11a3 593f 8c4f 5d3f c352 6f3f 4689 6b3f
00000040: 83ec 733f a545 753f b391 843f 6b27 723f
00000050: baac 713f 03a8 7e3f 5e26 633f 2f4b 763f
00000060: 28b8 703f 3504 4a3f b2c0 703f a4ef 613f
00000070: 0e4d 723f 75a6 803f ad55 713f 1eb9 6f3f
00000080: 6624 723f ec67 773f 6afb 7e3f ca5e 733f
00000090: c60b 703f bf3f 5a3f 865d 813f 6ce4 723f
000000a0: d987 743f af52 683f 9f93 5b3f 1ec9 723f
000000b0: 5198 7c3f bb96 733f 8206 613f ba8d 313f
000000c0: f1ea 463f 2874 813f 2b7b 643f 6937 653f
000000d0: 6957 573f 778b 783f 11d5 6c3f 9029 763f
000000e0: 2f50 613f 1374 803f e5ff 793f 386b 753f
000000f0: c0bb 6b3f a687 7b3f 6223 473f 094e 4a3f

transformer_encoder.layers.0.norm2.bias f4 [64]
-0.030517166 0.02264152 0.01956075 -0.0052610924 0.030447377 -0.06109339 0.021403102 -0.026892483
-0.015052898 0.017942779 -0.017158275 -0.076153085 0.024071826 0.027331559 0.035219632 0.024116432
0.01427382 0.0022408366 -0.032338925 -0.02857635 -0.0045905774 -0.024393352 -0.013347087 0.0042566825
0.01012825 -0.025592498 -0.046775687 -0.037049603 0.029024804 0.00889328 0.04523188 -0.028077161
-0.024006428 0.031638175 0.03177896 0.0028527393 -0.0351478 0.0073539945 0.031750225 -0.030023128
-0.0070399554 -0.080281906 0.045134846 0.0004215292 0.05449442 0.019088497 -0.028102169 0.02100849
-0.05095057 0.04031342 0.032844357 0.019513907 0.01408979 -0.030728377 -0.015646175 0.012618944
0.027134154 0.026663924 -0.024039358 0.013199925 0.020436438 0.037027407 0.001232142 -0.016113827
00000000: 23ff f9bc b57a b93c de3d a03c 3e65 acbb
00000010: c76c f93c 103d 7abd 8f55 af3c a04d dcbc
00000020: 6ea0 76bc bcfc 923c 838f 8cbc 26f6 9bbd
00000030: 4732 c53c 6fe6 df3c 7642 103d d38f c53c
00000040: bedc 693c 00db 123b d275 04bd f318 eabc
00000050: 8e6c 96bb 91d4 c7bc bead 5abc a47b 8b3b
00000060: f6f0 253c 5ca7 d1bc dd97 3fbd 53c1 17bd
00000070: 6dc5 ed3c 1fb5 113c 1045 393d 1302 e6bc
00000080: 21a9 c4bc 0897 013d a82a 023d 06f5 3a3b
00000090: 24f7 0fbd c7f9 f03b 860c 023d 10f3 f5bc
000000a0: 6daf e6bb d76a a4bd 51df 383d b100 dd39
000000b0: 8a35 5f3d 7b5f 9c3c 8536 e6bc ff19 ac3c
000000c0: 8bb1 50bd af1f 253d ce87 063d a1db 9f3c
000000d0: ddd8 663c 14ba fbbc 682c 80bc b0bf 4e3c
000000e0: 7248 de3c 4d6e da3c 30ee c4bc 8044 583c
000000f0: 516a a73c 0daa 173d d37f a13a 2501 84bc
