models/autoencoder/transformer_model.pt (torch, 216841 bytes, 28 tensors)

pos_embedding f4 [1, 150, 48]
0	0x3d7b1107	0.061295535
1	0x3f81da2c	1.0144706
2	0x3e3c893d	0.18411727
3	0x3e06501a	0.13116494
4	0x3df7b574	0.12095156
5	0x3abf3a87	0.0014589586
6	0xbdab7a13	-0.08372893
7	0x3ecdfbda	0.4023121
8	0x3d98c37e	0.07459162
9	0x3f8b519c	1.088428
10	0x3f74fa57	0.9569449
11	0xbe39bdac	-0.1813876
12	0xbf6f0b69	-0.93376786
13	0xbd746326	-0.059664868
14	0xbe5bc966	-0.21463546
15	0x3da53a74	0.0806779
16	0x3e11b704	0.14229971
17	0xbcb0c9c9	-0.021580594
18	0xbee06947	-0.4383032
19	0xbf35062f	-0.7071256
20	0xbd0a7d50	-0.033810914
21	0xbe3ea119	-0.18616141
22	0x3bdbdb2e	0.006709478
23	0x3db56980	0.08858013
24	0x3e73e5f5	0.2381819
25	0x3c20045e	0.009766666
26	0xbda2e4fb	-0.07953831
27	0xbf3a40fc	-0.7275541
28	0xbe17a1d8	-0.14807832
29	0x3edfd300	0.43715668
30	0xbea2c28c	-0.31789052
31	0xbe900e0a	-0.2813571
32	0xbf819871	-1.0124646
33	0x3d8ca547	0.06867462
34	0xbe564d97	-0.20928036
35	0xbc3be6bf	-0.011468588
36	0xbf074519	-0.5283981
37	0x3cc12039	0.023574935
38	0x3e9c82aa	0.3056844
39	0x3e2cc99f	0.16873787
40	0xbe8ffbe5	-0.28121868
41	0x3fa0a25d	1.2549549
42	0x3f2bea72	0.6715461
43	0xbd869d63	-0.06572988
44	0x3d3d85cd	0.04627018
45	0x3dcd6851	0.100296624
46	0x3e6a98ce	0.22909853
47	0x3d81e022	0.06341578
48	0x3ed49b59	0.4152477
49	0xbd8f828f	-0.07007324
50	0x3dd56cad	0.10421119
51	0x3e23d07b	0.15997498
52	0xbf072189	-0.52785546
53	0xbf1fa7b7	-0.6236529
54	0x3e8d4ee9	0.27599266
55	0xbddd4433	-0.108040236
56	0x3e544669	0.20729984
57	0x3d15fd7f	0.036618706
58	0x3ee374d4	0.4442507
59	0x3f86f3f9	1.0543205
60	0x3dd02a5f	0.10164332
61	0x3ee2a266	0.44264525
62	0xbe0fd13f	-0.14044665
63	0x3e4daa34	0.20084459
64	0x3f2a4dd7	0.66525024
65	0x3c36d2d2	0.011158662
66	0xbebc22bf	-0.3674526
67	0xbeb41417	-0.35171577
68	0x3e0c88fb	0.13724129
69	0x3cb7e022	0.022445742
70	0x3d8a0935	0.06740037
71	0xbf29820a	-0.6621405
72	0xbf055ff7	-0.52099556
73	0x3d83084c	0.06398067
74	0x3f98bd66	1.19328
75	0xbee8137b	-0.45327362
76	0xbc886faa	-0.016654808
77	0x3edeecbb	0.43539986
78	0xbd0f1223	-0.034929406
79	0xbf82427c	-1.017654
80	0x3f0d51d6	0.55202997
81	0xbd81a0a5	-0.06329469
82	0xbdb9ac45	-0.09066061
83	0xbd01c8c4	-0.031685606
84	0x3e9514f2	0.29117543
85	0x3cd65272	0.02616236
86	0x3ebf11e6	0.37318343
87	0x3d0b933b	0.034075957
88	0x3cdaa42c	0.026689611
89	0xbebc0594	-0.36723006
90	0x3f29f42d	0.6638821
91	0xbf3e57f4	-0.74352956
92	0x3d32b7bf	0.043632265
93	0xbf8505c3	-1.0392383
94	0x3f7f3d91	0.9970332
95	0x3ec401b3	0.38282546
96	0x3bc774d5	0.0060869255
97	0xbf3a65cb	-0.72811574
98	0xbf8e609b	-1.1123232
99	0x3fd1236b	1.6338934
100	0x3e87e1cc	0.26539457
101	0xbf75c9ec	-0.96011233
102	0x3cc3524b	0.023842951
103	0xbdf2e797	-0.118605785
104	0xbd7cbe20	-0.061704755
105	0xbf33cc69	-0.7023378
106	0x3f9c4afa	1.2210381
107	0xbe8eb43a	-0.27871877
108	0x3f92db6f	1.1473216
109	0x3e0508cd	0.12991638
110	0x3c9cda78	0.019147143
111	0x3dca1963	0.098681234
112	0x3c3fc353	0.011704284
113	0xbc4da216	-0.012550851
114	0x3c3c4c04	0.011492733
115	0xbd72b94a	-0.059258737
116	0x3f645794	0.89196134
117	0xbe0efd3a	-0.13963786
118	0x3bdd658d	0.0067564906
119	0x3d15f6e8	0.03661242
120	0xbdc73258	-0.09726399
121	0x3ee07aea	0.43843776
122	0xbe8ae144	-0.2712499
123	0x3bdff3fa	0.006834504
124	0x3f04fc37	0.5194735
125	0xbe4fdf65	-0.20300062
126	0xbbc7eadf	-0.006100997
127	0xbfa2dec4	-1.2724233
128	0xbb053527	-0.002032587
129	0xbf154fe0	-0.58325005
130	0xbe853d5a	-0.2602337
131	0x3c8ffb96	0.01757602
132	0xbeaeff4e	-0.34179157
133	0x3eead8ed	0.45868626
134	0x3d8b08e7	0.06788807
135	0x3d58c676	0.052923642
136	0xbeb55cd5	-0.35422388
137	0xbeacf3ee	-0.33779854
138	0xbddc514e	-0.10757695
139	0x3ba4b9c4	0.005027028
140	0x3f7c0a20	0.9845295
141	0x3e5ade5c	0.21373886
142	0x3ebd9375	0.37026563
143	0x3de0ca45	0.1097608
144	0xbf10d88d	-0.5658043
145	0x3c4ba757	0.012430034
146	0xbe6c3c92	-0.2306998
147	0x3f0ae5ab	0.54256696
148	0xbf655d10	-0.8959513
149	0xbcab54ec	-0.020914517
150	0xbeb467d5	-0.35235468
151	0x3f5297e2	0.82263005
152	0xbf931ea8	-1.149373
153	0xbf9cfa9d	-1.2263981
154	0xbe8b6654	-0.27226508
155	0xbdf58a79	-0.11989302
156	0x3c25c797	0.010118387
157	0xbfb563a5	-1.4171034
158	0xbdff2251	-0.12457717
159	0xbd3d6ff7	-0.046249356
160	0xbd2767d6	-0.04087051
161	0xbd000051	-0.0312503
162	0xbeb6d89a	-0.3571213
163	0x3d15544e	0.036457352
164	0xbf8aad32	-1.0834105
165	0xbd760ad5	-0.060068924
166	0x3e961484	0.29312527
167	0xbc8443e6	-0.016145658
168	0x3b238ee1	0.0024956989
169	0xbf914197	-1.1348141
170	0xbf84c217	-1.0371732
171	0xbfa6d35f	-1.3033255
172	0xbe614668	-0.21999514
173	0x3e3673c7	0.17817603
174	0xbf206d1b	-0.6266648
175	0xbf6a2673	-0.9146492
176	0xbda81345	-0.082068
177	0xbd2a0168	-0.041505247
178	0xbfcf0706	-1.6174018
179	0xbc29e1b2	-0.010368751
180	0xbc87c48f	-0.016573219
181	0xbe90747f	-0.2821388
182	0xbda45671	-0.080243
183	0xbf4fa6bd	-0.811138
184	0x3c7a8090	0.015289441
185	0x3ba238aa	0.0049506025
186	0x3f38945c	0.7210138
187	0xbddf5f6d	-0.10906873
188	0x3fd64780	1.674057
189	0x3e385bb7	0.18003736
190	0xbb991773	-0.004671985
191	0x3f8f1cf0	1.1180706
192	0x3c19d0c7	0.009388155
193	0x3d8f49c7	0.06996494
194	0x3c94510c	0.018105052
195	0xbd041de5	-0.032255072
196	0x3e0408f9	0.12894048
197	0x3cc980ac	0.024597488
198	0x3e9829cb	0.29719386
199	0xbdc4c03e	-0.0960698
200	0x3e800987	0.2500727
201	0xbd5b999a	-0.053613283
202	0xbe1032d7	-0.14081894
203	0xbf42dea3	-0.76120967
204	0xbc3a1d5a	-0.011359537
205	0xbcec8465	-0.028871724
206	0x3dad8c50	0.08474028
207	0xbd0a8a39	-0.033823226
208	0x3d8b158c	0.06791219
209	0xbd6eb050	-0.058273613
210	0x3da12668	0.078686535
211	0xbe98ee7d	-0.29869452
212	0xbdf7001b	-0.12060567
213	0xbe1ea2e2	-0.15491822
214	0x3df189b1	0.11793841
215	0xbe00385c	-0.125215
216	0xbf861324	-1.0474591
217	0x3f849e22	1.0360758
218	0xbcbbc5ba	-0.022921432
219	0xbeb5388d	-0.35394707
220	0x3b9568e2	0.004559622
221	0x3e622f5d	0.2208838
222	0xbe58f24b	-0.21186177
223	0x3f4643d4	0.7744725
224	0xbf77c9ae	-0.96792114
225	0x3ba91ab5	0.0051606544
226	0xbd716071	-0.058929864
227	0xbf1a05c6	-0.6016506
228	0xbe835265	-0.256488
229	0xbef47119	-0.47742537
230	0x3da343a5	0.079718865
231	0x3f6b4c7a	0.9191357
232	0x3ee9eba4	0.45687592
233	0x3c5165f5	0.012780656
234	0xbeddaece	-0.43297428
235	0x3ee1b66d	0.44084492
236	0xbc9bec6c	-0.019033633
237	0x3f845344	1.0337911
238	0x3fde9d63	1.7391781
239	0xbe40e759	-0.18838252
240	0x3eaaa8d0	0.3333192
241	0x3ea28758	0.31743884
242	0x3c547b05	0.012968783
243	0xbe1d3078	-0.1535052
244	0x3d2089ca	0.039193906
245	0xba954fee	-0.0011391619
246	0xbfe2a767	-1.7707337
247	0x3f1a5f5a	0.60301745
248	0xbf1acce0	-0.60468864
249	0xbe2bf655	-0.16793187
250	0xbd5b2b8d	-0.05350833
251	0xbe850ada	-0.25984842
252	0xbd88b11b	-0.06674405
253	0x3d9d1f27	0.076719575
254	0x3d7d1bd6	0.061794125
255	0x3db343d1	0.08753169

input_projection.weight f4 [48, 1]
0	0xbd898b5a	-0.06716032
1	0xbd1a329f	-0.037645932
2	0xbd9a6d99	-0.07540435
3	0x3de50f04	0.11184505
4	0x3f71d992	0.9447261
5	0xbf0a05e9	-0.5391527
6	0xbf6c19c8	-0.9222684
7	0xbed5bb37	-0.41744396
8	0x3ee170c4	0.44031346
9	0xbf1f8c6e	-0.62323654
10	0xbf2f6e02	-0.68527234
11	0x3f872061	1.0556756
12	0x3e8ce89f	0.27521226
13	0xbec182a9	-0.37794998
14	0x3f74a994	0.95571256
15	0xbebe71ee	-0.37196296
16	0x3f6a05ff	0.914154
17	0xbc11050c	-0.008851301
18	0x3f8042ee	1.0020425
19	0x3dabeda1	0.083949335
20	0xbf82d687	-1.0221719
21	0xbf6dba1e	-0.9286212
22	0x3e0f760c	0.14009875
23	0xbf7af072	-0.9802314
24	0x3e25d88e	0.1619589
25	0x3f47e947	0.7809033
26	0xbe9490fe	-0.2901687
27	0x3f68d5c1	0.9095116
28	0xbf1ea9b3	-0.6197769
29	0xbf83d9a7	-1.0300797
30	0xbe571c03	-0.2100678
31	0xbf7694fa	-0.9632107
32	0xbecbf363	-0.39834127
33	0xbebc7366	-0.36806792
34	0xbe9e146e	-0.30874962
35	0x3ee037eb	0.43792662
36	0xbf2e7ddc	-0.68160796
37	0xbf3f7f95	-0.7480405
38	0x3f7e78c0	0.99403
39	0xbf6831c4	-0.90700936
40	0xbec30870	-0.38092375
41	0xbe78a927	-0.24283276
42	0xbf45345a	-0.7703301
43	0xbf277482	-0.6541215
44	0xbf59dfd5	-0.85107166
45	0x3f62e6d0	0.8863344
46	0xbc5fa944	-0.013651196
47	0x3eaf3225	0.34217945

input_projection.bias f4 [48]
0	0xbf1a473f	-0.6026496
1	0xbe895a63	-0.26826772
2	0x3ea945b6	0.33060998
3	0xbed7f5f7	-0.42179844
4	0xbe889927	-0.26679346
5	0xbf558ee5	-0.83421165
6	0xbd24b603	-0.040212642
7	0x3f0eb53c	0.5574529
8	0x3f4b10df	0.7932262
9	0xbf6c5b8f	-0.9232721
10	0x3f239af6	0.63908327
11	0xbf1e8365	-0.6191924
12	0x3f5eaad0	0.8697939
13	0xbf3af47f	-0.7302932
14	0xbdc8697d	-0.09785745
15	0x3f3d293c	0.73891044
16	0x3f4b3044	0.7937052
17	0xbf37c7a7	-0.7178902
18	0x3ed1ae69	0.40953377
19	0x3f5b9c4b	0.8578536
20	0xbf0a6ac0	-0.5406914
21	0x3e4de3a4	0.2010637
22	0xbec0dd23	-0.37668714
23	0x3f1e19cd	0.6175812
24	0xbedcf043	-0.43152055
25	0x3f1538b6	0.5828966
26	0xbecfd3e7	-0.40591356
27	0x3ef1a566	0.47196501
28	0xbe81259d	-0.2522401
29	0x3f53bde5	0.8271163
30	0x3e032480	0.12806892
31	0xbe39c2c3	-0.18140702
32	0x3e8256b4	0.25456774
33	0xbeaed772	-0.34148747
34	0xbf60ce20	-0.8781452
35	0x3f0d01be	0.55080783
36	0x3ef9272a	0.48662692
37	0xbf2a8896	-0.66614664
38	0xbf015bd2	-0.5053073
39	0x3f3f6049	0.74756294
40	0xbe3d6c50	-0.18498349
41	0xbf73e340	-0.9526863
42	0xbf2acfe2	-0.66723454
43	0x3f7bd861	0.98377043
44	0xbf5ac65a	-0.8545891
45	0x3c535408	0.012898453
46	0xbe804bc1	-0.25057796
47	0xbf3b8984	-0.7325671

transformer_encoder.layers.0.self_attn.in_proj_weight f4 [144, 48]
0	0xbbfb08c7	-0.0076609585
1	0xbc52c936	-0.012865355
2	0x39841cb9	0.00025198402
3	0xbd0aa0fd	-0.033844937
4	0xbdb00710	-0.08595097
5	0x3dbc46f9	0.091932245
6	0x3da6be73	0.08141794
7	0xbc952839	-0.018207656
8	0xbc17fcf5	-0.009276618
9	0x3dd8b279	0.10580916
10	0x3d9ca9aa	0.07649548
11	0xbdb17421	-0.08664728
12	0xbd7959ec	-0.06087677
13	0x3c0d5f79	0.0086287195
14	0xbcb479e7	-0.022030784
15	0x3d50a571	0.050939027
16	0xbdb8a986	-0.09016709
17	0xbb89eb85	-0.0042089843
18	0xbc39867c	-0.0113235675
19	0x3cb00b2f	0.021489708
20	0xbc0b30d3	-0.008495527
21	0x3d98c375	0.074591555
22	0xbc69f231	-0.014278934
23	0x3c9a76f1	0.018855544
24	0xbbd8b3bb	-0.0066132224
25	0xbd778eff	-0.060439106
26	0x3c8fd205	0.0175562
27	0x3d553625	0.05205359
28	0x3d4ac845	0.0495074
29	0x3cf36600	0.029711723
30	0xbbe266df	-0.006909236
31	0x3dad60bb	0.084657155
32	0xbc227519	-0.009915614
33	0x3d1b9fe8	0.037994295
34	0xbd4103fd	-0.047122944
35	0xbd2268bd	-0.039650667
36	0x3c41115a	0.011783922
37	0x3bb173cf	0.005415417
38	0xbda36f94	-0.07980266
39	0x3d2728f9	0.04081056
40	0xbc710074	-0.014709581
41	0x3dcb3028	0.099212945
42	0x3df8e726	0.12153463
43	0x3d072c7a	0.0330014
44	0x3d73f1fe	0.059556954
45	0xbae6503f	-0.0017571523
46	0xbca57c1f	-0.020200787
47	0x3cd97535	0.026545146
48	0xbcc6bd1f	-0.024260102
49	0xbbf797a7	-0.00755592
50	0x3b7e1391	0.0038768987
51	0x3bbf40ba	0.0058365734
52	0xbd448b96	-0.047984682
53	0x3d768479	0.06018493
54	0xbca51e84	-0.020156153
55	0x3c1982bc	0.009369548
56	0xbda2468f	-0.07923614
57	0x3db53436	0.08847849
58	0x3d064507	0.032780673
59	0xbd503959	-0.05083594
60	0x3c8f29f8	0.017476067
61	0xbcf51688	-0.02991797
62	0x3d00ad80	0.031415462
63	0x3cb0a01e	0.021560725
64	0xbdd3a2b5	-0.10333768
65	0xbcf3dc62	-0.029768173
66	0x3d01c35d	0.031680454
67	0x3c9a3041	0.018821837
68	0x3d22257b	0.039586525
69	0x3c0f1c84	0.008734826
70	0xbb72697d	-0.0036989145
71	0x3cc6670b	0.024219057
72	0xbc8712cd	-0.016488457
73	0x3d469974	0.048486188
74	0xbca2c051	-0.019867094
75	0xbd57f10a	-0.052720107
76	0x3d8dffff	0.06933593
77	0x3c9be7e3	0.01903147
78	0xbb25694d	-0.0025239766
79	0x3db17679	0.08665175
80	0xbbdddea1	-0.006770924
81	0x3b91b5bc	0.0044467133
82	0xbce3dd42	-0.027815465
83	0x3b06f343	0.0020591773
84	0x3c29ace2	0.01035616
85	0x3c4c4729	0.012468138
86	0xbd366cb1	-0.04453725
87	0x3ce66134	0.028122522
88	0xbcaf2aca	-0.021382708
89	0x3d927170	0.07150543
90	0x3d8daf18	0.06918162
91	0xbc71580b	-0.014730464
92	0x3c87f83c	0.01659786
93	0xbd8a94f5	-0.067666925
94	0xbcbccd82	-0.023047213
95	0xbc718bde	-0.01474282
96	0x3c90921e	0.0176478
97	0x3c01513a	0.007892901
98	0x3c1f7906	0.009733444
99	0xbd445582	-0.04793311
100	0xbd4464a5	-0.047947545
101	0x3d3c4315	0.045962412
102	0x3da8fff0	0.08251941
103	0xbaf3c9b6	-0.0018599543
104	0xbd7a96e4	-0.061179057
105	0xbd8650cd	-0.0655838
106	0x3d80e786	0.062941596
107	0xbd5982aa	-0.053103127
108	0x3cc44f59	0.023963617
109	0x3c7f9f85	0.015601997
110	0x3c8f8792	0.0175207
111	0x3d8654b7	0.06559127
112	0x3d25c3a4	0.04046978
113	0x3c86003e	0.016357537
114	0xbdd6bbf6	-0.104850695
115	0x3b4c9d2b	0.003122161
116	0x3d0f4392	0.03497655
117	0x3c6ad05c	0.014331903
118	0xbcb0013e	-0.021484967
119	0x3bfd554c	0.0077311154
120	0xbb31e3c5	-0.0027143818
121	0xbc7bb857	-0.015363774
122	0xbbbe3e7e	-0.0058057895
123	0x3c1f48f8	0.009721987
124	0xbc7f8d78	-0.015597694
125	0x3cb5ec4a	0.022207398
126	0xbc04ab48	-0.008097477
127	0x3c320325	0.0108650075
128	0xbc0ba088	-0.00852216
129	0x3ba05a54	0.0048935805
130	0x3cadadd2	0.021201048
131	0xb726e992	-9.948753e-06
132	0x3c2118f8	0.009832613
133	0x3c62b4dc	0.013837066
134	0xbd7d770e	-0.061881118
135	0x3d042bf0	0.032268465
136	0xba30a204	-0.00067380094
137	0x3d2b357b	0.04179905
138	0x3d9283a9	0.071540184
139	0xbc8fe6a6	-0.017566036
140	0x3dd78a35	0.10524408
141	0xbd43d794	-0.047813013
142	0xbccac84b	-0.02475371
143	0xbc3ae1c2	-0.011406364
144	0xbe0e4726	-0.13894328
145	0xbcf9a221	-0.030472817
146	0x3c9e058f	0.01928976
147	0x3d92965c	0.07157585
148	0x3dbd3bc5	0.09239916
149	0xbe05e253	-0.13074617
150	0xbca2c14f	-0.019867567
151	0x3c8c9211	0.017159494
152	0x3d3861cf	0.045015153
153	0x3dca1abe	0.09868382
154	0xbe2ccae9	-0.16874279
155	0x3dd3c22a	0.10339768
156	0x3e0712ef	0.13190816
157	0x3dbfc766	0.09364204
158	0xbcff5708	-0.03116943
159	0xbdebb15a	-0.115084365
160	0x3ccc8aa2	0.024968449
161	0xbcd8d9c0	-0.026471019
162	0x3d5b346a	0.053516783
163	0x3de3dca6	0.1112607
164	0xbe1af941	-0.15134145
165	0xbdb2be24	-0.08727673
166	0x3cba8d9d	0.022772605
167	0xbd860a17	-0.06544893
168	0xbd794482	-0.06085635
169	0x3df9f64a	0.12205179
170	0xbdc0ac98	-0.0940792
171	0xbcf9ff7a	-0.030517329
172	0xbdcd6be0	-0.10030341
173	0xbd3e4364	-0.046450987
174	0x3c8641fc	0.016388886
175	0xbdf26e08	-0.11837393
176	0x3cf3751a	0.029718924
177	0xbceb2d07	-0.028707994
178	0x3c0a322e	0.008434815
179	0xbd0041f2	-0.03131289
180	0xbd09f579	-0.033681367
181	0xbcb3c5ae	-0.021944847
182	0x3dec835c	0.11548492
183	0xbd977f08	-0.07397276
184	0xbdcc8056	-0.09985416
185	0xbcd4d28b	-0.025979301
186	0xbe160236	-0.14649281
187	0x39a6a185	0.0003178233
188	0xbe0393cf	-0.12849353
189	0xbbcce82d	-0.0062532634
190	0x3c0b36f9	0.008496993
191	0xbd221bd3	-0.039577316
192	0x3d198ee6	0.037489794
193	0xbc825b40	-0.015912652
194	0xbc04d4d4	-0.008107383
195	0x3cfe5aba	0.031049121
196	0xbd305f44	-0.043059602
197	0xbdef8605	-0.11695484
198	0xbd1da452	-0.038486786
199	0xbc7b643b	-0.015343721
200	0xbb48bd2c	-0.0030630333
201	0xbcedfedd	-0.029052192
202	0x3d8157df	0.06315588
203	0xbd6fc1ae	-0.058534317
204	0xbd9607c1	-0.07325698
205	0xbd34f635	-0.044180114
206	0x3d0a5b05	0.03377821
207	0x3d7b635b	0.06137405
208	0x3d0fed50	0.03513843
209	0xbcfe9a2b	-0.031079372
210	0xbdb0d6e2	-0.08634736
211	0xbd10bd2d	-0.035336662
212	0x3d7cc67f	0.061712738
213	0xbccea96b	-0.02522727
214	0xbc098e32	-0.008395718
215	0x3d4922ce	0.049105458
216	0xbcf6b712	-0.030116592
217	0x3c6511da	0.013981307
218	0x3c017cf4	0.007903326
219	0xbdb04602	-0.08607103
220	0x3d990dda	0.07473345
221	0x3cfdbc8a	0.030973691
222	0x37d0c0ec	2.4885368e-05
223	0x3db1310d	0.08651934
224	0xbc205f0a	-0.009788284
225	0x3d7144f5	0.058903653
226	0xbce819a7	-0.028332544
227	0xbdd9be3d	-0.10631988
228	0x3c1bb0bd	0.009502587
229	0x3d958ae1	0.0730188
230	0xbd1cbf85	-0.038268585
231	0x3d0ed2ca	0.034868993
232	0xbd434750	-0.04767543
233	0xbdccb097	-0.09994619
234	0x3c1dfcd1	0.009642796
235	0x3d75a1e5	0.059968848
236	0x3c86df4d	0.0164639
237	0xbd427724	-0.047476903
238	0xbcb84cd7	-0.022497578
239	0x3cc9482b	0.024570545
240	0x3c8c6333	0.017137146
241	0x3caa6f8b	0.020805141
242	0x3c2918e2	0.010320874
243	0xbd6b45ae	-0.0574395
244	0xbd4cce20	-0.050001264
245	0x3debc47c	0.11512086
246	0x3cd5f8c7	0.026119603
247	0xbca89a1c	-0.020581298
248	0x3d2b32da	0.041796543
249	0x3d1cded3	0.03829844
250	0x3d832953	0.06404366
251	0xbd5ba0b1	-0.053620044
252	0x3c4a11f7	0.012333385
253	0xbc613ca8	-0.013747372
254	0x3c85e1a2	0.016342942
255	0x3d0fdd9f	0.035123464

transformer_encoder.layers.0.self_attn.in_proj_bias f4 [144]
0	0x3c2d0d6f	0.010562285
1	0x3b98a1ea	0.0046579735
2	0x3c811a8e	0.015759733
3	0xbc9f59da	-0.019452024
4	0x3c5da5ea	0.0135283265
5	0x3bacad7d	0.005269705
6	0xba64081a	-0.0008698717
7	0xbcc0debc	-0.023543708
8	0xbcd08321	-0.025453152
9	0x3c20e664	0.009820554
10	0xbc4ac66f	-0.012376412
11	0xbcca2af6	-0.024678688
12	0xbbf5258c	-0.0074812826
13	0x3c861fac	0.016372524
14	0xbb8d8b73	-0.004319602
15	0xbc3a0558	-0.011353813
16	0x3bf1997d	0.0073730336
17	0xbbb62b14	-0.0055593345
18	0xbc880c26	-0.016607355
19	0xbcd137d3	-0.025539314
20	0xbcde0b0e	-0.02710488
21	0x3c192380	0.009346843
22	0xbca892a1	-0.02057773
23	0xbc453edc	-0.012038913
24	0x3989b791	0.00026267444
25	0xbba842cd	-0.0051349164
26	0x3c6cd307	0.01445461
27	0x3d003da4	0.031308785
28	0x3c1b4805	0.00947762
29	0x3c45b2f6	0.012066593
30	0x3b861a15	0.0040924647
31	0x3c15f958	0.009153686
32	0x3c17918e	0.009251012
33	0x3c685fb6	0.0141829755
34	0xbcc75e75	-0.024337033
35	0xbb8d409e	-0.0043106815
36	0x3c195ae6	0.009360051
37	0x3c1559df	0.009115665
38	0x3c85c9e4	0.01633162
39	0xbbc5e131	-0.006038808
40	0xbb632a83	-0.003466279
41	0x3b2aef9c	0.002608276
42	0x3c82533a	0.015908826
43	0xbbc6d25b	-0.006067557
44	0xbbe8e67a	-0.007107553
45	0x3b8f25a0	0.004368499
46	0x3c0c30de	0.008556573
47	0xbc9c6b03	-0.019093996
48	0x3389ae75	6.411293e-08
49	0x322e59c9	1.0148548e-08
50	0xb386ed87	-6.283067e-08
51	0xafb75480	-3.3347547e-10
52	0xb1891b52	-3.9903307e-09
53	0x33d7e0c4	1.0052602e-07
54	0x32f733f7	2.8778215e-08
55	0xb3666be1	-5.3649163e-08
56	0x326a73b4	1.36469005e-08
57	0xb384cfda	-6.184537e-08
58	0x3355a21a	4.9740358e-08
59	0xb31bdd86	-3.6290224e-08
60	0x32e827bd	2.7026426e-08
61	0xb339d31a	-4.3265665e-08
62	0xb2972cdd	-1.7599115e-08
63	0x320dbdda	8.250447e-09
64	0xb210195e	-8.387671e-09
65	0x32c47c91	2.287405e-08
66	0x321e1104	9.200679e-09
67	0xb2a46d9c	-1.9141957e-08
68	0x3289df18	1.605035e-08
69	0xb3161ebf	-3.495256e-08
70	0xb2e79925	-2.6961581e-08
71	0x329df368	1.8387894e-08
72	0xb1a5a2ba	-4.820632e-09
73	0xb26a635e	-1.3643186e-08
74	0xb3dcc361	-1.02800875e-07
75	0xb3f4bdf6	-1.1396689e-07
76	0xb3c1eae2	-9.029988e-08
77	0x30650008	8.330976e-10
78	0x325ddbf2	1.2913903e-08
79	0xb314cc66	-3.4644835e-08
80	0xb40f677e	-1.3355563e-07
81	0x32141b94	8.621004e-09
82	0x338b0ee0	6.4753976e-08
83	0xb2f433ac	-2.8428836e-08
84	0xb20355fa	-7.644752e-09
85	0xb2a56948	-1.9256404e-08
86	0x2e0aed58	3.158837e-11
87	0xb16f460d	-3.4818897e-09
88	0x31eda662	6.9165234e-09
89	0xb20d8c08	-8.23912e-09
90	0xb14a849d	-2.947025e-09
91	0x32c0225d	2.2367368e-08
92	0x2f501210	1.8923907e-10
93	0xb18c039e	-4.0749475e-09
94	0xb217f7b5	-8.845679e-09
95	0x331d8de2	3.6683453e-08
96	0x3c1cd924	0.009573255
97	0xbc6389f1	-0.013887868
98	0xbc899c66	-0.01679821
99	0xbbb3b3c7	-0.0054840776
100	0xbc1a9c58	-0.009436689
101	0xbc2054c1	-0.009785832
102	0xba652cac	-0.00087423134
103	0xbcac6671	-0.021044942
104	0xbc0a55a4	-0.00844327
105	0x3c2a0c8b	0.010378967
106	0x3ba92c1d	0.0051627294
107	0xbc1b86d5	-0.009492596
108	0x3c82b248	0.015954152
109	0xbaf11c32	-0.0018395244
110	0xbb97e6b2	-0.0046356553
111	0x3bf888c2	0.007584662
112	0xbc04f50c	-0.008115064
113	0x3c1cc445	0.009568279
114	0x3a1da03f	0.0006012953
115	0x3b3fbb32	0.0029255864
116	0xbb4bc6a3	-0.0031093739
117	0xbc441f4c	-0.011970352
118	0xbb9439a4	-0.004523473
119	0xbc1f2963	-0.009714457
120	0x3c7509aa	0.014955917
121	0x3b6d58df	0.0036216301
122	0x3c3cfb5d	0.011534539
123	0x3b10e9e9	0.0022112078
124	0x3c4aca6e	0.012377365
125	0x3bb6cd77	0.0055786925
126	0xbc4f2019	-0.01264193
127	0x3c69d77e	0.014272569
128	0x3cca2fa7	0.024680926
129	0xba82e833	-0.0009987414
130	0xbc11f01f	-0.008907347
131	0xbbf5ff50	-0.0075072423
132	0xbc30d2db	-0.010792459
133	0x3c3c8cd4	0.011508185
134	0x392cb10d	0.00016469155
135	0xbc5b2829	-0.013376274
136	0xb90829ef	-0.00012985592
137	0xbc27d830	-0.010244414
138	0x3c33d0dc	0.010975089
139	0xbc6eb4ad	-0.014569444
140	0xbbcae7bb	-0.006192175
141	0xbc99583a	-0.018718828
142	0xbcfcaf58	-0.03084533
143	0x3ac4ab4e	0.0015004666

transformer_encoder.layers.0.self_attn.out_proj.weight f4 [48, 48]
0	0xbd00b956	-0.03142675
1	0x3dcd5b88	0.10027224
2	0x3d0132d9	0.031542633
3	0x3d6795aa	0.056539215
4	0x3dbbdd9e	0.091731295
5	0x3db92bec	0.090415806
6	0x3d0de4a3	0.034641873
7	0x3c78436c	0.015152793
8	0x3db0ac06	0.08626561
9	0xbd603b3a	-0.054743983
10	0x3becfcef	0.0072323005
11	0x3d82f691	0.06394685
12	0xbb8c25c0	-0.004276961
13	0x3cdb1343	0.026742583
14	0xbd34e749	-0.044165883
15	0xbdd98767	-0.10621529
16	0x3df461f5	0.11932746
17	0xbdf456e5	-0.11930636
18	0xbb850601	-0.0040595536
19	0x3de0082c	0.10939059
20	0x3d97f4a3	0.074197076
21	0x3d1294b0	0.03578633
22	0xbc54b5e9	-0.012982824
23	0x3cbf63ed	0.023363078
24	0xbdf54bbd	-0.119773366
25	0x3c601b6d	0.013678414
26	0xbdc94f6b	-0.09829601
27	0x3dbdd40d	0.09268961
28	0xbc2ec133	-0.0106661795
29	0xbdb1894b	-0.08668765
30	0x3d078e68	0.033094794
31	0xbd40cb6d	-0.047069002
32	0xbdd97ee5	-0.10619906
33	0x3dc37f83	0.09545805
34	0x3beff837	0.0073232907
35	0x3b8d13eb	0.004305353
36	0x3d793bba	0.060847975
37	0xbd4e9432	-0.0504343
38	0xbcc4cd42	-0.024023656
39	0xbd12ddcd	-0.035856057
40	0x3de9514e	0.11392461
41	0x3d55d27f	0.052202698
42	0xbd3bc0e7	-0.045838263
43	0x3d802631	0.062572844
44	0xbc8996e6	-0.016795587
45	0x3ca4bd58	0.020109817
46	0x3d461867	0.048363116
47	0x3d108d0d	0.035290767
48	0x3d868d80	0.06569958
49	0xbc7d38a8	-0.015455402
50	0x3cb883dd	0.022523815
51	0xbdfbb267	-0.12289887
52	0x3e06d163	0.13165812
53	0xbdd75725	-0.105146684
54	0x3dbf7fac	0.09350523
55	0x3c4c2312	0.012459533
56	0x3d4bc918	0.049752325
57	0xbd73d137	-0.059525695
58	0xbdf1d1c3	-0.11807587
59	0xbd2b2ccc	-0.04179077
60	0xbded2765	-0.115797795
61	0xbd5d5fa3	-0.054046284
62	0x3a7e1637	0.00096926413
63	0xbe159af0	-0.14609885
64	0xbb5222d5	-0.0032064219
65	0xbcaa30af	-0.020775167
66	0x3da4c7d0	0.08045924
67	0x3d684946	0.056710504
68	0x3dad9a14	0.08476654
69	0xbda87325	-0.08225087
70	0x3d2848d8	0.041085094
71	0xbd9fb2f8	-0.077978075
72	0x3d58646e	0.052830152
73	0x3d45195d	0.04811989
74	0x3d42459e	0.047429673
75	0x3de6fb65	0.112784185
76	0xbca6463a	-0.020297159
77	0xbadd8ac8	-0.0016902322
78	0x3dffcf7c	0.124907464
79	0xba2e8bd9	-0.0006658412
80	0xbe062286	-0.13099107
81	0x3d91c1e0	0.07117057
82	0xbd99003f	-0.0747075
83	0xbde3d79b	-0.11125108
84	0x3e1f627c	0.15564913
85	0xbc2b2734	-0.0104463585
86	0xbd33d800	-0.043907166
87	0x3d9206f1	0.0713023
88	0x3c2b2f94	0.010448355
89	0x3d946b85	0.0724707
90	0x3dad59ad	0.0846437
91	0xbd372a71	-0.04471821
92	0x3de16a29	0.110065766
93	0xbd90d42b	-0.07071718
94	0xbc9e4954	-0.019322075
95	0x3c9032ef	0.017602412
96	0x3c2e0a3f	0.01062256
97	0xbdb4ef16	-0.088346645
98	0x3da55c19	0.08074207
99	0x3d928dd3	0.07155957
100	0x3ddb0c81	0.10695744
101	0xbbd8e0ca	-0.006618594
102	0x3d705a32	0.058679767
103	0xbc29618b	-0.010338197
104	0x3d149e6e	0.036283903
105	0xbd0b05f9	-0.033941243
106	0xbd4ecb38	-0.050486773
107	0xbdcefe57	-0.10107105
108	0x3a5098a9	0.00079573184
109	0x3b4cce75	0.0031250988
110	0x3bc12a26	0.005894917
111	0x3bf6514d	0.007517016
112	0x3d7df6f4	0.06200309
113	0x3d525206	0.051347755
114	0x3cf6ca68	0.030125812
115	0x3d568feb	0.052383345
116	0x3c873672	0.016505454
117	0xbd1b8630	-0.037969768
118	0x3c658f4e	0.014011217
119	0xbd67b906	-0.056572936
120	0xbdde0426	-0.10840635
121	0xbd13d3c1	-0.036090616
122	0x3bc71312	0.0060752714
123	0xbd983d59	-0.07433576
124	0xbc87a66c	-0.016558848
125	0x3c183be8	0.0092916265
126	0x3a84152a	0.0010077108
127	0xbcb23c1f	-0.021757184
128	0xbc2e9c00	-0.0106573105
129	0x3d714638	0.058904856
130	0xbc7e7a0e	-0.01553203
131	0x3d7a2ea0	0.06107962
132	0xba2546c0	-0.0006304793
133	0xbc9eb0b3	-0.019371366
134	0xbcafc2e2	-0.021455232
135	0x3c1d1897	0.009588382
136	0xbc8374fc	-0.016046993
137	0xbd2f4f86	-0.04280045
138	0xbd142470	-0.036167562
139	0x3d38a51a	0.045079328
140	0x3bd2b390	0.006430097
141	0x3cbff832	0.023433778
142	0xbcac3ac1	-0.02102411
143	0xbda104d7	-0.07862251
144	0xbdb5ad17	-0.08870905
145	0xbd942128	-0.072328866
146	0x3d4ceda1	0.050031308
147	0x3ca5ff3a	0.020263303
148	0xbcc9994e	-0.024609234
149	0xbc99ef87	-0.018790973
150	0x3dec3114	0.115327984
151	0x3de451a1	0.11148382
152	0xbb7f3788	-0.0038943011
153	0xbdc4c15d	-0.096071936
154	0x3d980f6f	0.07424819
155	0xbd02089c	-0.03174649
156	0x3db5584b	0.08854731
157	0xbd39f94f	-0.045403775
158	0x3d328b9a	0.043590166
159	0xbdaed075	-0.08535854
160	0xbcd02ec7	-0.02541293
161	0xbdd11a08	-0.10210043
162	0xbd29aedd	-0.04142653
163	0x3dd6fcdf	0.1049745
164	0xbda7e357	-0.081976585
165	0xbdd9acf9	-0.10628695
166	0x3daf59f7	0.08562081
167	0x3c8f7d3b	0.01751577
168	0x3dc3ef13	0.09567084
169	0xbdb3fc21	-0.08788324
170	0x3dd39696	0.10331456
171	0xbd445f14	-0.047942236
172	0x3e03b7b8	0.12863052
173	0x3c8cb2b6	0.01717506
174	0x3dcbc7d3	0.09950223
175	0xbcebed22	-0.028799597
176	0xbce91e22	-0.028456751
177	0x3d715f84	0.05892898
178	0x3d2005f6	0.039068185
179	0x3d8b8d1d	0.068140246
180	0x3cd1e5c0	0.025622249
181	0x3cca0b81	0.024663689
182	0x3c19060e	0.009339822
183	0x3da1693e	0.078814015
184	0x3db607b5	0.08888189
185	0x3dff7502	0.12473489
186	0xbd6554f0	-0.055989206
187	0x3d62378b	0.05522875
188	0x3cf2f953	0.029659903
189	0x3d877c6c	0.066155285
190	0xbcf720e4	-0.03016705
191	0xbd5657a0	-0.05232966
192	0x3d9a5da7	0.07537394
193	0xbd7e5e62	-0.06210173
194	0x3d852927	0.0650199
195	0xbd6ae550	-0.057347596
196	0x3e0c7208	0.13715374
197	0xbd032287	-0.03201535
198	0x3d81dc64	0.06340864
199	0x3d0ef632	0.03490276
200	0x3d556754	0.052100495
201	0x3de1aeed	0.110196926
202	0xbcfa5e49	-0.030562537
203	0xbd08f492	-0.033436365
204	0x3dcf1f87	0.10113435
205	0x3d73db62	0.05953539
206	0x3dbe70e4	0.09298876
207	0xbda505c5	-0.08057741
208	0x3cdc5d33	0.02689991
209	0xbd8bdcad	-0.068292
210	0xbcf891f0	-0.030343026
211	0xbde9b3d7	-0.11411255
212	0xbd3f7e69	-0.046751413
213	0x3db84868	0.089981854
214	0x3c8603aa	0.016359169
215	0xbdb53c1f	-0.08849358
216	0x3e12d27c	0.14338106
217	0xbd72dc4b	-0.05929212
218	0x3d92244e	0.07135831
219	0xbdced825	-0.1009982
220	0xbd7bd0f0	-0.061478555
221	0xbd940cfb	-0.07229038
222	0xbdcd92f1	-0.100377925
223	0xbd9b845f	-0.07593607
224	0x3d3d80f6	0.046265565
225	0x3d728d18	0.05921659
226	0xbcb22cf4	-0.021749951
227	0x3dcf07a2	0.10108878
228	0x3d30c9b6	0.043161117
229	0xbc81d86e	-0.015850272
230	0xbdcbe9a3	-0.09956672
231	0x3da6590f	0.08122455
232	0x3c4abca9	0.012374082
233	0xbd3ec20d	-0.04657178
234	0xbc5b3ccc	-0.013381194
235	0xbd36f20d	-0.04466443
236	0x3d2bbe6d	0.04192965
237	0xbd092e2b	-0.033491295
238	0xbaa450cc	-0.0012536286
239	0xbd46efb4	-0.048568442
240	0x3d96a5ed	0.073558666
241	0xbc94c304	-0.018159397
242	0xbd72fe7b	-0.059324723
243	0xbc20c060	-0.009811491
244	0xbdb60dad	-0.08889327
245	0xbd0e488c	-0.034737155
246	0x3db9471b	0.090467654
247	0xbd140cf0	-0.03614515
248	0xbda64681	-0.08118916
249	0x3d029838	0.03188345
250	0xbd0b65c4	-0.0340326
251	0xbd8bec44	-0.068321735
252	0xbdb21394	-0.086951405
253	0xbcb0b8f6	-0.021572571
254	0xbc7014f3	-0.014653432
255	0xbdaa6f29	-0.08321983

transformer_encoder.layers.0.self_attn.out_proj.bias f4 [48]
0	0xba83e416	-0.0010062482
1	0x3c0d3cdc	0.008620467
2	0x3bbf504c	0.0058384296
3	0x3bae5415	0.005320082
4	0x3b9f92c0	0.004869789
5	0xbc3ddfad	-0.011588973
6	0x3bf1ca9b	0.007378889
7	0xbc9b02b3	-0.018922186
8	0x3c1f98b0	0.009740993
9	0xbcaa4a12	-0.020787273
10	0xbc84f42f	-0.016229717
11	0x3c9a93e5	0.01886935
12	0x39d265b9	0.0004013011
13	0x3c47ce0d	0.012195122
14	0x3c6d1c1f	0.014472037
15	0xbc8aeda3	-0.016959017
16	0xbc8f2484	-0.017473467
17	0xbc008bf0	-0.007845864
18	0xba0eaf45	-0.00054429873
19	0xb9586fac	-0.00020640966
20	0x3c1bf1da	0.009518111
21	0x3be72b42	0.0070547173
22	0xbab264e2	-0.0013610388
23	0x3bcf6336	0.0063289655
24	0x3c114bb6	0.008868149
25	0xbc2b3aa0	-0.010450989
26	0xbcae95d8	-0.021311685
27	0xbbf61425	-0.0075097256
28	0xbc65c287	-0.01402343
29	0xbc25bf96	-0.010116478
30	0x3c7e3205	0.015514855
31	0xb9b3ad4c	-0.00034270657
32	0xbca1c238	-0.019745931
33	0xbc41b404	-0.011822704
34	0x3ce1d08c	0.027565263
35	0xbc30f21e	-0.010799913
36	0xba52e8db	-0.00080455624
37	0xbbe9091e	-0.0071116826
38	0xba5c51be	-0.00084045145
39	0x39622f84	0.0002157074
40	0x3ae11987	0.0017173745
41	0x3bb3f9c1	0.0054924195
42	0x3c6fb19a	0.014629746
43	0x3a1e80b4	0.00060464
44	0xbc6afff2	-0.014343249
45	0xbc7d88ff	-0.015474557
46	0x3c4d274c	0.012521576
47	0x3c01a294	0.007912297

transformer_encoder.layers.0.linear1.weight f4 [128, 48]
0	0xbc8725c1	-0.016497495
1	0xbd7b4a06	-0.06134989
2	0x3d7c4646	0.061590455
3	0x3dca512b	0.09878763
4	0x3d33c663	0.04389037
5	0x3c8d49ed	0.017247165
6	0x3ca5644f	0.020189432
7	0x3cc2ef5e	0.02379578
8	0xbcbda75f	-0.023151098
9	0xbd275b3d	-0.040858496
10	0xbdac2ef6	-0.084073946
11	0x3c97625a	0.018479515
12	0xbda099b8	-0.078418195
13	0xbc86c8cf	-0.016453175
14	0xbd28e191	-0.041230742
15	0xbe166635	-0.14687426
16	0x3db1e3ac	0.08686003
17	0x3d04746c	0.03233759
18	0x3bbb5077	0.0057163793
19	0x3daf322f	0.08554494
20	0xbc072fc0	-0.008251131
21	0xbd9d8415	-0.07691208
22	0xbd019d2a	-0.031644024
23	0xbd1eec48	-0.038799554
24	0x3d38bdd5	0.045102913
25	0x3d88ea60	0.066853285
26	0x3c2dd114	0.01060893
27	0xbdaf3756	-0.08555476
28	0xbcdeee02	-0.0272131
29	0x3d631053	0.05543549
30	0x3d6be9af	0.057595905
31	0xbd3e23b8	-0.046420783
32	0x3d2e66bc	0.042578444
33	0x3d671ddb	0.056424957
34	0x3d9a9067	0.07547074
35	0x3c53283d	0.0128880115
36	0xbd990c3f	-0.07473039
37	0xbd9c87ee	-0.07643114
38	0x3dc14f03	0.094388984
39	0x3d27b216	0.04094132
40	0x3d112002	0.035430916
41	0x3cc650f7	0.024208529
42	0xbdc3a9b8	-0.09553856
43	0x3c603794	0.013685126
44	0x3dac6415	0.08417527
45	0x3ca20629	0.019778328
46	0xbbfbc0a8	-0.0076828785
47	0xbd258842	-0.04041315
48	0xbcd867c0	-0.02641666
49	0x3c0f7fd2	0.008758502
50	0xbcae4d89	-0.021277206
51	0xbd974aca	-0.07387312
52	0xbdcf4a18	-0.10121554
53	0xbc45e5f5	-0.012078752
54	0x3d47b2bc	0.04875444
55	0xbd0159a1	-0.031579617
56	0xbda22662	-0.07917477
57	0xbe023674	-0.12716085
58	0x3db65a9d	0.08904002
59	0xbe63b460	-0.22236776
60	0xbd8eaf54	-0.06967035
61	0xbd877007	-0.066131644
62	0x3d887153	0.0666224
63	0x3e2de479	0.16981687
64	0x3b4b11b3	0.0030985891
65	0x3b2cb685	0.0026353907
66	0x3c99c682	0.018771414
67	0xbc6884d3	-0.014191824
68	0x3de194b9	0.11014695
69	0xbc718977	-0.014742247
70	0x3d2b07d9	0.04175553
71	0x3dfdd3b3	0.12393894
72	0xbd5a54b3	-0.05330343
73	0xbcf23359	-0.0295655
74	0x3be2c947	0.006920967
75	0xbc4092ae	-0.011753721
76	0x3d1d88c9	0.038460527
77	0x3d8f37f8	0.06993097
78	0xbdf205ea	-0.11817534
79	0x3dd06d0a	0.101770476
80	0x3c580f18	0.013187192
81	0xbd2b05d8	-0.04175362
82	0xbced1fd8	-0.028945848
83	0x3d581281	0.05275202
84	0xbc372acf	-0.01117964
85	0xbc64bd08	-0.013961084
86	0xbdbcc1dd	-0.09216664
87	0x3ca5e472	0.020250533
88	0xbd05a92a	-0.03263203
89	0x3cc3a181	0.023880722
90	0xbce71ce5	-0.02821202
91	0x3d13feed	0.036131788
92	0x3d8546dd	0.06507657
93	0xbd8cc641	-0.068737514
94	0xbd636af5	-0.055521924
95	0xbdb31f2f	-0.08746182
96	0x3db1d69c	0.086835116
97	0x3d36a491	0.044590537
98	0x3b41cceb	0.0029571604
99	0x3c6557d2	0.013997989
100	0x3c5ff52f	0.013669296
101	0xbc41c132	-0.0118258465
102	0x3d530d1b	0.05152617
103	0xbc87ca3e	-0.016575929
104	0xbdb62419	-0.08893604
105	0x3d1afe09	0.037839923
106	0xbd43164d	-0.04762869
107	0x3d7e6b3e	0.062113993
108	0xbdcc0ab0	-0.09962976
109	0xbda7bae9	-0.08189947
110	0x3d8de4c7	0.069284014
111	0xbd424492	-0.047428675
112	0xbdd81628	-0.10551101
113	0xbc04c943	-0.008104625
114	0xbd3da239	-0.046297286
115	0x3bc9119d	0.006136133
116	0xbc150866	-0.009096241
117	0x3dde498a	0.1085387
118	0xbcc3d77b	-0.02390646
119	0x3c8da5a5	0.0172909
120	0xbd8ebb54	-0.06969324
121	0xbda32421	-0.079658754
122	0x3c5070a7	0.012722171
123	0x3de0013c	0.109377354
124	0x3cd3f1c5	0.02587212
125	0x3e0ebd57	0.13939415
126	0xbaa4bcbe	-0.0012568457
127	0x3e494e50	0.1965878
128	0x3cbb1d76	0.022841197
129	0x3d732a18	0.059366316
130	0x3d99501b	0.07485982
131	0x3dc1c860	0.094620466
132	0xbcbfd115	-0.023415128
133	0xbc9da7dc	-0.01924508
134	0xbe03003a	-0.12793055
135	0x3b0d9899	0.0021605848
136	0xbcd6d71c	-0.026225619
137	0xbddce18b	-0.107852064
138	0xbdbd475b	-0.092421256
139	0x3df67bcf	0.12035333
140	0x3d3f87e2	0.046760447
141	0x3d8dd6a4	0.06925705
142	0xbccfefb2	-0.02538285
143	0xbd359d31	-0.044339363
144	0x3de23326	0.11044912
145	0xbd111391	-0.03541905
146	0x3ddeca13	0.10878386
147	0xbda197ff	-0.07890319
148	0xbd3fc2b5	-0.046816546
149	0x3b8a6d40	0.0042244494
150	0xbd01fb52	-0.03173382
151	0x3d374cb9	0.044750903
152	0xbda6db34	-0.081472784
153	0xbd1b3364	-0.037890807
154	0x3d976e45	0.07394079
155	0xbe0b794c	-0.1362049
156	0x3da17860	0.07884288
157	0xbd956066	-0.07293777
158	0x3b7e38d1	0.003879119
159	0x3e1bc1a6	0.1521059
160	0x3c8c9b85	0.017164001
161	0xbdaaf1a7	-0.08346873
162	0xbce22fc8	-0.027610675
163	0x3da23c83	0.07921698
164	0x3e080e39	0.13286676
165	0x3bcb217e	0.006199061
166	0xbd94695b	-0.072466575
167	0x3e0401c3	0.12891297
168	0xbd26cd56	-0.040723167
169	0x3dcd9173	0.10037508
170	0xbd4e4ca1	-0.050366048
171	0xbd3fa294	-0.046785906
172	0xbdba325c	-0.090916365
173	0x3c9bc7cd	0.01901617
174	0xbd7acc3b	-0.061229926
175	0x3b1ab70c	0.002360764
176	0xbda2f6b4	-0.07957211
177	0xbda3d742	-0.080000415
178	0x3d50dcdc	0.050991878
179	0x3d835502	0.06412698
180	0xbd43a6f8	-0.047766656
181	0x3c843df0	0.016142815
182	0xbe0a5338	-0.13508308
183	0x3df83795	0.121199764
184	0xbcbae41b	-0.022813847
185	0x3daaa726	0.08332662
186	0x3dda434c	0.10657367
187	0xbddceb8f	-0.10787117
188	0x3d8b822f	0.0681194
189	0xbdc71375	-0.09720508
190	0x3d76c366	0.06024494
191	0x3d505441	0.0508616
192	0xbc0ab77e	-0.0084665995
193	0x3d483d65	0.048886675
194	0xbb6276ec	-0.0034555746
195	0xbd47538b	-0.048663657
196	0xbc416cc9	-0.011805722
197	0xbdc0a069	-0.09405596
198	0x3cfc89f0	0.030827492
199	0x3deab775	0.11460773
200	0x3d24c67e	0.04022836
201	0x3dd02acd	0.101644136
202	0x3e12510a	0.14288726
203	0xbc00226d	-0.007820708
204	0x3d497ddb	0.04919229
205	0xbd4b1905	-0.049584407
206	0xbdb46d07	-0.08809858
207	0xbcb9961c	-0.022654586
208	0xbd9d0d62	-0.07668568
209	0xbd2b1e75	-0.041777093
210	0x3ccc1e2c	0.02491673
211	0x3cdb121f	0.02674204
212	0x3cb9b5a4	0.02266962
213	0x3c0a37f4	0.008436192
214	0x3c232e57	0.009959779
215	0x3d2313b1	0.0398137
216	0x3d16cd5c	0.03681694
217	0xbd977ba8	-0.073966324
218	0x3c8d0d6f	0.01721832
219	0xbcfaa5de	-0.03059667
220	0xbc738b19	-0.014864706
221	0x3d8018eb	0.06254753
222	0xbdba0063	-0.09082105
223	0x3dad8614	0.08472839
224	0xbdd95863	-0.106125616
225	0x3d9aebde	0.07564519
226	0x3de5de5b	0.112240516
227	0x3c96a1b4	0.018387653
228	0x3d327183	0.043565284
229	0xbd85eedb	-0.06539699
230	0xbd9dda6b	-0.077076755
231	0x3d7e0ecb	0.062025826
232	0x3cda486f	0.026645867
233	0x3d8275e1	0.0637014
234	0x3dd5e14e	0.10443364
235	0xbd1451a1	-0.03621066
236	0xbda1f53a	-0.079081014
237	0x3d8df5aa	0.06931622
238	0xbd32309c	-0.04350339
239	0x3d2b6970	0.0418486
240	0xbd01e152	-0.031709023
241	0xbd518ed6	-0.05116161
242	0xbd721c20	-0.059108853
243	0x3dba04bf	0.090829365
244	0xbcf14bfc	-0.029455177
245	0x3d6fbb7d	0.058528412
246	0xbcb595aa	-0.022166092
247	0xbb8aea81	-0.004239381
248	0xbd5584f9	-0.052128766
249	0xbd4bb915	-0.049737055
250	0x3c62bafe	0.013838528
251	0x3d569e9e	0.052397363
252	0x3d44a37f	0.048007485
253	0xbc116dc1	-0.008876265
254	0xbd4c62b0	-0.049898803
255	0xbd66494f	-0.056222256

transformer_encoder.layers.0.linear1.bias f4 [128]
0	0xbcd18eb1	-0.025580736
1	0x3d51361c	0.051076993
2	0x3d84fc12	0.06493391
3	0xbd914d4a	-0.0709482
4	0x3d60c7d7	0.054878082
5	0xbdcae675	-0.099072374
6	0x3d033fe7	0.032043364
7	0x3d30ce20	0.043165326
8	0xbdb03ec9	-0.08605725
9	0xbd9231f2	-0.071384326
10	0x3dd56c75	0.10421077
11	0x3dc7e27f	0.097599976
12	0xbd2d67d5	-0.04233535
13	0xbce8c095	-0.028412143
14	0x3d5abb6b	0.053401392
15	0xbd210ca7	-0.039318707
16	0xbd80dc2b	-0.06291994
17	0xbc910db9	-0.017706739
18	0x3bde477c	0.006783424
19	0xbc4f94b4	-0.012669731
20	0x3d92cbc2	0.0716777
21	0xbcb59156	-0.022164028
22	0xbdea2b82	-0.1143408
23	0xbd013dda	-0.031553127
24	0xbde3647f	-0.111031525
25	0xbc9bea31	-0.01903257
26	0xbd1d2b41	-0.03837133
27	0xbd59db30	-0.05318755
28	0xbe0b049b	-0.13575976
29	0x3d84d484	0.06485847
30	0x3c9fd70f	0.019511728
31	0xbd8e5b62	-0.06951024
32	0xbd8fa01c	-0.0701296
33	0xbd0b4c63	-0.034008395
34	0xbe0ff9a7	-0.14060079
35	0xbdcfa6f0	-0.10139263
36	0x3dd55607	0.10416799
37	0x3d614e67	0.05500641
38	0xbd28a54d	-0.041173268
39	0xbdcca188	-0.09991747
40	0x3de52b44	0.11189893
41	0x3dc5b197	0.09653013
42	0xbd288e75	-0.041151483
43	0xbdf6730f	-0.120336644
44	0x3b7dbae0	0.0038716123
45	0xbd0b918e	-0.03407436
46	0x3d1cacc7	0.03825071
47	0xbceac65a	-0.028659035
48	0x3da5857a	0.08082099
49	0xbd9a48a1	-0.07533384
50	0x3cf66a58	0.030080006
51	0xbd79080f	-0.0607987
52	0xbdb210fc	-0.08694646
53	0x3d51ade7	0.051191237
54	0xbd689719	-0.056784723
55	0xbdedd890	-0.11613572
56	0xbdcec3ed	-0.100959636
57	0x3da2cfd7	0.079497986
58	0x3d27a273	0.040926408
59	0x3d6eddd1	0.05831701
60	0xbdc4c641	-0.096081264
61	0xbde21305	-0.11038784
62	0x3d53ae6a	0.051680006
63	0xbdb23f35	-0.08703462
64	0x3df4ec42	0.11959125
65	0x3c5417c1	0.0129451165
66	0xbda00304	-0.07813075
67	0x3d0c91b1	0.03431863
68	0x3da090a1	0.07840086
69	0xbda43270	-0.08017433
70	0xbb8c7b14	-0.004287133
71	0xbcd5946a	-0.026071746
72	0x3d31b392	0.043384142
73	0x3cf61d22	0.030043188
74	0xbdb4aa39	-0.0882153
75	0x3da8e044	0.082459
76	0x3d3bdba3	0.04586376
77	0x3dbc16cd	0.091840364
78	0x3d84e482	0.06488897
79	0x3d847307	0.06467252
80	0x3ba660a0	0.0050774366
81	0x3d8447db	0.06459018
82	0xbdc15a0d	-0.09441004
83	0xbcca3a4b	-0.024686
84	0x3d904ca3	0.07045867
85	0xbd729201	-0.05922127
86	0x3d622430	0.055210292
87	0x38dfaed2	0.000106660314
88	0xbc8cd483	-0.017191177
89	0xbdd2cdf3	-0.10293188
90	0x3da73cba	0.081658795
91	0x3d92d7bc	0.07170054
92	0xbda27375	-0.07932178
93	0xbd4f216c	-0.050568983
94	0x3c8ce7fd	0.017200464
95	0xbd7d4526	-0.061833523
96	0xbc3a4adb	-0.011370386
97	0xbda61f04	-0.081113845
98	0x3dbabe26	0.09118299
99	0x3dad4f54	0.08462396
100	0x3dc5a14d	0.09649906
101	0xbcb9b088	-0.022667184
102	0xbdea0f54	-0.11428705
103	0xbb23f6d4	-0.0025018947
104	0x3bfe397b	0.007758317
105	0x3da6293f	0.08113336
106	0x3da9f00f	0.08297741
107	0x3d3bc6ae	0.045843773
108	0x3d906dca	0.070521906
109	0xbd588103	-0.05285741
110	0xbd60f414	-0.05492027
111	0x3d2fd61a	0.042928793
112	0x3dc91c1f	0.09819817
113	0xbd787f80	-0.06066847
114	0x3db0e1f5	0.08636848
115	0xbd3a6268	-0.045504004
116	0x3db98d7d	0.0906019
117	0x3bd3e215	0.00646616
118	0xbbb2acd6	-0.0054527326
119	0xbc885e5c	-0.016646557
120	0xbb813629	-0.003943224
121	0x3e01bea5	0.12670381
122	0x3e0b7281	0.13617899
123	0x3d573ff1	0.052551214
124	0xbdfef867	-0.12449723
125	0x3d7a9939	0.06118128
126	0x3d7687ac	0.06018798
127	0xbbef5bc5	-0.007304641

transformer_encoder.layers.0.linear2.weight f4 [48, 128]
0	0xbd491238	-0.04908964
1	0xbc710cf1	-0.014712558
2	0xbd6463b9	-0.055759165
3	0x3c90ae0f	0.017661123
4	0xbc49a0c4	-0.012306396
5	0xbc739a19	-0.014868283
6	0xbd606c43	-0.054790746
7	0xbd62b7fd	-0.055351246
8	0xbd35ba21	-0.04436696
9	0xbbe685f5	-0.007035012
10	0xbd8ef919	-0.06981105
11	0xbc093c6d	-0.008376223
12	0x3da39eb6	0.07989256
13	0xbc95caab	-0.018285116
14	0x3cf936d9	0.030421661
15	0xbbc41ddd	-0.0059850053
16	0x3d300b2b	0.0429794
17	0xbd838e32	-0.06423606
18	0xbd09eddc	-0.033674106
19	0x3c321b9a	0.010870839
20	0xbd5e9705	-0.054343242
21	0xbd568ef3	-0.05238242
22	0x3daab3e6	0.08335094
23	0xbd3effa9	-0.046630535
24	0x3d2bef66	0.041976355
25	0x3dc68536	0.09693377
26	0x3da1b29a	0.07895394
27	0x3cb63d3e	0.022246
28	0x3d652923	0.055947434
29	0xbcc95f88	-0.024581686
30	0x3d171122	0.036881573
31	0xbcf72f82	-0.03017402
32	0x3a1d45ce	0.00059994764
33	0x3c1d77c0	0.00961107
34	0x3cd41007	0.025886549
35	0xbd08d9de	-0.0334109
36	0x3c9258e5	0.017864654
37	0x3c396b81	0.011317135
38	0x3d636834	0.055519298
39	0xbc5f43e9	-0.013627031
40	0xbbfd5088	-0.0077305473
41	0xbd27a533	-0.04092903
42	0x3d7c4a9d	0.061594594
43	0xbd97be78	-0.07409376
44	0x3cd0b8db	0.025478771
45	0xbc6bec14	-0.014399547
46	0xbd56f8ec	-0.052483484
47	0x3db8fe36	0.09032862
48	0xbd62e53f	-0.055394407
49	0xbc5dec8f	-0.0135451695
50	0xbd0ea7ef	-0.034828123
51	0x3d49c3b4	0.049258903
52	0xbd150a82	-0.036386974
53	0xbce85c4d	-0.028364325
54	0x3cbe3af1	0.023221465
55	0xbd18df32	-0.03732223
56	0xbd92915a	-0.0715663
57	0x3da58cef	0.080835216
58	0x3d4324d0	0.04764253
59	0xbd738c91	-0.059460226
60	0x3d58b0d6	0.05290302
61	0xbce3b236	-0.027794939
62	0xbc8903f2	-0.016725514
63	0x3b056cf8	0.002035914
64	0xbce687a3	-0.028140849
65	0xbcbaffa9	-0.022826986
66	0x3d9d19c3	0.07670929
67	0xbcd30708	-0.025760189
68	0xbd4c4a17	-0.049875345
69	0xbce2c9c3	-0.027684098
70	0xbadf883a	-0.0017054148
71	0xbd6b61f5	-0.057466466
72	0x3d78d529	0.06075016
73	0x3c9739f0	0.018460244
74	0xbd9c3cf3	-0.07628813
75	0x3d3e066b	0.04639284
76	0xbd024bc3	-0.031810533
77	0x3b95f7c4	0.004576655
78	0xbcbd894b	-0.023136755
79	0xbd07809d	-0.03308164
80	0x3d73d98c	0.05953364
81	0x3d852922	0.06501986
82	0xbc70b0c5	-0.014690583
83	0xbd55798d	-0.052117873
84	0x3c3497d8	0.0110225305
85	0x3d1222c4	0.035677686
86	0xba1f275b	-0.0006071233
87	0x3d4fc935	0.050728995
88	0xbd293027	-0.041305687
89	0x3cdae562	0.026720706
90	0xbcf88523	-0.030336922
91	0xbcf0c2a6	-0.02938969
92	0x3cf1b237	0.029503925
93	0x3db7655b	0.08954879
94	0xbcd7f76e	-0.0263631
95	0x3d3ed18e	0.046586566
96	0xbc0936c1	-0.008374871
97	0xbd3029c7	-0.043008592
98	0xbd8c5e45	-0.06853918
99	0x3cc4de64	0.024031825
100	0x3d91e09f	0.07122921
101	0xbd8fd91c	-0.07023832
102	0x3d4db81e	0.050224416
103	0xbccfa987	-0.025349392
104	0xbce6041f	-0.028078137
105	0xbd5ecde7	-0.054395583
106	0xbd4cff9d	-0.05004846
107	0x3c3223af	0.010872765
108	0xbd0ba484	-0.03409244
109	0xbd16019a	-0.03662262
110	0x3d687b36	0.056758128
111	0xbc1509ce	-0.009096576
112	0x3d91587b	0.070969544
113	0x3b5a5d95	0.003331994
114	0xbd822312	-0.063543454
115	0x3d8511a8	0.06497508
116	0xbda07771	-0.07835282
117	0x3cf5ce96	0.030005734
118	0xbd54a476	-0.051914655
119	0xba1a233a	-0.0005879883
120	0x3d2d0ff4	0.042251542
121	0xbd85c893	-0.06532397
122	0xbd4d6732	-0.050147243
123	0xbd2870c9	-0.041123185
124	0xbd207250	-0.039171517
125	0x3d1ddd74	0.038541272
126	0x3b4d914b	0.003136712
127	0x3d8260c7	0.06366115
128	0xbc50968c	-0.012731206
129	0xbdbb100e	-0.091339216
130	0x3b2c0e18	0.0026253518
131	0x3d05ae68	0.03263703
132	0x3d2b2bea	0.041789927
133	0x3d1d8fdc	0.038467273
134	0xbda92df0	-0.08260715
135	0xbb8b04ad	-0.0042425008
136	0xbd4fd5ca	-0.050740995
137	0xbd1ddada	-0.03853879
138	0xbd9a57eb	-0.075363
139	0xbca47950	-0.020077378
140	0x3c66b087	0.014080173
141	0xbd87ee9f	-0.0663731
142	0xbcc6d843	-0.024273043
143	0xbd0878da	-0.033318378
144	0x3d26b376	0.04069849
145	0xbda7de9d	-0.08196757
146	0xbc4d8e49	-0.01254613
147	0x3b919166	0.0044423817
148	0xbd8bd836	-0.06828348
149	0xbdb435db	-0.087993346
150	0xbc97bb7d	-0.018522019
151	0xbd3f33a3	-0.046680104
152	0x3cc5a44a	0.02412619
153	0xbd86269c	-0.06550333
154	0xbd5a9038	-0.053360194
155	0x3c5e06ad	0.013551396
156	0x3b2f836a	0.002678121
157	0xbd0b1bd0	-0.03396207
158	0x3bbee632	0.0058257813
159	0x3c2348a9	0.009966054
160	0x3cea6a29	0.028615074
161	0xbdc840cd	-0.09777985
162	0xbd494524	-0.049138203
163	0xbd5ea36c	-0.05435507
164	0xbb34f485	-0.0027611565
165	0x3c294e19	0.010333561
166	0xbbdafbc5	-0.0066828453
167	0xbd52d1fb	-0.051469784
168	0xbd07bb7c	-0.033137783
169	0xbd91d7d3	-0.07121243
170	0xbca124c7	-0.019670857
171	0xbdbef545	-0.09324125
172	0xbc2fd173	-0.010731089
173	0x3a29506f	0.0006458824
174	0xbd920353	-0.0712954
175	0xbc66da72	-0.014090167
176	0x3d2c0c16	0.042003714
177	0x3d9f066f	0.07764899
178	0xbd8096d7	-0.062787704
179	0xbda9e375	-0.08295337
180	0xbd93a4b7	-0.07209151
181	0xbb4615d4	-0.0030225413
182	0x3d26c9e2	0.040719874
183	0xbd6be32b	-0.05758969
184	0xbdb886d4	-0.090100914
185	0xbb417cde	-0.002952389
186	0x3d729749	0.059226308
187	0x3d70f403	0.058826458
188	0xbd4a83ec	-0.049442217
189	0xbd9a7c9a	-0.07543297
190	0x3ce187d3	0.027530586
191	0x3d5cf5d9	0.053945396
192	0xbd83d49d	-0.06437037
193	0xbc3ba183	-0.011452082
194	0x3cf6066b	0.030032357
195	0xbc8f3221	-0.017479958
196	0xbd8b72bb	-0.068089925
197	0xbd395507	-0.045247104
198	0x3d30d544	0.043172136
199	0xbda65ee1	-0.081235655
200	0xbd75b3b1	-0.05998582
201	0xbc1af018	-0.009456657
202	0xbd607c80	-0.054806232
203	0xbd007f65	-0.031371493
204	0xbd573dd2	-0.05254919
205	0xbce1e420	-0.027574599
206	0xbcd9e25c	-0.026597194
207	0xbd7dd306	-0.061968826
208	0x3d8f33e9	0.06992323
209	0x3cda132b	0.026620468
210	0x3d68ffc2	0.056884535
211	0xbd790575	-0.06079622
212	0x3d53a70f	0.05167299
213	0xbd80b40b	-0.062843405
214	0x3ca87f8f	0.020568637
215	0xbbc0fc7f	-0.005889475
216	0x3cd107c3	0.025516396
217	0x3cfe3efa	0.031035889
218	0x3c63f95f	0.013914435
219	0xbd6ef168	-0.05833569
220	0xbcfe0195	-0.031006614
221	0x3d6607f8	0.056159943
222	0xbbf01d3b	-0.0073277033
223	0xbd0ddfcc	-0.034637257
224	0x3b2fc0df	0.002681784
225	0xbcd497d6	-0.025951307
226	0xb8c42369	-9.352604e-05
227	0x3ce897a8	0.028392628
228	0x3cb8f1a9	0.02257617
229	0x3d29619c	0.041352853
230	0x3da2b496	0.079446
231	0xbd20b523	-0.039235245
232	0xbd2a0cca	-0.041516103
233	0xbc919736	-0.017772298
234	0xbd6e6848	-0.05820492
235	0x3ceebf33	0.029143905
236	0xbbdc98ec	-0.006732097
237	0xbda1e52d	-0.0790504
238	0xbd59913f	-0.053117033
239	0xbc29fffa	-0.010375971
240	0x3d5bb730	0.053641498
241	0x3d9361d3	0.07196393
242	0x3d35adcb	0.044355195
243	0x3d5091f1	0.05092043
244	0xbb54dc0c	-0.003247979
245	0xbd3c1785	-0.045920867
246	0xbd8e4bb1	-0.06948031
247	0xbd7133d2	-0.05888731
248	0x3ccff629	0.025385933
249	0xbd3326cc	-0.04373817
250	0xbd85e25c	-0.06537315
251	0x3c553c40	0.013014853
252	0x3d3cc254	0.046083763
253	0x3d90af21	0.07064653
254	0xbd615500	-0.055012703
255	0x3d4a7431	0.049427215

transformer_encoder.layers.0.linear2.bias f4 [48]
0	0xbce67bd8	-0.028135225
1	0x3d459725	0.048239846
2	0xbd459480	-0.048237324
3	0xbd2d2db6	-0.04227992
4	0xbce01652	-0.027354393
5	0x3d5cd0f0	0.053910196
6	0xbc5783bc	-0.0131539665
7	0xbd7ef1b3	-0.06224222
8	0x3c9f9edb	0.019484928
9	0xbc02f13d	-0.007992086
10	0x3d81e7b5	0.06343023
11	0x3dc39a7a	0.095509484
12	0xbd191a6f	-0.037378725
13	0xbd6c1ce6	-0.057644747
14	0xbcf35766	-0.02970476
15	0x3ba5e605	0.005062821
16	0xbd34f1f5	-0.04417606
17	0x3c42906a	0.011875251
18	0xbcff2716	-0.031146567
19	0x3c8149ff	0.015782354
20	0xbc907666	-0.017634582
21	0x3c60161e	0.013677148
22	0x3c096d5c	0.00838789
23	0xbd0de14a	-0.03463868
24	0xbd2fed15	-0.04295071
25	0xbc8b5d8a	-0.017012376
26	0xbd951c1b	-0.07280751
27	0x3cbddea6	0.023177456
28	0xbd7d15dd	-0.06178843
29	0x3cfa7b5c	0.0305764
30	0x3d26a430	0.040683925
31	0x3dc0bcd4	0.09411016
32	0xbd88e108	-0.06683546
33	0xbd07794f	-0.033074673
34	0xbd82e2ef	-0.063909404
35	0xbc1377ef	-0.009000762
36	0xbd3eaecf	-0.04655343
37	0xbcaf58ae	-0.02140459
38	0xbd797e5d	-0.060911525
39	0xbcc4c1b0	-0.024018139
40	0xbd1e327d	-0.038622368
41	0x3b9df947	0.004820976
42	0xbd1c6450	-0.038181603
43	0x3d64d6ee	0.055869035
44	0xbc127305	-0.008938556
45	0x3bae9316	0.0053275926
46	0xbc83baa7	-0.016080214
47	0xbcfe503c	-0.031044118

transformer_encoder.layers.0.norm1.weight f4 [48]
0	0x3f28b486	0.65900457
1	0x3f67fcc8	0.9062009
2	0x3f576f1e	0.84153926
3	0x3f6faaef	0.936202
4	0x3f7bf57e	0.98421466
5	0x3f3448c2	0.7042352
6	0x3f664494	0.8994839
7	0x3f5f05e8	0.8711839
8	0x3f517b07	0.8182835
9	0x3f78a59e	0.9712771
10	0x3f6daeae	0.92844665
11	0x3f8379c5	1.0271536
12	0x3f312bb6	0.6920732
13	0x3f6236b3	0.88364714
14	0x3f6dd123	0.9289724
15	0x3f5f9086	0.873299
16	0x3f6ab57c	0.91683173
17	0x3f545ee7	0.8295731
18	0x3f7b7d94	0.9823849
19	0x3f6abf92	0.91698563
20	0x3f7d9928	0.9906182
21	0x3f5e6349	0.8687025
22	0x3f72bc34	0.94818425
23	0x3f6e8779	0.93175465
24	0x3f633575	0.88753444
25	0x3f546784	0.8297045
26	0x3f6615d2	0.89877045
27	0x3f833dd3	1.0253242
28	0x3f57440e	0.8408822
29	0x3f8036ec	1.0016761
30	0x3f607b2c	0.87687945
31	0x3f6fd189	0.936791
32	0x3f1dbb47	0.6161389
33	0x3f62efbf	0.88647074
34	0x3f6697fb	0.90075654
35	0x3f68c1c4	0.9092066
36	0x3f5d5052	0.86450684
37	0x3f49a151	0.78761774
38	0x3f743f8b	0.9540946
39	0x3f7e460f	0.9932565
40	0x3f134f04	0.57542443
41	0x3f7266eb	0.9468829
42	0x3f67684e	0.9039353
43	0x3f7f022a	0.9961268
44	0x3f7edcf5	0.99555904
45	0x3f70b3a5	0.94024116
46	0x3f686a68	0.90787363
47	0x3f6de3bb	0.92925614

transformer_encoder.layers.0.norm1.bias f4 [48]
0	0x3df21be1	0.11821724
1	0x3cc757e0	0.024333894
2	0x3db67822	0.08909632
3	0xbce0dc57	-0.027448816
4	0xbd2e4261	-0.042543773
5	0x3d8b191f	0.06791901
6	0x3d014cfb	0.031567555
7	0xbd2acfdb	-0.041702133
8	0xbdb3b2aa	-0.08774312
9	0xbdb13324	-0.086523324
10	0x3d70eddf	0.0588206
11	0x3d1a211c	0.03762923
12	0xbd1ce69b	-0.03830586
13	0xbd147a24	-0.036249295
14	0x3d434a0d	0.047678042
15	0x3df5d364	0.1200321
16	0xbd258a85	-0.040415306
17	0xbd1c1f56	-0.03811582
18	0xbcac62d1	-0.021043213
19	0xbd029d0c	-0.031888053
20	0x3d1f9324	0.038958684
21	0x3d01a6ee	0.031653337
22	0x3c3910b6	0.011295488
23	0xbc36b944	-0.011152569
24	0x3ccb46e5	0.024814079
25	0xbd4a56a0	-0.04939902
26	0xbda08cf5	-0.078393854
27	0x3da405bb	0.080089055
28	0xbe41d80a	-0.18930069
29	0xbc18aa3b	-0.00931793
30	0xbda0aa72	-0.0784501
31	0x3d12eebb	0.035872202
32	0xbead7247	-0.3387625
33	0xbdab52eb	-0.08365425
34	0xbe895196	-0.26820058
35	0x3d73633f	0.05942082
36	0xbc49df2b	-0.012321274
37	0x3d2a58ea	0.0415887
38	0xbd1012d2	-0.0351742
39	0x3d2dccf0	0.04243177
40	0x3d45f68f	0.04833084
41	0xbd557082	-0.05210925
42	0x3c89c4c0	0.01681745
43	0x391d6421	0.00015009988
44	0xbdd3056c	-0.103037685
45	0x3c5e819a	0.013580704
46	0x3c8e9c13	0.017408406
47	0x3c28cfe9	0.010303476

transformer_encoder.layers.0.norm2.weight f4 [48]
0	0x3f4032a2	0.7507726
1	0x3f49c67a	0.78818476
2	0x3f5ad718	0.85484457
3	0x3f647d3f	0.8925361
4	0x3f389bef	0.72112936
5	0x3f3a8787	0.7286305
6	0x3f4d16ff	0.80113214
7	0x3f5f8b0a	0.8732153
8	0x3f6a3648	0.91489077
9	0x3f7c0d8d	0.98458177
10	0x3f5d3da6	0.86422193
11	0x3f7f34ab	0.9968974
12	0x3f4e5bd6	0.8060888
13	0x3f741268	0.95340586
14	0x3f72d114	0.9485028
15	0x3f6e6b0b	0.93132085
16	0x3f41f459	0.7576347
17	0x3f69b4bb	0.912914
18	0x3f714678	0.9424815
19	0x3f6e7c0e	0.9315804
20	0x3f644cbf	0.89179605
21	0x3f4c5db3	0.79830474
22	0x3f6c8f5c	0.9240625
23	0x3f69e5b0	0.913661
24	0x3f63075f	0.8868312
25	0x3f47e28d	0.78080064
26	0x3f7c7ed7	0.9863104
27	0x3f825485	1.0182043
28	0x3f804eab	1.0024008
29	0x3f73fcdc	0.9530771
30	0x3f4effe5	0.80859214
31	0x3f234546	0.6377758
32	0x3f6e523c	0.9309423
33	0x3f757432	0.95880425
34	0x3f7e014b	0.9922072
35	0x3f759c8e	0.9594201
36	0x3f5d34b7	0.8640856
37	0x3f289cde	0.6586436
38	0x3f18f27d	0.5974501
39	0x3f7ec3fa	0.99517787
40	0x3f2e0ca8	0.6798806
41	0x3f705666	0.93881834
42	0x3f6e55f4	0.93099904
43	0x3f77762f	0.9666471
44	0x3f87b666	1.0602539
45	0x3f6ffef1	0.93748385
46	0x3f62b90c	0.8856361
47	0x3f610ec4	0.87913156
